…
I0225 16:56:39.082085 47071 net.cpp:322] The NetState phase (0) differed from the phase (1) specified by a rule in layer bn_ks_1_deconv_1
I0225 16:56:39.083101 47071 net.cpp:58] Initializing net from parameters: 
name: "ROS_CovDec"
state {
  phase: TRAIN
  level: 0
  stage: ""
}
layer {
  name: "img"
  type: "TripletImageData"
  top: "img"
  top: "labelImage"
  include {
    phase: TRAIN
  }
  transform_param {
    mean_value: 115.269
    mean_value: 122.346
    mean_value: 122.819
  }
  image_data_param {
    source: "/disk2/yangle/dataset/triDataset/triList.tri"
    batch_size: 1
    root_folder: "/disk2/yangle/dataset/triDataset/img/"
  }
}
layer {
  name: "imgSilence"
  type: "Silence"
  bottom: "labelImage"
  include {
    phase: TRAIN
  }
}
layer {
  name: "mask"
  type: "TripletImageData"
  top: "mask"
  top: "labelMask"
  include {
    phase: TRAIN
  }
  transform_param {
    scale: 0.0039215689
  }
  image_data_param {
    source: "/disk2/yangle/dataset/triDataset/triList.tri"
    batch_size: 1
    is_color: false
    root_folder: "/disk2/yangle/dataset/triDataset/mask/"
  }
}
layer {
  name: "maskSilence"
  type: "Silence"
  bottom: "labelMask"
  include {
    phase: TRAIN
  }
}
layer {
  name: "opflowX"
  type: "Data"
  top: "opflowX"
  top: "opflowLabel"
  include {
    phase: TRAIN
  }
  data_param {
    source: "/disk2/yangle/dataset/triDataset/lmdb/train_opX_lmdb"
    batch_size: 1
    backend: LMDB
  }
}
layer {
  name: "opflowY"
  type: "Data"
  top: "opflowY"
  include {
    phase: TRAIN
  }
  data_param {
    source: "/disk2/yangle/dataset/triDataset/lmdb/train_opY_lmdb"
    batch_size: 1
    backend: LMDB
  }
}
layer {
  name: "conv1_1"
  type: "Convolution"
  bottom: "img"
  top: "conv1_1"
  param {
    lr_mult: 0.1
    decay_mult: 1
  }
  param {
    lr_mult: 0.2
    decay_mult: 0
  }
  convolution_param {
    num_output: 64
    pad: 1
    kernel_size: 3
  }
}
layer {
  name: "relu1_1"
  type: "ReLU"
  bottom: "conv1_1"
  top: "conv1_1"
}
layer {
  name: "conv1_2"
  type: "Convolution"
  bottom: "conv1_1"
  top: "conv1_2"
  param {
    lr_mult: 0.1
    decay_mult: 1
  }
  param {
    lr_mult: 0.2
    decay_mult: 0
  }
  convolution_param {
    num_output: 64
    pad: 1
    kernel_size: 3
  }
}
layer {
  name: "relu1_2"
  type: "ReLU"
  bottom: "conv1_2"
  top: "conv1_2"
}
layer {
  name: "pool1"
  type: "Pooling"
  bottom: "conv1_2"
  top: "pool1"
  pooling_param {
    pool: MAX
    kernel_size: 2
    stride: 2
  }
}
layer {
  name: "conv2_1"
  type: "Convolution"
  bottom: "pool1"
  top: "conv2_1"
  param {
    lr_mult: 0.1
    decay_mult: 1
  }
  param {
    lr_mult: 0.2
    decay_mult: 0
  }
  convolution_param {
    num_output: 128
    pad: 1
    kernel_size: 3
  }
}
layer {
  name: "relu2_1"
  type: "ReLU"
  bottom: "conv2_1"
  top: "conv2_1"
}
layer {
  name: "conv2_2"
  type: "Convolution"
  bottom: "conv2_1"
  top: "conv2_2"
  param {
    lr_mult: 0.1
    decay_mult: 1
  }
  param {
    lr_mult: 0.2
    decay_mult: 0
  }
  convolution_param {
    num_output: 128
    pad: 1
    kernel_size: 3
  }
}
layer {
  name: "relu2_2"
  type: "ReLU"
  bottom: "conv2_2"
  top: "conv2_2"
}
layer {
  name: "pool2"
  type: "Pooling"
  bottom: "conv2_2"
  top: "pool2"
  pooling_param {
    pool: MAX
    kernel_size: 2
    stride: 2
  }
}
layer {
  name: "conv3_1"
  type: "Convolution"
  bottom: "pool2"
  top: "conv3_1"
  param {
    lr_mult: 0.1
    decay_mult: 1
  }
  param {
    lr_mult: 0.2
    decay_mult: 0
  }
  convolution_param {
    num_output: 256
    pad: 1
    kernel_size: 3
  }
}
layer {
  name: "relu3_1"
  type: "ReLU"
  bottom: "conv3_1"
  top: "conv3_1"
}
layer {
  name: "conv3_2"
  type: "Convolution"
  bottom: "conv3_1"
  top: "conv3_2"
  param {
    lr_mult: 0.1
    decay_mult: 1
  }
  param {
    lr_mult: 0.2
    decay_mult: 0
  }
  convolution_param {
    num_output: 256
    pad: 1
    kernel_size: 3
  }
}
layer {
  name: "relu3_2"
  type: "ReLU"
  bottom: "conv3_2"
  top: "conv3_2"
}
layer {
  name: "conv3_3"
  type: "Convolution"
  bottom: "conv3_2"
  top: "conv3_3"
  param {
    lr_mult: 0.1
    decay_mult: 1
  }
  param {
    lr_mult: 0.2
    decay_mult: 0
  }
  convolution_param {
    num_output: 256
    pad: 1
    kernel_size: 3
  }
}
layer {
  name: "relu3_3"
  type: "ReLU"
  bottom: "conv3_3"
  top: "conv3_3"
}
layer {
  name: "pool3"
  type: "Pooling"
  bottom: "conv3_3"
  top: "pool3"
  pooling_param {
    pool: MAX
    kernel_size: 2
    stride: 2
  }
}
layer {
  name: "conv4_1"
  type: "Convolution"
  bottom: "pool3"
  top: "conv4_1"
  param {
    lr_mult: 0.1
    decay_mult: 1
  }
  param {
    lr_mult: 0.2
    decay_mult: 0
  }
  convolution_param {
    num_output: 512
    pad: 1
    kernel_size: 3
  }
}
layer {
  name: "relu4_1"
  type: "ReLU"
  bottom: "conv4_1"
  top: "conv4_1"
}
layer {
  name: "conv4_2"
  type: "Convolution"
  bottom: "conv4_1"
  top: "conv4_2"
  param {
    lr_mult: 0.1
    decay_mult: 1
  }
  param {
    lr_mult: 0.2
    decay_mult: 0
  }
  convolution_param {
    num_output: 512
    pad: 1
    kernel_size: 3
  }
}
layer {
  name: "relu4_2"
  type: "ReLU"
  bottom: "conv4_2"
  top: "conv4_2"
}
layer {
  name: "conv4_3"
  type: "Convolution"
  bottom: "conv4_2"
  top: "conv4_3"
  param {
    lr_mult: 0.1
    decay_mult: 1
  }
  param {
    lr_mult: 0.2
    decay_mult: 0
  }
  convolution_param {
    num_output: 512
    pad: 1
    kernel_size: 3
  }
}
layer {
  name: "relu4_3"
  type: "ReLU"
  bottom: "conv4_3"
  top: "conv4_3"
}
layer {
  name: "conv5_1"
  type: "Convolution"
  bottom: "conv4_3"
  top: "conv5_1"
  param {
    lr_mult: 0.1
    decay_mult: 1
  }
  param {
    lr_mult: 0.2
    decay_mult: 0
  }
  convolution_param {
    num_output: 512
    pad: 2
    kernel_size: 3
    dilation: 2
  }
}
layer {
  name: "relu5_1"
  type: "ReLU"
  bottom: "conv5_1"
  top: "conv5_1"
}
layer {
  name: "conv5_2"
  type: "Convolution"
  bottom: "conv5_1"
  top: "conv5_2"
  param {
    lr_mult: 0.1
    decay_mult: 1
  }
  param {
    lr_mult: 0.2
    decay_mult: 0
  }
  convolution_param {
    num_output: 512
    pad: 2
    kernel_size: 3
    dilation: 2
  }
}
layer {
  name: "relu5_2"
  type: "ReLU"
  bottom: "conv5_2"
  top: "conv5_2"
}
layer {
  name: "conv5_3"
  type: "Convolution"
  bottom: "conv5_2"
  top: "conv5_3"
  param {
    lr_mult: 0.1
    decay_mult: 1
  }
  param {
    lr_mult: 0.2
    decay_mult: 0
  }
  convolution_param {
    num_output: 512
    pad: 2
    kernel_size: 3
    dilation: 2
  }
}
layer {
  name: "relu5_3"
  type: "ReLU"
  bottom: "conv5_3"
  top: "conv5_3"
}
layer {
  name: "top_cov"
  type: "Convolution"
  bottom: "conv5_3"
  top: "top_cov"
  param {
    lr_mult: 1
    decay_mult: 1
  }
  param {
    lr_mult: 2
    decay_mult: 0
  }
  convolution_param {
    num_output: 128
    pad: 1
    kernel_size: 3
    weight_filler {
      type: "gaussian"
      std: 0.01
    }
    bias_filler {
      type: "constant"
    }
  }
}
layer {
  name: "relu_top_cov"
  type: "ReLU"
  bottom: "top_cov"
  top: "top_cov"
}
layer {
  name: "km_1_conv_5"
  type: "Convolution"
  bottom: "top_cov"
  top: "km_1_conv_5"
  param {
    lr_mult: 1
    decay_mult: 1
  }
  param {
    lr_mult: 2
    decay_mult: 0
  }
  convolution_param {
    num_output: 512
    pad: 1
    kernel_size: 3
    weight_filler {
      type: "gaussian"
      std: 0.01
    }
    bias_filler {
      type: "constant"
    }
  }
}
layer {
  name: "relu_km_1_deconv_5"
  type: "ReLU"
  bottom: "km_1_conv_5"
  top: "km_1_conv_5"
}
layer {
  name: "km_2_conv_4"
  type: "Convolution"
  bottom: "km_1_conv_5"
  top: "km_2_conv_4"
  param {
    lr_mult: 1
    decay_mult: 1
  }
  param {
    lr_mult: 2
    decay_mult: 0
  }
  convolution_param {
    num_output: 256
    pad: 1
    kernel_size: 3
    weight_filler {
      type: "gaussian"
      std: 0.01
    }
    bias_filler {
      type: "constant"
    }
  }
}
layer {
  name: "bn_km_2_conv_4"
  type: "BatchNorm"
  bottom: "km_2_conv_4"
  top: "km_2_conv_4"
  include {
    phase: TRAIN
  }
  batch_norm_param {
    use_global_stats: false
  }
}
layer {
  name: "relu_km_2_conv_4"
  type: "ReLU"
  bottom: "km_2_conv_4"
  top: "km_2_conv_4"
}
layer {
  name: "ks_1_deconv_4"
  type: "Convolution"
  bottom: "conv4_3"
  top: "ks_1_deconv_4"
  param {
    lr_mult: 1
    decay_mult: 1
  }
  param {
    lr_mult: 2
    decay_mult: 0
  }
  convolution_param {
    num_output: 256
    pad: 1
    kernel_size: 3
    weight_filler {
      type: "gaussian"
      std: 0.01
    }
    bias_filler {
      type: "constant"
    }
  }
}
layer {
  name: "bn_ks_1_deconv_4"
  type: "BatchNorm"
  bottom: "ks_1_deconv_4"
  top: "ks_1_deconv_4"
  include {
    phase: TRAIN
  }
  batch_norm_param {
    use_global_stats: false
  }
}
layer {
  name: "relu_ks_1_deconv_4"
  type: "ReLU"
  bottom: "ks_1_deconv_4"
  top: "ks_1_deconv_4"
}
layer {
  name: "concat4"
  type: "Concat"
  bottom: "ks_1_deconv_4"
  bottom: "km_2_conv_4"
  top: "concat4"
  concat_param {
    concat_dim: 1
  }
}
layer {
  name: "cov_deconv_4"
  type: "Convolution"
  bottom: "concat4"
  top: "cov_deconv_4"
  param {
    lr_mult: 1
    decay_mult: 1
  }
  param {
    lr_mult: 2
    decay_mult: 0
  }
  convolution_param {
    num_output: 256
    pad: 1
    kernel_size: 3
    weight_filler {
      type: "gaussian"
      std: 0.01
    }
    bias_filler {
      type: "constant"
    }
  }
}
layer {
  name: "relu_cov_deconv_4"
  type: "ReLU"
  bottom: "cov_deconv_4"
  top: "cov_deconv_4"
}
layer {
  name: "km_1_deconv_3"
  type: "Deconvolution"
  bottom: "cov_deconv_4"
  top: "km_1_deconv_3"
  param {
    lr_mult: 0.01
    decay_mult: 0.01
  }
  convolution_param {
    num_output: 256
    bias_term: false
    pad: 1
    kernel_size: 4
    group: 256
    stride: 2
    weight_filler {
      type: "bilinear"
    }
  }
}
layer {
  name: "km_2_conv_3"
  type: "Convolution"
  bottom: "km_1_deconv_3"
  top: "km_2_conv_3"
  param {
    lr_mult: 1
    decay_mult: 1
  }
  param {
    lr_mult: 2
    decay_mult: 0
  }
  convolution_param {
    num_output: 128
    pad: 1
    kernel_size: 3
    weight_filler {
      type: "gaussian"
      std: 0.01
    }
    bias_filler {
      type: "constant"
    }
  }
}
layer {
  name: "bn_km_2_conv_3"
  type: "BatchNorm"
  bottom: "km_2_conv_3"
  top: "km_2_conv_3"
  include {
    phase: TRAIN
  }
  batch_norm_param {
    use_global_stats: false
  }
}
layer {
  name: "relu_km_2_conv_3"
  type: "ReLU"
  bottom: "km_2_conv_3"
  top: "km_2_conv_3"
}
layer {
  name: "ks_1_deconv_3"
  type: "Convolution"
  bottom: "conv3_3"
  top: "ks_1_deconv_3"
  param {
    lr_mult: 1
    decay_mult: 1
  }
  param {
    lr_mult: 2
    decay_mult: 0
  }
  convolution_param {
    num_output: 128
    pad: 1
    kernel_size: 3
    weight_filler {
      type: "gaussian"
      std: 0.01
    }
    bias_filler {
      type: "constant"
    }
  }
}
layer {
  name: "bn_ks_1_deconv_3"
  type: "BatchNorm"
  bottom: "ks_1_deconv_3"
  top: "ks_1_deconv_3"
  include {
    phase: TRAIN
  }
  batch_norm_param {
    use_global_stats: false
  }
}
layer {
  name: "relu_ks_1_deconv_3"
  type: "ReLU"
  bottom: "ks_1_deconv_3"
  top: "ks_1_deconv_3"
}
layer {
  name: "concat3"
  type: "Concat"
  bottom: "ks_1_deconv_3"
  bottom: "km_2_conv_3"
  top: "concat3"
  concat_param {
    concat_dim: 1
  }
}
layer {
  name: "cov_deconv_3"
  type: "Convolution"
  bottom: "concat3"
  top: "cov_deconv_3"
  param {
    lr_mult: 1
    decay_mult: 1
  }
  param {
    lr_mult: 2
    decay_mult: 0
  }
  convolution_param {
    num_output: 128
    pad: 1
    kernel_size: 3
    weight_filler {
      type: "gaussian"
      std: 0.01
    }
    bias_filler {
      type: "constant"
    }
  }
}
layer {
  name: "relu_cov_deconv_3"
  type: "ReLU"
  bottom: "cov_deconv_3"
  top: "cov_deconv_3"
}
layer {
  name: "km_1_deconv_2"
  type: "Deconvolution"
  bottom: "cov_deconv_3"
  top: "km_1_deconv_2"
  param {
    lr_mult: 0.01
    decay_mult: 0.01
  }
  convolution_param {
    num_output: 128
    bias_term: false
    pad: 1
    kernel_size: 4
    group: 128
    stride: 2
    weight_filler {
      type: "bilinear"
    }
  }
}
layer {
  name: "km_2_conv_2"
  type: "Convolution"
  bottom: "km_1_deconv_2"
  top: "km_2_conv_2"
  param {
    lr_mult: 1
    decay_mult: 1
  }
  param {
    lr_mult: 2
    decay_mult: 0
  }
  convolution_param {
    num_output: 64
    pad: 1
    kernel_size: 3
    weight_filler {
      type: "gaussian"
      std: 0.01
    }
    bias_filler {
      type: "constant"
    }
  }
}
layer {
  name: "bn_km_2_conv_2"
  type: "BatchNorm"
  bottom: "km_2_conv_2"
  top: "km_2_conv_2"
  include {
    phase: TRAIN
  }
  batch_norm_param {
    use_global_stats: false
  }
}
layer {
  name: "relu_km_2_conv_2"
  type: "ReLU"
  bottom: "km_2_conv_2"
  top: "km_2_conv_2"
}
layer {
  name: "ks_1_deconv_2"
  type: "Convolution"
  bottom: "conv2_2"
  top: "ks_1_deconv_2"
  param {
    lr_mult: 1
    decay_mult: 1
  }
  param {
    lr_mult: 2
    decay_mult: 0
  }
  convolution_param {
    num_output: 64
    pad: 1
    kernel_size: 3
    weight_filler {
      type: "gaussian"
      std: 0.01
    }
    bias_filler {
      type: "constant"
    }
  }
}
layer {
  name: "bn_ks_1_deconv_2"
  type: "BatchNorm"
  bottom: "ks_1_deconv_2"
  top: "ks_1_deconv_2"
  include {
    phase: TRAIN
  }
  batch_norm_param {
    use_global_stats: false
  }
}
layer {
  name: "relu_ks_1_deconv_2"
  type: "ReLU"
  bottom: "ks_1_deconv_2"
  top: "ks_1_deconv_2"
}
layer {
  name: "concat2"
  type: "Concat"
  bottom: "ks_1_deconv_2"
  bottom: "km_2_conv_2"
  top: "concat2"
  concat_param {
    concat_dim: 1
  }
}
layer {
  name: "cov_deconv_2"
  type: "Convolution"
  bottom: "concat2"
  top: "cov_deconv_2"
  param {
    lr_mult: 1
    decay_mult: 1
  }
  param {
    lr_mult: 2
    decay_mult: 0
  }
  convolution_param {
    num_output: 64
    pad: 1
    kernel_size: 3
    weight_filler {
      type: "gaussian"
      std: 0.01
    }
    bias_filler {
      type: "constant"
    }
  }
}
layer {
  name: "relu_cov_deconv_2"
  type: "ReLU"
  bottom: "cov_deconv_2"
  top: "cov_deconv_2"
}
layer {
  name: "km_1_deconv_1"
  type: "Deconvolution"
  bottom: "cov_deconv_2"
  top: "km_1_deconv_1"
  param {
    lr_mult: 0.01
    decay_mult: 0.01
  }
  convolution_param {
    num_output: 64
    bias_term: false
    pad: 1
    kernel_size: 4
    group: 64
    stride: 2
    weight_filler {
      type: "bilinear"
    }
  }
}
layer {
  name: "km_1_conv_1"
  type: "Convolution"
  bottom: "km_1_deconv_1"
  top: "km_1_conv_1"
  param {
    lr_mult: 1
    decay_mult: 1
  }
  param {
    lr_mult: 2
    decay_mult: 0
  }
  convolution_param {
    num_output: 32
    pad: 1
    kernel_size: 3
    weight_filler {
      type: "gaussian"
      std: 0.01
    }
    bias_filler {
      type: "constant"
    }
  }
}
layer {
  name: "bn_km_1_conv_1"
  type: "BatchNorm"
  bottom: "km_1_conv_1"
  top: "km_1_conv_1"
  include {
    phase: TRAIN
  }
  batch_norm_param {
    use_global_stats: false
  }
}
layer {
  name: "relu_km_1_conv_1"
  type: "ReLU"
  bottom: "km_1_conv_1"
  top: "km_1_conv_1"
}
layer {
  name: "ks_1_deconv_1"
  type: "Convolution"
  bottom: "conv1_2"
  top: "ks_1_deconv_1"
  param {
    lr_mult: 1
    decay_mult: 1
  }
  param {
    lr_mult: 2
    decay_mult: 0
  }
  convolution_param {
    num_output: 32
    pad: 1
    kernel_size: 3
    weight_filler {
      type: "gaussian"
      std: 0.01
    }
    bias_filler {
      type: "constant"
    }
  }
}
layer {
  name: "bn_ks_1_deconv_1"
  type: "BatchNorm"
  bottom: "ks_1_deconv_1"
  top: "ks_1_deconv_1"
  include {
    phase: TRAIN
  }
  batch_norm_param {
    use_global_stats: false
  }
}
layer {
  name: "relu_ks_1_deconv_1"
  type: "ReLU"
  bottom: "ks_1_deconv_1"
  top: "ks_1_deconv_1"
}
layer {
  name: "concat1"
  type: "Concat"
  bottom: "ks_1_deconv_1"
  bottom: "km_1_conv_1"
  top: "concat1"
  concat_param {
    concat_dim: 1
  }
}
layer {
  name: "segfuse"
  type: "Convolution"
  bottom: "concat1"
  top: "segfuse"
  param {
    lr_mult: 1
    decay_mult: 1
  }
  param {
    lr_mult: 2
    decay_mult: 0
  }
  convolution_param {
    num_output: 8
    pad: 1
    kernel_size: 3
    weight_filler {
      type: "gaussian"
      std: 0.01
    }
    bias_filler {
      type: "constant"
    }
  }
}
layer {
  name: "relu_segfuse"
  type: "ReLU"
  bottom: "segfuse"
  top: "segfuse"
}
layer {
  name: "segres"
  type: "Convolution"
  bottom: "segfuse"
  top: "segres"
  param {
    lr_mult: 1
    decay_mult: 1
  }
  param {
    lr_mult: 2
    decay_mult: 0
  }
  convolution_param {
    num_output: 2
    pad: 1
    kernel_size: 3
    weight_filler {
      type: "gaussian"
      std: 0.01
    }
    bias_filler {
      type: "constant"
    }
  }
}
layer {
  name: "loss_cov_deconv_1"
  type: "SoftmaxWithLoss"
  bottom: "segres"
  bottom: "mask"
  top: "loss_cov_deconv_1"
  loss_param {
    normalization: VALID
  }
}
layer {
  name: "sliSegres"
  type: "Slice"
  bottom: "segres"
  top: "QurImg"
  top: "PosImg"
  top: "NegImg"
  slice_param {
    axis: 0
  }
}
layer {
  name: "NegImgSilence"
  type: "Silence"
  bottom: "NegImg"
}
layer {
  name: "sliQurImg"
  type: "Slice"
  bottom: "QurImg"
  top: "backQurImg"
  top: "foreQurImg"
  slice_param {
    axis: 1
  }
}
layer {
  name: "backQurImgSilence"
  type: "Silence"
  bottom: "backQurImg"
}
layer {
  name: "sliPosImg"
  type: "Slice"
  bottom: "PosImg"
  top: "backPosImg"
  top: "forePosImg"
  slice_param {
    axis: 1
  }
}
layer {
  name: "backPosImgSilence"
  type: "Silence"
  bottom: "backPosImg"
}
layer {
  name: "foreProjImg"
  type: "OpflowForeProject"
  bottom: "foreQurImg"
  bottom: "opflowX"
  bottom: "opflowY"
  bottom: "opflowLabel"
  top: "foreProjImg"
}
layer {
  name: "backProjImg"
  type: "OpflowBackProject"
  bottom: "forePosImg"
  bottom: "opflowX"
  bottom: "opflowY"
  bottom: "opflowLabel"
  top: "backProjImg"
}
layer {
  name: "resForeImg_1"
  type: "Reshape"
  bottom: "foreProjImg"
  top: "resForeImg_1"
  reshape_param {
    shape {
      dim: 0
      dim: 200704
      dim: 1
      dim: 1
    }
  }
}
layer {
  name: "softForeImg_1"
  type: "Softmax"
  bottom: "resForeImg_1"
  top: "softForeImg_1"
}
layer {
  name: "foreImg_1"
  type: "Reshape"
  bottom: "softForeImg_1"
  top: "foreImg_1"
  reshape_param {
    shape {
      dim: 0
      dim: 1
      dim: 448
      dim: 448
    }
  }
}
layer {
  name: "resForeImg_2"
  type: "Reshape"
  bottom: "forePosImg"
  top: "resForeImg_2"
  reshape_param {
    shape {
      dim: 0
      dim: 200704
      dim: 1
      dim: 1
    }
  }
}
layer {
  name: "softForeImg_2"
  type: "Softmax"
  bottom: "resForeImg_2"
  top: "softForeImg_2"
}
layer {
  name: "foreImg_2"
  type: "Reshape"
  bottom: "softForeImg_2"
  top: "foreImg_2"
  reshape_param {
    shape {
      dim: 0
      dim: 1
      dim: 448
      dim: 448
    }
  }
}
layer {
  name: "foreSalSmilarLoss"
  type: "EuclideanLoss"
  bottom: "foreImg_1"
  bottom: "foreImg_2"
  top: "foreSalSmilarLoss"
  loss_weight: 0.001
}
layer {
  name: "resBackImg_1"
  type: "Reshape"
  bottom: "backProjImg"
  top: "resBackImg_1"
  reshape_param {
    shape {
      dim: 0
      dim: 200704
      dim: 1
      dim: 1
    }
  }
}
layer {
  name: "softBackImg_1"
  type: "Softmax"
  bottom: "resBackImg_1"
  top: "softBackImg_1"
}
layer {
  name: "backImg_1"
  type: "Reshape"
  bottom: "softBackImg_1"
  top: "backImg_1"
  reshape_param {
    shape {
      dim: 0
      dim: 1
      dim: 448
      dim: 448
    }
  }
}
layer {
  name: "resBackImg_2"
  type: "Reshape"
  bottom: "foreQurImg"
  top: "resBackImg_2"
  reshape_param {
    shape {
      dim: 0
      dim: 200704
      dim: 1
      dim: 1
    }
  }
}
layer {
  name: "softBackImg_2"
  type: "Softmax"
  bottom: "resBackImg_2"
  top: "softBackImg_2"
}
layer {
  name: "backImg_2"
  type: "Reshape"
  bottom: "softBackImg_2"
  top: "backImg_2"
  reshape_param {
    shape {
      dim: 0
      dim: 1
      dim: 448
      dim: 448
    }
  }
}
layer {
  name: "backSalSmilarLoss"
  type: "EuclideanLoss"
  bottom: "backImg_1"
  bottom: "backImg_2"
  top: "backSalSmilarLoss"
  loss_weight: 0.001
}
I0225 16:56:39.084077 47071 layer_factory.hpp:77] Creating layer img
I0225 16:56:39.084156 47071 net.cpp:100] Creating Layer img
I0225 16:56:39.084174 47071 net.cpp:408] img -> img
I0225 16:56:39.084220 47071 net.cpp:408] img -> labelImage
I0225 16:56:39.084249 47071 triplet_image_data_layer.cpp:37] Opening file /disk2/yangle/dataset/triDataset/triList.tri
I0225 16:56:39.084619 47071 triplet_image_data_layer.cpp:58] A total of 100 images.
I0225 16:56:39.144832 47071 triplet_image_data_layer.cpp:86] output data size: 3,3,448,448
I0225 16:56:39.144922 47071 triplet_image_data_layer.cpp:99] output label size: 3,1,1,1
I0225 16:56:39.173096 47071 net.cpp:150] Setting up img
I0225 16:56:39.173143 47071 net.cpp:157] Top shape: 3 3 448 448 (1806336)
I0225 16:56:39.173158 47071 net.cpp:157] Top shape: 3 1 1 1 (3)
I0225 16:56:39.173166 47071 net.cpp:165] Memory required for data: 7225356
I0225 16:56:39.173179 47071 layer_factory.hpp:77] Creating layer imgSilence
I0225 16:56:39.173215 47071 net.cpp:100] Creating Layer imgSilence
I0225 16:56:39.173231 47071 net.cpp:434] imgSilence <- labelImage
I0225 16:56:39.173249 47071 net.cpp:150] Setting up imgSilence
I0225 16:56:39.173252 47071 net.cpp:165] Memory required for data: 7225356
I0225 16:56:39.173257 47071 layer_factory.hpp:77] Creating layer mask
I0225 16:56:39.173280 47071 net.cpp:100] Creating Layer mask
I0225 16:56:39.173292 47071 net.cpp:408] mask -> mask
I0225 16:56:39.173317 47071 net.cpp:408] mask -> labelMask
I0225 16:56:39.173336 47071 triplet_image_data_layer.cpp:37] Opening file /disk2/yangle/dataset/triDataset/triList.tri
I0225 16:56:39.173663 47071 triplet_image_data_layer.cpp:58] A total of 100 images.
I0225 16:56:39.174840 47071 triplet_image_data_layer.cpp:86] output data size: 3,1,448,448
I0225 16:56:39.174944 47071 triplet_image_data_layer.cpp:99] output label size: 3,1,1,1
I0225 16:56:39.190644 47071 net.cpp:150] Setting up mask
I0225 16:56:39.190691 47071 net.cpp:157] Top shape: 3 1 448 448 (602112)
I0225 16:56:39.190704 47071 net.cpp:157] Top shape: 3 1 1 1 (3)
I0225 16:56:39.190711 47071 net.cpp:165] Memory required for data: 9633816
I0225 16:56:39.190722 47071 layer_factory.hpp:77] Creating layer maskSilence
I0225 16:56:39.190744 47071 net.cpp:100] Creating Layer maskSilence
I0225 16:56:39.190758 47071 net.cpp:434] maskSilence <- labelMask
I0225 16:56:39.190771 47071 net.cpp:150] Setting up maskSilence
I0225 16:56:39.190778 47071 net.cpp:165] Memory required for data: 9633816
I0225 16:56:39.190784 47071 layer_factory.hpp:77] Creating layer opflowX
I0225 16:56:39.190910 47071 net.cpp:100] Creating Layer opflowX
I0225 16:56:39.190928 47071 net.cpp:408] opflowX -> opflowX
I0225 16:56:39.190948 47071 net.cpp:408] opflowX -> opflowLabel
I0225 16:56:39.193840 47080 db_lmdb.cpp:35] Opened lmdb /disk2/yangle/dataset/triDataset/lmdb/train_opX_lmdb
I0225 16:56:39.194648 47071 data_layer.cpp:41] output data size: 1,1,448,448
I0225 16:56:39.209450 47071 net.cpp:150] Setting up opflowX
I0225 16:56:39.209491 47071 net.cpp:157] Top shape: 1 1 448 448 (200704)
I0225 16:56:39.209502 47071 net.cpp:157] Top shape: 1 (1)
I0225 16:56:39.209509 47071 net.cpp:165] Memory required for data: 10436636
I0225 16:56:39.209519 47071 layer_factory.hpp:77] Creating layer opflowX_opflowX_0_split
I0225 16:56:39.209545 47071 net.cpp:100] Creating Layer opflowX_opflowX_0_split
I0225 16:56:39.209558 47071 net.cpp:434] opflowX_opflowX_0_split <- opflowX
I0225 16:56:39.209576 47071 net.cpp:408] opflowX_opflowX_0_split -> opflowX_opflowX_0_split_0
I0225 16:56:39.209594 47071 net.cpp:408] opflowX_opflowX_0_split -> opflowX_opflowX_0_split_1
I0225 16:56:39.209688 47071 net.cpp:150] Setting up opflowX_opflowX_0_split
I0225 16:56:39.209703 47071 net.cpp:157] Top shape: 1 1 448 448 (200704)
I0225 16:56:39.209714 47071 net.cpp:157] Top shape: 1 1 448 448 (200704)
I0225 16:56:39.209722 47071 net.cpp:165] Memory required for data: 12042268
I0225 16:56:39.209729 47071 layer_factory.hpp:77] Creating layer opflowLabel_opflowX_1_split
I0225 16:56:39.209740 47071 net.cpp:100] Creating Layer opflowLabel_opflowX_1_split
I0225 16:56:39.209749 47071 net.cpp:434] opflowLabel_opflowX_1_split <- opflowLabel
I0225 16:56:39.209761 47071 net.cpp:408] opflowLabel_opflowX_1_split -> opflowLabel_opflowX_1_split_0
I0225 16:56:39.209779 47071 net.cpp:408] opflowLabel_opflowX_1_split -> opflowLabel_opflowX_1_split_1
I0225 16:56:39.209841 47071 net.cpp:150] Setting up opflowLabel_opflowX_1_split
I0225 16:56:39.209853 47071 net.cpp:157] Top shape: 1 (1)
I0225 16:56:39.209864 47071 net.cpp:157] Top shape: 1 (1)
I0225 16:56:39.209870 47071 net.cpp:165] Memory required for data: 12042276
I0225 16:56:39.209877 47071 layer_factory.hpp:77] Creating layer opflowY
I0225 16:56:39.209959 47071 net.cpp:100] Creating Layer opflowY
I0225 16:56:39.209976 47071 net.cpp:408] opflowY -> opflowY
I0225 16:56:39.211127 47082 db_lmdb.cpp:35] Opened lmdb /disk2/yangle/dataset/triDataset/lmdb/train_opY_lmdb
I0225 16:56:39.211596 47071 data_layer.cpp:41] output data size: 1,1,448,448
I0225 16:56:39.214573 47071 net.cpp:150] Setting up opflowY
I0225 16:56:39.214673 47071 net.cpp:157] Top shape: 1 1 448 448 (200704)
I0225 16:56:39.214701 47071 net.cpp:165] Memory required for data: 12845092
I0225 16:56:39.214727 47071 layer_factory.hpp:77] Creating layer opflowY_opflowY_0_split
I0225 16:56:39.214763 47071 net.cpp:100] Creating Layer opflowY_opflowY_0_split
I0225 16:56:39.214787 47071 net.cpp:434] opflowY_opflowY_0_split <- opflowY
I0225 16:56:39.214817 47071 net.cpp:408] opflowY_opflowY_0_split -> opflowY_opflowY_0_split_0
I0225 16:56:39.214851 47071 net.cpp:408] opflowY_opflowY_0_split -> opflowY_opflowY_0_split_1
I0225 16:56:39.214954 47071 net.cpp:150] Setting up opflowY_opflowY_0_split
I0225 16:56:39.214987 47071 net.cpp:157] Top shape: 1 1 448 448 (200704)
I0225 16:56:39.215010 47071 net.cpp:157] Top shape: 1 1 448 448 (200704)
I0225 16:56:39.215046 47071 net.cpp:165] Memory required for data: 14450724
I0225 16:56:39.215055 47071 layer_factory.hpp:77] Creating layer conv1_1
I0225 16:56:39.215080 47071 net.cpp:100] Creating Layer conv1_1
I0225 16:56:39.215090 47071 net.cpp:434] conv1_1 <- img
I0225 16:56:39.215106 47071 net.cpp:408] conv1_1 -> conv1_1
I0225 16:56:39.705930 47071 net.cpp:150] Setting up conv1_1
I0225 16:56:39.705993 47071 net.cpp:157] Top shape: 3 64 448 448 (38535168)
I0225 16:56:39.706001 47071 net.cpp:165] Memory required for data: 168591396
I0225 16:56:39.706030 47071 layer_factory.hpp:77] Creating layer relu1_1
I0225 16:56:39.706068 47071 net.cpp:100] Creating Layer relu1_1
I0225 16:56:39.706080 47071 net.cpp:434] relu1_1 <- conv1_1
I0225 16:56:39.706092 47071 net.cpp:395] relu1_1 -> conv1_1 (in-place)
I0225 16:56:39.706384 47071 net.cpp:150] Setting up relu1_1
I0225 16:56:39.706401 47071 net.cpp:157] Top shape: 3 64 448 448 (38535168)
I0225 16:56:39.706406 47071 net.cpp:165] Memory required for data: 322732068
I0225 16:56:39.706411 47071 layer_factory.hpp:77] Creating layer conv1_2
I0225 16:56:39.706449 47071 net.cpp:100] Creating Layer conv1_2
I0225 16:56:39.706459 47071 net.cpp:434] conv1_2 <- conv1_1
I0225 16:56:39.706468 47071 net.cpp:408] conv1_2 -> conv1_2
I0225 16:56:39.710114 47071 net.cpp:150] Setting up conv1_2
I0225 16:56:39.710144 47071 net.cpp:157] Top shape: 3 64 448 448 (38535168)
I0225 16:56:39.710150 47071 net.cpp:165] Memory required for data: 476872740
I0225 16:56:39.710166 47071 layer_factory.hpp:77] Creating layer relu1_2
I0225 16:56:39.710180 47071 net.cpp:100] Creating Layer relu1_2
I0225 16:56:39.710186 47071 net.cpp:434] relu1_2 <- conv1_2
I0225 16:56:39.710193 47071 net.cpp:395] relu1_2 -> conv1_2 (in-place)
I0225 16:56:39.711529 47071 net.cpp:150] Setting up relu1_2
I0225 16:56:39.711554 47071 net.cpp:157] Top shape: 3 64 448 448 (38535168)
I0225 16:56:39.711560 47071 net.cpp:165] Memory required for data: 631013412
I0225 16:56:39.711565 47071 layer_factory.hpp:77] Creating layer conv1_2_relu1_2_0_split
I0225 16:56:39.711602 47071 net.cpp:100] Creating Layer conv1_2_relu1_2_0_split
I0225 16:56:39.711608 47071 net.cpp:434] conv1_2_relu1_2_0_split <- conv1_2
I0225 16:56:39.711616 47071 net.cpp:408] conv1_2_relu1_2_0_split -> conv1_2_relu1_2_0_split_0
I0225 16:56:39.711627 47071 net.cpp:408] conv1_2_relu1_2_0_split -> conv1_2_relu1_2_0_split_1
I0225 16:56:39.711705 47071 net.cpp:150] Setting up conv1_2_relu1_2_0_split
I0225 16:56:39.711717 47071 net.cpp:157] Top shape: 3 64 448 448 (38535168)
I0225 16:56:39.711724 47071 net.cpp:157] Top shape: 3 64 448 448 (38535168)
I0225 16:56:39.711729 47071 net.cpp:165] Memory required for data: 939294756
I0225 16:56:39.711733 47071 layer_factory.hpp:77] Creating layer pool1
I0225 16:56:39.711746 47071 net.cpp:100] Creating Layer pool1
I0225 16:56:39.711753 47071 net.cpp:434] pool1 <- conv1_2_relu1_2_0_split_0
I0225 16:56:39.711760 47071 net.cpp:408] pool1 -> pool1
I0225 16:56:39.711843 47071 net.cpp:150] Setting up pool1
I0225 16:56:39.711854 47071 net.cpp:157] Top shape: 3 64 224 224 (9633792)
I0225 16:56:39.711858 47071 net.cpp:165] Memory required for data: 977829924
I0225 16:56:39.711863 47071 layer_factory.hpp:77] Creating layer conv2_1
I0225 16:56:39.711876 47071 net.cpp:100] Creating Layer conv2_1
I0225 16:56:39.711884 47071 net.cpp:434] conv2_1 <- pool1
I0225 16:56:39.711890 47071 net.cpp:408] conv2_1 -> conv2_1
I0225 16:56:39.716565 47071 net.cpp:150] Setting up conv2_1
I0225 16:56:39.716612 47071 net.cpp:157] Top shape: 3 128 224 224 (19267584)
I0225 16:56:39.716621 47071 net.cpp:165] Memory required for data: 1054900260
I0225 16:56:39.716647 47071 layer_factory.hpp:77] Creating layer relu2_1
I0225 16:56:39.716693 47071 net.cpp:100] Creating Layer relu2_1
I0225 16:56:39.716709 47071 net.cpp:434] relu2_1 <- conv2_1
I0225 16:56:39.716722 47071 net.cpp:395] relu2_1 -> conv2_1 (in-place)
I0225 16:56:39.717123 47071 net.cpp:150] Setting up relu2_1
I0225 16:56:39.717146 47071 net.cpp:157] Top shape: 3 128 224 224 (19267584)
I0225 16:56:39.717154 47071 net.cpp:165] Memory required for data: 1131970596
I0225 16:56:39.717198 47071 layer_factory.hpp:77] Creating layer conv2_2
I0225 16:56:39.717239 47071 net.cpp:100] Creating Layer conv2_2
I0225 16:56:39.717248 47071 net.cpp:434] conv2_2 <- conv2_1
I0225 16:56:39.717260 47071 net.cpp:408] conv2_2 -> conv2_2
I0225 16:56:39.723598 47071 net.cpp:150] Setting up conv2_2
I0225 16:56:39.723630 47071 net.cpp:157] Top shape: 3 128 224 224 (19267584)
I0225 16:56:39.723639 47071 net.cpp:165] Memory required for data: 1209040932
I0225 16:56:39.723668 47071 layer_factory.hpp:77] Creating layer relu2_2
I0225 16:56:39.723682 47071 net.cpp:100] Creating Layer relu2_2
I0225 16:56:39.723695 47071 net.cpp:434] relu2_2 <- conv2_2
I0225 16:56:39.723709 47071 net.cpp:395] relu2_2 -> conv2_2 (in-place)
I0225 16:56:39.724099 47071 net.cpp:150] Setting up relu2_2
I0225 16:56:39.724122 47071 net.cpp:157] Top shape: 3 128 224 224 (19267584)
I0225 16:56:39.724128 47071 net.cpp:165] Memory required for data: 1286111268
I0225 16:56:39.724135 47071 layer_factory.hpp:77] Creating layer conv2_2_relu2_2_0_split
I0225 16:56:39.724148 47071 net.cpp:100] Creating Layer conv2_2_relu2_2_0_split
I0225 16:56:39.724154 47071 net.cpp:434] conv2_2_relu2_2_0_split <- conv2_2
I0225 16:56:39.724170 47071 net.cpp:408] conv2_2_relu2_2_0_split -> conv2_2_relu2_2_0_split_0
I0225 16:56:39.724184 47071 net.cpp:408] conv2_2_relu2_2_0_split -> conv2_2_relu2_2_0_split_1
I0225 16:56:39.724279 47071 net.cpp:150] Setting up conv2_2_relu2_2_0_split
I0225 16:56:39.724299 47071 net.cpp:157] Top shape: 3 128 224 224 (19267584)
I0225 16:56:39.724308 47071 net.cpp:157] Top shape: 3 128 224 224 (19267584)
I0225 16:56:39.724319 47071 net.cpp:165] Memory required for data: 1440251940
I0225 16:56:39.724326 47071 layer_factory.hpp:77] Creating layer pool2
I0225 16:56:39.724339 47071 net.cpp:100] Creating Layer pool2
I0225 16:56:39.724345 47071 net.cpp:434] pool2 <- conv2_2_relu2_2_0_split_0
I0225 16:56:39.724356 47071 net.cpp:408] pool2 -> pool2
I0225 16:56:39.724439 47071 net.cpp:150] Setting up pool2
I0225 16:56:39.724454 47071 net.cpp:157] Top shape: 3 128 112 112 (4816896)
I0225 16:56:39.724460 47071 net.cpp:165] Memory required for data: 1459519524
I0225 16:56:39.724469 47071 layer_factory.hpp:77] Creating layer conv3_1
I0225 16:56:39.724498 47071 net.cpp:100] Creating Layer conv3_1
I0225 16:56:39.724509 47071 net.cpp:434] conv3_1 <- pool2
I0225 16:56:39.724525 47071 net.cpp:408] conv3_1 -> conv3_1
I0225 16:56:39.731555 47071 net.cpp:150] Setting up conv3_1
I0225 16:56:39.731613 47071 net.cpp:157] Top shape: 3 256 112 112 (9633792)
I0225 16:56:39.731623 47071 net.cpp:165] Memory required for data: 1498054692
I0225 16:56:39.731659 47071 layer_factory.hpp:77] Creating layer relu3_1
I0225 16:56:39.731688 47071 net.cpp:100] Creating Layer relu3_1
I0225 16:56:39.731703 47071 net.cpp:434] relu3_1 <- conv3_1
I0225 16:56:39.731726 47071 net.cpp:395] relu3_1 -> conv3_1 (in-place)
I0225 16:56:39.732177 47071 net.cpp:150] Setting up relu3_1
I0225 16:56:39.732199 47071 net.cpp:157] Top shape: 3 256 112 112 (9633792)
I0225 16:56:39.732205 47071 net.cpp:165] Memory required for data: 1536589860
I0225 16:56:39.732213 47071 layer_factory.hpp:77] Creating layer conv3_2
I0225 16:56:39.732231 47071 net.cpp:100] Creating Layer conv3_2
I0225 16:56:39.732247 47071 net.cpp:434] conv3_2 <- conv3_1
I0225 16:56:39.732260 47071 net.cpp:408] conv3_2 -> conv3_2
I0225 16:56:39.739631 47071 net.cpp:150] Setting up conv3_2
I0225 16:56:39.739667 47071 net.cpp:157] Top shape: 3 256 112 112 (9633792)
I0225 16:56:39.739675 47071 net.cpp:165] Memory required for data: 1575125028
I0225 16:56:39.739691 47071 layer_factory.hpp:77] Creating layer relu3_2
I0225 16:56:39.739715 47071 net.cpp:100] Creating Layer relu3_2
I0225 16:56:39.739725 47071 net.cpp:434] relu3_2 <- conv3_2
I0225 16:56:39.739743 47071 net.cpp:395] relu3_2 -> conv3_2 (in-place)
I0225 16:56:39.740104 47071 net.cpp:150] Setting up relu3_2
I0225 16:56:39.740125 47071 net.cpp:157] Top shape: 3 256 112 112 (9633792)
I0225 16:56:39.740131 47071 net.cpp:165] Memory required for data: 1613660196
I0225 16:56:39.740160 47071 layer_factory.hpp:77] Creating layer conv3_3
I0225 16:56:39.740191 47071 net.cpp:100] Creating Layer conv3_3
I0225 16:56:39.740206 47071 net.cpp:434] conv3_3 <- conv3_2
I0225 16:56:39.740221 47071 net.cpp:408] conv3_3 -> conv3_3
I0225 16:56:39.745890 47071 net.cpp:150] Setting up conv3_3
I0225 16:56:39.745952 47071 net.cpp:157] Top shape: 3 256 112 112 (9633792)
I0225 16:56:39.745959 47071 net.cpp:165] Memory required for data: 1652195364
I0225 16:56:39.745975 47071 layer_factory.hpp:77] Creating layer relu3_3
I0225 16:56:39.745990 47071 net.cpp:100] Creating Layer relu3_3
I0225 16:56:39.745995 47071 net.cpp:434] relu3_3 <- conv3_3
I0225 16:56:39.746001 47071 net.cpp:395] relu3_3 -> conv3_3 (in-place)
I0225 16:56:39.746249 47071 net.cpp:150] Setting up relu3_3
I0225 16:56:39.746263 47071 net.cpp:157] Top shape: 3 256 112 112 (9633792)
I0225 16:56:39.746268 47071 net.cpp:165] Memory required for data: 1690730532
I0225 16:56:39.746271 47071 layer_factory.hpp:77] Creating layer conv3_3_relu3_3_0_split
I0225 16:56:39.746279 47071 net.cpp:100] Creating Layer conv3_3_relu3_3_0_split
I0225 16:56:39.746284 47071 net.cpp:434] conv3_3_relu3_3_0_split <- conv3_3
I0225 16:56:39.746291 47071 net.cpp:408] conv3_3_relu3_3_0_split -> conv3_3_relu3_3_0_split_0
I0225 16:56:39.746304 47071 net.cpp:408] conv3_3_relu3_3_0_split -> conv3_3_relu3_3_0_split_1
I0225 16:56:39.746356 47071 net.cpp:150] Setting up conv3_3_relu3_3_0_split
I0225 16:56:39.746366 47071 net.cpp:157] Top shape: 3 256 112 112 (9633792)
I0225 16:56:39.746371 47071 net.cpp:157] Top shape: 3 256 112 112 (9633792)
I0225 16:56:39.746373 47071 net.cpp:165] Memory required for data: 1767800868
I0225 16:56:39.746376 47071 layer_factory.hpp:77] Creating layer pool3
I0225 16:56:39.746386 47071 net.cpp:100] Creating Layer pool3
I0225 16:56:39.746392 47071 net.cpp:434] pool3 <- conv3_3_relu3_3_0_split_0
I0225 16:56:39.746399 47071 net.cpp:408] pool3 -> pool3
I0225 16:56:39.746443 47071 net.cpp:150] Setting up pool3
I0225 16:56:39.746448 47071 net.cpp:157] Top shape: 3 256 56 56 (2408448)
I0225 16:56:39.746451 47071 net.cpp:165] Memory required for data: 1777434660
I0225 16:56:39.746455 47071 layer_factory.hpp:77] Creating layer conv4_1
I0225 16:56:39.746469 47071 net.cpp:100] Creating Layer conv4_1
I0225 16:56:39.746475 47071 net.cpp:434] conv4_1 <- pool3
I0225 16:56:39.746484 47071 net.cpp:408] conv4_1 -> conv4_1
I0225 16:56:39.754171 47071 net.cpp:150] Setting up conv4_1
I0225 16:56:39.754215 47071 net.cpp:157] Top shape: 3 512 56 56 (4816896)
I0225 16:56:39.754223 47071 net.cpp:165] Memory required for data: 1796702244
I0225 16:56:39.754241 47071 layer_factory.hpp:77] Creating layer relu4_1
I0225 16:56:39.754256 47071 net.cpp:100] Creating Layer relu4_1
I0225 16:56:39.754266 47071 net.cpp:434] relu4_1 <- conv4_1
I0225 16:56:39.754282 47071 net.cpp:395] relu4_1 -> conv4_1 (in-place)
I0225 16:56:39.756090 47071 net.cpp:150] Setting up relu4_1
I0225 16:56:39.756122 47071 net.cpp:157] Top shape: 3 512 56 56 (4816896)
I0225 16:56:39.756131 47071 net.cpp:165] Memory required for data: 1815969828
I0225 16:56:39.756139 47071 layer_factory.hpp:77] Creating layer conv4_2
I0225 16:56:39.756160 47071 net.cpp:100] Creating Layer conv4_2
I0225 16:56:39.756168 47071 net.cpp:434] conv4_2 <- conv4_1
I0225 16:56:39.756184 47071 net.cpp:408] conv4_2 -> conv4_2
I0225 16:56:39.768746 47071 net.cpp:150] Setting up conv4_2
I0225 16:56:39.768780 47071 net.cpp:157] Top shape: 3 512 56 56 (4816896)
I0225 16:56:39.768790 47071 net.cpp:165] Memory required for data: 1835237412
I0225 16:56:39.768815 47071 layer_factory.hpp:77] Creating layer relu4_2
I0225 16:56:39.768836 47071 net.cpp:100] Creating Layer relu4_2
I0225 16:56:39.768848 47071 net.cpp:434] relu4_2 <- conv4_2
I0225 16:56:39.768859 47071 net.cpp:395] relu4_2 -> conv4_2 (in-place)
I0225 16:56:39.769227 47071 net.cpp:150] Setting up relu4_2
I0225 16:56:39.769248 47071 net.cpp:157] Top shape: 3 512 56 56 (4816896)
I0225 16:56:39.769255 47071 net.cpp:165] Memory required for data: 1854504996
I0225 16:56:39.769263 47071 layer_factory.hpp:77] Creating layer conv4_3
I0225 16:56:39.769320 47071 net.cpp:100] Creating Layer conv4_3
I0225 16:56:39.769335 47071 net.cpp:434] conv4_3 <- conv4_2
I0225 16:56:39.769349 47071 net.cpp:408] conv4_3 -> conv4_3
I0225 16:56:39.780797 47071 net.cpp:150] Setting up conv4_3
I0225 16:56:39.780829 47071 net.cpp:157] Top shape: 3 512 56 56 (4816896)
I0225 16:56:39.780838 47071 net.cpp:165] Memory required for data: 1873772580
I0225 16:56:39.780850 47071 layer_factory.hpp:77] Creating layer relu4_3
I0225 16:56:39.780864 47071 net.cpp:100] Creating Layer relu4_3
I0225 16:56:39.780872 47071 net.cpp:434] relu4_3 <- conv4_3
I0225 16:56:39.780882 47071 net.cpp:395] relu4_3 -> conv4_3 (in-place)
I0225 16:56:39.781225 47071 net.cpp:150] Setting up relu4_3
I0225 16:56:39.781244 47071 net.cpp:157] Top shape: 3 512 56 56 (4816896)
I0225 16:56:39.781250 47071 net.cpp:165] Memory required for data: 1893040164
I0225 16:56:39.781256 47071 layer_factory.hpp:77] Creating layer conv4_3_relu4_3_0_split
I0225 16:56:39.781267 47071 net.cpp:100] Creating Layer conv4_3_relu4_3_0_split
I0225 16:56:39.781273 47071 net.cpp:434] conv4_3_relu4_3_0_split <- conv4_3
I0225 16:56:39.781286 47071 net.cpp:408] conv4_3_relu4_3_0_split -> conv4_3_relu4_3_0_split_0
I0225 16:56:39.781306 47071 net.cpp:408] conv4_3_relu4_3_0_split -> conv4_3_relu4_3_0_split_1
I0225 16:56:39.781393 47071 net.cpp:150] Setting up conv4_3_relu4_3_0_split
I0225 16:56:39.781407 47071 net.cpp:157] Top shape: 3 512 56 56 (4816896)
I0225 16:56:39.781419 47071 net.cpp:157] Top shape: 3 512 56 56 (4816896)
I0225 16:56:39.781424 47071 net.cpp:165] Memory required for data: 1931575332
I0225 16:56:39.781430 47071 layer_factory.hpp:77] Creating layer conv5_1
I0225 16:56:39.781458 47071 net.cpp:100] Creating Layer conv5_1
I0225 16:56:39.781469 47071 net.cpp:434] conv5_1 <- conv4_3_relu4_3_0_split_0
I0225 16:56:39.781481 47071 net.cpp:408] conv5_1 -> conv5_1
I0225 16:56:39.790211 47071 net.cpp:150] Setting up conv5_1
I0225 16:56:39.790242 47071 net.cpp:157] Top shape: 3 512 56 56 (4816896)
I0225 16:56:39.790249 47071 net.cpp:165] Memory required for data: 1950842916
I0225 16:56:39.790272 47071 layer_factory.hpp:77] Creating layer relu5_1
I0225 16:56:39.790284 47071 net.cpp:100] Creating Layer relu5_1
I0225 16:56:39.790295 47071 net.cpp:434] relu5_1 <- conv5_1
I0225 16:56:39.790312 47071 net.cpp:395] relu5_1 -> conv5_1 (in-place)
I0225 16:56:39.790664 47071 net.cpp:150] Setting up relu5_1
I0225 16:56:39.790690 47071 net.cpp:157] Top shape: 3 512 56 56 (4816896)
I0225 16:56:39.790698 47071 net.cpp:165] Memory required for data: 1970110500
I0225 16:56:39.790704 47071 layer_factory.hpp:77] Creating layer conv5_2
I0225 16:56:39.790722 47071 net.cpp:100] Creating Layer conv5_2
I0225 16:56:39.790735 47071 net.cpp:434] conv5_2 <- conv5_1
I0225 16:56:39.790748 47071 net.cpp:408] conv5_2 -> conv5_2
I0225 16:56:39.801045 47071 net.cpp:150] Setting up conv5_2
I0225 16:56:39.801108 47071 net.cpp:157] Top shape: 3 512 56 56 (4816896)
I0225 16:56:39.801126 47071 net.cpp:165] Memory required for data: 1989378084
I0225 16:56:39.801142 47071 layer_factory.hpp:77] Creating layer relu5_2
I0225 16:56:39.801168 47071 net.cpp:100] Creating Layer relu5_2
I0225 16:56:39.801178 47071 net.cpp:434] relu5_2 <- conv5_2
I0225 16:56:39.801190 47071 net.cpp:395] relu5_2 -> conv5_2 (in-place)
I0225 16:56:39.801654 47071 net.cpp:150] Setting up relu5_2
I0225 16:56:39.801677 47071 net.cpp:157] Top shape: 3 512 56 56 (4816896)
I0225 16:56:39.801684 47071 net.cpp:165] Memory required for data: 2008645668
I0225 16:56:39.801693 47071 layer_factory.hpp:77] Creating layer conv5_3
I0225 16:56:39.801718 47071 net.cpp:100] Creating Layer conv5_3
I0225 16:56:39.801728 47071 net.cpp:434] conv5_3 <- conv5_2
I0225 16:56:39.801739 47071 net.cpp:408] conv5_3 -> conv5_3
I0225 16:56:39.812095 47071 net.cpp:150] Setting up conv5_3
I0225 16:56:39.812144 47071 net.cpp:157] Top shape: 3 512 56 56 (4816896)
I0225 16:56:39.812150 47071 net.cpp:165] Memory required for data: 2027913252
I0225 16:56:39.812166 47071 layer_factory.hpp:77] Creating layer relu5_3
I0225 16:56:39.812217 47071 net.cpp:100] Creating Layer relu5_3
I0225 16:56:39.812235 47071 net.cpp:434] relu5_3 <- conv5_3
I0225 16:56:39.812249 47071 net.cpp:395] relu5_3 -> conv5_3 (in-place)
I0225 16:56:39.814157 47071 net.cpp:150] Setting up relu5_3
I0225 16:56:39.814185 47071 net.cpp:157] Top shape: 3 512 56 56 (4816896)
I0225 16:56:39.814193 47071 net.cpp:165] Memory required for data: 2047180836
I0225 16:56:39.814199 47071 layer_factory.hpp:77] Creating layer top_cov
I0225 16:56:39.814224 47071 net.cpp:100] Creating Layer top_cov
I0225 16:56:39.814232 47071 net.cpp:434] top_cov <- conv5_3
I0225 16:56:39.814249 47071 net.cpp:408] top_cov -> top_cov
I0225 16:56:39.859748 47071 net.cpp:150] Setting up top_cov
I0225 16:56:39.859797 47071 net.cpp:157] Top shape: 3 128 56 56 (1204224)
I0225 16:56:39.859805 47071 net.cpp:165] Memory required for data: 2051997732
I0225 16:56:39.859820 47071 layer_factory.hpp:77] Creating layer relu_top_cov
I0225 16:56:39.859840 47071 net.cpp:100] Creating Layer relu_top_cov
I0225 16:56:39.859848 47071 net.cpp:434] relu_top_cov <- top_cov
I0225 16:56:39.859858 47071 net.cpp:395] relu_top_cov -> top_cov (in-place)
I0225 16:56:39.860190 47071 net.cpp:150] Setting up relu_top_cov
I0225 16:56:39.860208 47071 net.cpp:157] Top shape: 3 128 56 56 (1204224)
I0225 16:56:39.860214 47071 net.cpp:165] Memory required for data: 2056814628
I0225 16:56:39.860222 47071 layer_factory.hpp:77] Creating layer km_1_conv_5
I0225 16:56:39.860241 47071 net.cpp:100] Creating Layer km_1_conv_5
I0225 16:56:39.860251 47071 net.cpp:434] km_1_conv_5 <- top_cov
I0225 16:56:39.860265 47071 net.cpp:408] km_1_conv_5 -> km_1_conv_5
I0225 16:56:39.902811 47071 net.cpp:150] Setting up km_1_conv_5
I0225 16:56:39.902861 47071 net.cpp:157] Top shape: 3 512 56 56 (4816896)
I0225 16:56:39.902873 47071 net.cpp:165] Memory required for data: 2076082212
I0225 16:56:39.902891 47071 layer_factory.hpp:77] Creating layer relu_km_1_deconv_5
I0225 16:56:39.902976 47071 net.cpp:100] Creating Layer relu_km_1_deconv_5
I0225 16:56:39.902997 47071 net.cpp:434] relu_km_1_deconv_5 <- km_1_conv_5
I0225 16:56:39.903007 47071 net.cpp:395] relu_km_1_deconv_5 -> km_1_conv_5 (in-place)
I0225 16:56:39.903317 47071 net.cpp:150] Setting up relu_km_1_deconv_5
I0225 16:56:39.903338 47071 net.cpp:157] Top shape: 3 512 56 56 (4816896)
I0225 16:56:39.903343 47071 net.cpp:165] Memory required for data: 2095349796
I0225 16:56:39.903348 47071 layer_factory.hpp:77] Creating layer km_2_conv_4
I0225 16:56:39.903367 47071 net.cpp:100] Creating Layer km_2_conv_4
I0225 16:56:39.903373 47071 net.cpp:434] km_2_conv_4 <- km_1_conv_5
I0225 16:56:39.903380 47071 net.cpp:408] km_2_conv_4 -> km_2_conv_4
I0225 16:56:39.963001 47071 net.cpp:150] Setting up km_2_conv_4
I0225 16:56:39.963050 47071 net.cpp:157] Top shape: 3 256 56 56 (2408448)
I0225 16:56:39.963057 47071 net.cpp:165] Memory required for data: 2104983588
I0225 16:56:39.963068 47071 layer_factory.hpp:77] Creating layer bn_km_2_conv_4
I0225 16:56:39.963091 47071 net.cpp:100] Creating Layer bn_km_2_conv_4
I0225 16:56:39.963104 47071 net.cpp:434] bn_km_2_conv_4 <- km_2_conv_4
I0225 16:56:39.963126 47071 net.cpp:395] bn_km_2_conv_4 -> km_2_conv_4 (in-place)
I0225 16:56:39.963379 47071 net.cpp:150] Setting up bn_km_2_conv_4
I0225 16:56:39.963392 47071 net.cpp:157] Top shape: 3 256 56 56 (2408448)
I0225 16:56:39.963397 47071 net.cpp:165] Memory required for data: 2114617380
I0225 16:56:39.963434 47071 layer_factory.hpp:77] Creating layer relu_km_2_conv_4
I0225 16:56:39.963446 47071 net.cpp:100] Creating Layer relu_km_2_conv_4
I0225 16:56:39.963454 47071 net.cpp:434] relu_km_2_conv_4 <- km_2_conv_4
I0225 16:56:39.963459 47071 net.cpp:395] relu_km_2_conv_4 -> km_2_conv_4 (in-place)
I0225 16:56:39.963680 47071 net.cpp:150] Setting up relu_km_2_conv_4
I0225 16:56:39.963695 47071 net.cpp:157] Top shape: 3 256 56 56 (2408448)
I0225 16:56:39.963698 47071 net.cpp:165] Memory required for data: 2124251172
I0225 16:56:39.963702 47071 layer_factory.hpp:77] Creating layer ks_1_deconv_4
I0225 16:56:39.963721 47071 net.cpp:100] Creating Layer ks_1_deconv_4
I0225 16:56:39.963745 47071 net.cpp:434] ks_1_deconv_4 <- conv4_3_relu4_3_0_split_1
I0225 16:56:39.963757 47071 net.cpp:408] ks_1_deconv_4 -> ks_1_deconv_4
I0225 16:56:40.011658 47071 net.cpp:150] Setting up ks_1_deconv_4
I0225 16:56:40.011708 47071 net.cpp:157] Top shape: 3 256 56 56 (2408448)
I0225 16:56:40.011715 47071 net.cpp:165] Memory required for data: 2133884964
I0225 16:56:40.011729 47071 layer_factory.hpp:77] Creating layer bn_ks_1_deconv_4
I0225 16:56:40.011747 47071 net.cpp:100] Creating Layer bn_ks_1_deconv_4
I0225 16:56:40.011755 47071 net.cpp:434] bn_ks_1_deconv_4 <- ks_1_deconv_4
I0225 16:56:40.011768 47071 net.cpp:395] bn_ks_1_deconv_4 -> ks_1_deconv_4 (in-place)
I0225 16:56:40.012018 47071 net.cpp:150] Setting up bn_ks_1_deconv_4
I0225 16:56:40.012032 47071 net.cpp:157] Top shape: 3 256 56 56 (2408448)
I0225 16:56:40.012034 47071 net.cpp:165] Memory required for data: 2143518756
I0225 16:56:40.012045 47071 layer_factory.hpp:77] Creating layer relu_ks_1_deconv_4
I0225 16:56:40.012058 47071 net.cpp:100] Creating Layer relu_ks_1_deconv_4
I0225 16:56:40.012061 47071 net.cpp:434] relu_ks_1_deconv_4 <- ks_1_deconv_4
I0225 16:56:40.012068 47071 net.cpp:395] relu_ks_1_deconv_4 -> ks_1_deconv_4 (in-place)
I0225 16:56:40.012282 47071 net.cpp:150] Setting up relu_ks_1_deconv_4
I0225 16:56:40.012296 47071 net.cpp:157] Top shape: 3 256 56 56 (2408448)
I0225 16:56:40.012303 47071 net.cpp:165] Memory required for data: 2153152548
I0225 16:56:40.012307 47071 layer_factory.hpp:77] Creating layer concat4
I0225 16:56:40.012320 47071 net.cpp:100] Creating Layer concat4
I0225 16:56:40.012326 47071 net.cpp:434] concat4 <- ks_1_deconv_4
I0225 16:56:40.012332 47071 net.cpp:434] concat4 <- km_2_conv_4
I0225 16:56:40.012339 47071 net.cpp:408] concat4 -> concat4
I0225 16:56:40.012389 47071 net.cpp:150] Setting up concat4
I0225 16:56:40.012400 47071 net.cpp:157] Top shape: 3 512 56 56 (4816896)
I0225 16:56:40.012404 47071 net.cpp:165] Memory required for data: 2172420132
I0225 16:56:40.012408 47071 layer_factory.hpp:77] Creating layer cov_deconv_4
I0225 16:56:40.012425 47071 net.cpp:100] Creating Layer cov_deconv_4
I0225 16:56:40.012432 47071 net.cpp:434] cov_deconv_4 <- concat4
I0225 16:56:40.012442 47071 net.cpp:408] cov_deconv_4 -> cov_deconv_4
I0225 16:56:40.085985 47071 net.cpp:150] Setting up cov_deconv_4
I0225 16:56:40.086028 47071 net.cpp:157] Top shape: 3 256 56 56 (2408448)
I0225 16:56:40.086035 47071 net.cpp:165] Memory required for data: 2182053924
I0225 16:56:40.086050 47071 layer_factory.hpp:77] Creating layer relu_cov_deconv_4
I0225 16:56:40.086066 47071 net.cpp:100] Creating Layer relu_cov_deconv_4
I0225 16:56:40.086073 47071 net.cpp:434] relu_cov_deconv_4 <- cov_deconv_4
I0225 16:56:40.086086 47071 net.cpp:395] relu_cov_deconv_4 -> cov_deconv_4 (in-place)
I0225 16:56:40.087265 47071 net.cpp:150] Setting up relu_cov_deconv_4
I0225 16:56:40.087286 47071 net.cpp:157] Top shape: 3 256 56 56 (2408448)
I0225 16:56:40.087292 47071 net.cpp:165] Memory required for data: 2191687716
I0225 16:56:40.087389 47071 layer_factory.hpp:77] Creating layer km_1_deconv_3
I0225 16:56:40.087508 47071 net.cpp:100] Creating Layer km_1_deconv_3
I0225 16:56:40.087527 47071 net.cpp:434] km_1_deconv_3 <- cov_deconv_4
I0225 16:56:40.087551 47071 net.cpp:408] km_1_deconv_3 -> km_1_deconv_3
I0225 16:56:40.088431 47071 net.cpp:150] Setting up km_1_deconv_3
I0225 16:56:40.088465 47071 net.cpp:157] Top shape: 3 256 112 112 (9633792)
I0225 16:56:40.088474 47071 net.cpp:165] Memory required for data: 2230222884
I0225 16:56:40.088486 47071 layer_factory.hpp:77] Creating layer km_2_conv_3
I0225 16:56:40.088506 47071 net.cpp:100] Creating Layer km_2_conv_3
I0225 16:56:40.088527 47071 net.cpp:434] km_2_conv_3 <- km_1_deconv_3
I0225 16:56:40.088546 47071 net.cpp:408] km_2_conv_3 -> km_2_conv_3
I0225 16:56:40.112992 47071 net.cpp:150] Setting up km_2_conv_3
I0225 16:56:40.113037 47071 net.cpp:157] Top shape: 3 128 112 112 (4816896)
I0225 16:56:40.113044 47071 net.cpp:165] Memory required for data: 2249490468
I0225 16:56:40.113097 47071 layer_factory.hpp:77] Creating layer bn_km_2_conv_3
I0225 16:56:40.113121 47071 net.cpp:100] Creating Layer bn_km_2_conv_3
I0225 16:56:40.113131 47071 net.cpp:434] bn_km_2_conv_3 <- km_2_conv_3
I0225 16:56:40.113142 47071 net.cpp:395] bn_km_2_conv_3 -> km_2_conv_3 (in-place)
I0225 16:56:40.113512 47071 net.cpp:150] Setting up bn_km_2_conv_3
I0225 16:56:40.113528 47071 net.cpp:157] Top shape: 3 128 112 112 (4816896)
I0225 16:56:40.113533 47071 net.cpp:165] Memory required for data: 2268758052
I0225 16:56:40.113548 47071 layer_factory.hpp:77] Creating layer relu_km_2_conv_3
I0225 16:56:40.113562 47071 net.cpp:100] Creating Layer relu_km_2_conv_3
I0225 16:56:40.113569 47071 net.cpp:434] relu_km_2_conv_3 <- km_2_conv_3
I0225 16:56:40.113575 47071 net.cpp:395] relu_km_2_conv_3 -> km_2_conv_3 (in-place)
I0225 16:56:40.114987 47071 net.cpp:150] Setting up relu_km_2_conv_3
I0225 16:56:40.115013 47071 net.cpp:157] Top shape: 3 128 112 112 (4816896)
I0225 16:56:40.115020 47071 net.cpp:165] Memory required for data: 2288025636
I0225 16:56:40.115036 47071 layer_factory.hpp:77] Creating layer ks_1_deconv_3
I0225 16:56:40.115063 47071 net.cpp:100] Creating Layer ks_1_deconv_3
I0225 16:56:40.115075 47071 net.cpp:434] ks_1_deconv_3 <- conv3_3_relu3_3_0_split_1
I0225 16:56:40.115087 47071 net.cpp:408] ks_1_deconv_3 -> ks_1_deconv_3
I0225 16:56:40.141824 47071 net.cpp:150] Setting up ks_1_deconv_3
I0225 16:56:40.141857 47071 net.cpp:157] Top shape: 3 128 112 112 (4816896)
I0225 16:56:40.141865 47071 net.cpp:165] Memory required for data: 2307293220
I0225 16:56:40.141880 47071 layer_factory.hpp:77] Creating layer bn_ks_1_deconv_3
I0225 16:56:40.141899 47071 net.cpp:100] Creating Layer bn_ks_1_deconv_3
I0225 16:56:40.141912 47071 net.cpp:434] bn_ks_1_deconv_3 <- ks_1_deconv_3
I0225 16:56:40.141927 47071 net.cpp:395] bn_ks_1_deconv_3 -> ks_1_deconv_3 (in-place)
I0225 16:56:40.142367 47071 net.cpp:150] Setting up bn_ks_1_deconv_3
I0225 16:56:40.142385 47071 net.cpp:157] Top shape: 3 128 112 112 (4816896)
I0225 16:56:40.142390 47071 net.cpp:165] Memory required for data: 2326560804
I0225 16:56:40.142405 47071 layer_factory.hpp:77] Creating layer relu_ks_1_deconv_3
I0225 16:56:40.142417 47071 net.cpp:100] Creating Layer relu_ks_1_deconv_3
I0225 16:56:40.142424 47071 net.cpp:434] relu_ks_1_deconv_3 <- ks_1_deconv_3
I0225 16:56:40.142438 47071 net.cpp:395] relu_ks_1_deconv_3 -> ks_1_deconv_3 (in-place)
I0225 16:56:40.142822 47071 net.cpp:150] Setting up relu_ks_1_deconv_3
I0225 16:56:40.142840 47071 net.cpp:157] Top shape: 3 128 112 112 (4816896)
I0225 16:56:40.142846 47071 net.cpp:165] Memory required for data: 2345828388
I0225 16:56:40.142942 47071 layer_factory.hpp:77] Creating layer concat3
I0225 16:56:40.143033 47071 net.cpp:100] Creating Layer concat3
I0225 16:56:40.143049 47071 net.cpp:434] concat3 <- ks_1_deconv_3
I0225 16:56:40.143064 47071 net.cpp:434] concat3 <- km_2_conv_3
I0225 16:56:40.143098 47071 net.cpp:408] concat3 -> concat3
I0225 16:56:40.143254 47071 net.cpp:150] Setting up concat3
I0225 16:56:40.143291 47071 net.cpp:157] Top shape: 3 256 112 112 (9633792)
I0225 16:56:40.143301 47071 net.cpp:165] Memory required for data: 2384363556
I0225 16:56:40.143307 47071 layer_factory.hpp:77] Creating layer cov_deconv_3
I0225 16:56:40.143326 47071 net.cpp:100] Creating Layer cov_deconv_3
I0225 16:56:40.143335 47071 net.cpp:434] cov_deconv_3 <- concat3
I0225 16:56:40.143347 47071 net.cpp:408] cov_deconv_3 -> cov_deconv_3
I0225 16:56:40.168068 47071 net.cpp:150] Setting up cov_deconv_3
I0225 16:56:40.168113 47071 net.cpp:157] Top shape: 3 128 112 112 (4816896)
I0225 16:56:40.168119 47071 net.cpp:165] Memory required for data: 2403631140
I0225 16:56:40.168133 47071 layer_factory.hpp:77] Creating layer relu_cov_deconv_3
I0225 16:56:40.168169 47071 net.cpp:100] Creating Layer relu_cov_deconv_3
I0225 16:56:40.168177 47071 net.cpp:434] relu_cov_deconv_3 <- cov_deconv_3
I0225 16:56:40.168189 47071 net.cpp:395] relu_cov_deconv_3 -> cov_deconv_3 (in-place)
I0225 16:56:40.168419 47071 net.cpp:150] Setting up relu_cov_deconv_3
I0225 16:56:40.168452 47071 net.cpp:157] Top shape: 3 128 112 112 (4816896)
I0225 16:56:40.168457 47071 net.cpp:165] Memory required for data: 2422898724
I0225 16:56:40.168465 47071 layer_factory.hpp:77] Creating layer km_1_deconv_2
I0225 16:56:40.168479 47071 net.cpp:100] Creating Layer km_1_deconv_2
I0225 16:56:40.168483 47071 net.cpp:434] km_1_deconv_2 <- cov_deconv_3
I0225 16:56:40.168493 47071 net.cpp:408] km_1_deconv_2 -> km_1_deconv_2
I0225 16:56:40.168829 47071 net.cpp:150] Setting up km_1_deconv_2
I0225 16:56:40.168841 47071 net.cpp:157] Top shape: 3 128 224 224 (19267584)
I0225 16:56:40.168845 47071 net.cpp:165] Memory required for data: 2499969060
I0225 16:56:40.168853 47071 layer_factory.hpp:77] Creating layer km_2_conv_2
I0225 16:56:40.168864 47071 net.cpp:100] Creating Layer km_2_conv_2
I0225 16:56:40.168869 47071 net.cpp:434] km_2_conv_2 <- km_1_deconv_2
I0225 16:56:40.168876 47071 net.cpp:408] km_2_conv_2 -> km_2_conv_2
I0225 16:56:40.174727 47071 net.cpp:150] Setting up km_2_conv_2
I0225 16:56:40.174763 47071 net.cpp:157] Top shape: 3 64 224 224 (9633792)
I0225 16:56:40.174772 47071 net.cpp:165] Memory required for data: 2538504228
I0225 16:56:40.174787 47071 layer_factory.hpp:77] Creating layer bn_km_2_conv_2
I0225 16:56:40.174818 47071 net.cpp:100] Creating Layer bn_km_2_conv_2
I0225 16:56:40.174829 47071 net.cpp:434] bn_km_2_conv_2 <- km_2_conv_2
I0225 16:56:40.174842 47071 net.cpp:395] bn_km_2_conv_2 -> km_2_conv_2 (in-place)
I0225 16:56:40.175441 47071 net.cpp:150] Setting up bn_km_2_conv_2
I0225 16:56:40.175462 47071 net.cpp:157] Top shape: 3 64 224 224 (9633792)
I0225 16:56:40.175468 47071 net.cpp:165] Memory required for data: 2577039396
I0225 16:56:40.175483 47071 layer_factory.hpp:77] Creating layer relu_km_2_conv_2
I0225 16:56:40.175504 47071 net.cpp:100] Creating Layer relu_km_2_conv_2
I0225 16:56:40.175513 47071 net.cpp:434] relu_km_2_conv_2 <- km_2_conv_2
I0225 16:56:40.175525 47071 net.cpp:395] relu_km_2_conv_2 -> km_2_conv_2 (in-place)
I0225 16:56:40.175963 47071 net.cpp:150] Setting up relu_km_2_conv_2
I0225 16:56:40.175987 47071 net.cpp:157] Top shape: 3 64 224 224 (9633792)
I0225 16:56:40.175992 47071 net.cpp:165] Memory required for data: 2615574564
I0225 16:56:40.176012 47071 layer_factory.hpp:77] Creating layer ks_1_deconv_2
I0225 16:56:40.176034 47071 net.cpp:100] Creating Layer ks_1_deconv_2
I0225 16:56:40.176048 47071 net.cpp:434] ks_1_deconv_2 <- conv2_2_relu2_2_0_split_1
I0225 16:56:40.176065 47071 net.cpp:408] ks_1_deconv_2 -> ks_1_deconv_2
I0225 16:56:40.186189 47071 net.cpp:150] Setting up ks_1_deconv_2
I0225 16:56:40.186221 47071 net.cpp:157] Top shape: 3 64 224 224 (9633792)
I0225 16:56:40.186229 47071 net.cpp:165] Memory required for data: 2654109732
I0225 16:56:40.186244 47071 layer_factory.hpp:77] Creating layer bn_ks_1_deconv_2
I0225 16:56:40.186261 47071 net.cpp:100] Creating Layer bn_ks_1_deconv_2
I0225 16:56:40.186274 47071 net.cpp:434] bn_ks_1_deconv_2 <- ks_1_deconv_2
I0225 16:56:40.186285 47071 net.cpp:395] bn_ks_1_deconv_2 -> ks_1_deconv_2 (in-place)
I0225 16:56:40.186825 47071 net.cpp:150] Setting up bn_ks_1_deconv_2
I0225 16:56:40.186842 47071 net.cpp:157] Top shape: 3 64 224 224 (9633792)
I0225 16:56:40.186848 47071 net.cpp:165] Memory required for data: 2692644900
I0225 16:56:40.186884 47071 layer_factory.hpp:77] Creating layer relu_ks_1_deconv_2
I0225 16:56:40.186913 47071 net.cpp:100] Creating Layer relu_ks_1_deconv_2
I0225 16:56:40.186921 47071 net.cpp:434] relu_ks_1_deconv_2 <- ks_1_deconv_2
I0225 16:56:40.186931 47071 net.cpp:395] relu_ks_1_deconv_2 -> ks_1_deconv_2 (in-place)
I0225 16:56:40.187325 47071 net.cpp:150] Setting up relu_ks_1_deconv_2
I0225 16:56:40.187345 47071 net.cpp:157] Top shape: 3 64 224 224 (9633792)
I0225 16:56:40.187352 47071 net.cpp:165] Memory required for data: 2731180068
I0225 16:56:40.187360 47071 layer_factory.hpp:77] Creating layer concat2
I0225 16:56:40.187371 47071 net.cpp:100] Creating Layer concat2
I0225 16:56:40.187377 47071 net.cpp:434] concat2 <- ks_1_deconv_2
I0225 16:56:40.187387 47071 net.cpp:434] concat2 <- km_2_conv_2
I0225 16:56:40.187446 47071 net.cpp:408] concat2 -> concat2
I0225 16:56:40.187516 47071 net.cpp:150] Setting up concat2
I0225 16:56:40.187532 47071 net.cpp:157] Top shape: 3 128 224 224 (19267584)
I0225 16:56:40.187541 47071 net.cpp:165] Memory required for data: 2808250404
I0225 16:56:40.187558 47071 layer_factory.hpp:77] Creating layer cov_deconv_2
I0225 16:56:40.187585 47071 net.cpp:100] Creating Layer cov_deconv_2
I0225 16:56:40.187594 47071 net.cpp:434] cov_deconv_2 <- concat2
I0225 16:56:40.187607 47071 net.cpp:408] cov_deconv_2 -> cov_deconv_2
I0225 16:56:40.201581 47071 net.cpp:150] Setting up cov_deconv_2
I0225 16:56:40.201669 47071 net.cpp:157] Top shape: 3 64 224 224 (9633792)
I0225 16:56:40.201709 47071 net.cpp:165] Memory required for data: 2846785572
I0225 16:56:40.201740 47071 layer_factory.hpp:77] Creating layer relu_cov_deconv_2
I0225 16:56:40.201772 47071 net.cpp:100] Creating Layer relu_cov_deconv_2
I0225 16:56:40.201797 47071 net.cpp:434] relu_cov_deconv_2 <- cov_deconv_2
I0225 16:56:40.201823 47071 net.cpp:395] relu_cov_deconv_2 -> cov_deconv_2 (in-place)
I0225 16:56:40.203191 47071 net.cpp:150] Setting up relu_cov_deconv_2
I0225 16:56:40.203236 47071 net.cpp:157] Top shape: 3 64 224 224 (9633792)
I0225 16:56:40.203258 47071 net.cpp:165] Memory required for data: 2885320740
I0225 16:56:40.203279 47071 layer_factory.hpp:77] Creating layer km_1_deconv_1
I0225 16:56:40.203312 47071 net.cpp:100] Creating Layer km_1_deconv_1
I0225 16:56:40.203335 47071 net.cpp:434] km_1_deconv_1 <- cov_deconv_2
I0225 16:56:40.203359 47071 net.cpp:408] km_1_deconv_1 -> km_1_deconv_1
I0225 16:56:40.203786 47071 net.cpp:150] Setting up km_1_deconv_1
I0225 16:56:40.203804 47071 net.cpp:157] Top shape: 3 64 448 448 (38535168)
I0225 16:56:40.203807 47071 net.cpp:165] Memory required for data: 3039461412
I0225 16:56:40.203815 47071 layer_factory.hpp:77] Creating layer km_1_conv_1
I0225 16:56:40.203843 47071 net.cpp:100] Creating Layer km_1_conv_1
I0225 16:56:40.203876 47071 net.cpp:434] km_1_conv_1 <- km_1_deconv_1
I0225 16:56:40.203891 47071 net.cpp:408] km_1_conv_1 -> km_1_conv_1
I0225 16:56:40.206020 47071 net.cpp:150] Setting up km_1_conv_1
I0225 16:56:40.206046 47071 net.cpp:157] Top shape: 3 32 448 448 (19267584)
I0225 16:56:40.206053 47071 net.cpp:165] Memory required for data: 3116531748
I0225 16:56:40.206068 47071 layer_factory.hpp:77] Creating layer bn_km_1_conv_1
I0225 16:56:40.206085 47071 net.cpp:100] Creating Layer bn_km_1_conv_1
I0225 16:56:40.206127 47071 net.cpp:434] bn_km_1_conv_1 <- km_1_conv_1
I0225 16:56:40.206141 47071 net.cpp:395] bn_km_1_conv_1 -> km_1_conv_1 (in-place)
I0225 16:56:40.206799 47071 net.cpp:150] Setting up bn_km_1_conv_1
I0225 16:56:40.206817 47071 net.cpp:157] Top shape: 3 32 448 448 (19267584)
I0225 16:56:40.206825 47071 net.cpp:165] Memory required for data: 3193602084
I0225 16:56:40.206840 47071 layer_factory.hpp:77] Creating layer relu_km_1_conv_1
I0225 16:56:40.206883 47071 net.cpp:100] Creating Layer relu_km_1_conv_1
I0225 16:56:40.206894 47071 net.cpp:434] relu_km_1_conv_1 <- km_1_conv_1
I0225 16:56:40.206904 47071 net.cpp:395] relu_km_1_conv_1 -> km_1_conv_1 (in-place)
I0225 16:56:40.208223 47071 net.cpp:150] Setting up relu_km_1_conv_1
I0225 16:56:40.208245 47071 net.cpp:157] Top shape: 3 32 448 448 (19267584)
I0225 16:56:40.208250 47071 net.cpp:165] Memory required for data: 3270672420
I0225 16:56:40.208254 47071 layer_factory.hpp:77] Creating layer ks_1_deconv_1
I0225 16:56:40.208269 47071 net.cpp:100] Creating Layer ks_1_deconv_1
I0225 16:56:40.208276 47071 net.cpp:434] ks_1_deconv_1 <- conv1_2_relu1_2_0_split_1
I0225 16:56:40.208287 47071 net.cpp:408] ks_1_deconv_1 -> ks_1_deconv_1
I0225 16:56:40.212993 47071 net.cpp:150] Setting up ks_1_deconv_1
I0225 16:56:40.213021 47071 net.cpp:157] Top shape: 3 32 448 448 (19267584)
I0225 16:56:40.213029 47071 net.cpp:165] Memory required for data: 3347742756
I0225 16:56:40.213044 47071 layer_factory.hpp:77] Creating layer bn_ks_1_deconv_1
I0225 16:56:40.213063 47071 net.cpp:100] Creating Layer bn_ks_1_deconv_1
I0225 16:56:40.213096 47071 net.cpp:434] bn_ks_1_deconv_1 <- ks_1_deconv_1
I0225 16:56:40.213109 47071 net.cpp:395] bn_ks_1_deconv_1 -> ks_1_deconv_1 (in-place)
I0225 16:56:40.213678 47071 net.cpp:150] Setting up bn_ks_1_deconv_1
I0225 16:56:40.213697 47071 net.cpp:157] Top shape: 3 32 448 448 (19267584)
I0225 16:56:40.213704 47071 net.cpp:165] Memory required for data: 3424813092
I0225 16:56:40.213722 47071 layer_factory.hpp:77] Creating layer relu_ks_1_deconv_1
I0225 16:56:40.213739 47071 net.cpp:100] Creating Layer relu_ks_1_deconv_1
I0225 16:56:40.213747 47071 net.cpp:434] relu_ks_1_deconv_1 <- ks_1_deconv_1
I0225 16:56:40.213757 47071 net.cpp:395] relu_ks_1_deconv_1 -> ks_1_deconv_1 (in-place)
I0225 16:56:40.214069 47071 net.cpp:150] Setting up relu_ks_1_deconv_1
I0225 16:56:40.214089 47071 net.cpp:157] Top shape: 3 32 448 448 (19267584)
I0225 16:56:40.214097 47071 net.cpp:165] Memory required for data: 3501883428
I0225 16:56:40.214103 47071 layer_factory.hpp:77] Creating layer concat1
I0225 16:56:40.214117 47071 net.cpp:100] Creating Layer concat1
I0225 16:56:40.214128 47071 net.cpp:434] concat1 <- ks_1_deconv_1
I0225 16:56:40.214136 47071 net.cpp:434] concat1 <- km_1_conv_1
I0225 16:56:40.214151 47071 net.cpp:408] concat1 -> concat1
I0225 16:56:40.214212 47071 net.cpp:150] Setting up concat1
I0225 16:56:40.214231 47071 net.cpp:157] Top shape: 3 64 448 448 (38535168)
I0225 16:56:40.214237 47071 net.cpp:165] Memory required for data: 3656024100
I0225 16:56:40.214246 47071 layer_factory.hpp:77] Creating layer segfuse
I0225 16:56:40.214277 47071 net.cpp:100] Creating Layer segfuse
I0225 16:56:40.214290 47071 net.cpp:434] segfuse <- concat1
I0225 16:56:40.214303 47071 net.cpp:408] segfuse -> segfuse
I0225 16:56:40.224205 47071 net.cpp:150] Setting up segfuse
I0225 16:56:40.224252 47071 net.cpp:157] Top shape: 3 8 448 448 (4816896)
I0225 16:56:40.224261 47071 net.cpp:165] Memory required for data: 3675291684
I0225 16:56:40.224279 47071 layer_factory.hpp:77] Creating layer relu_segfuse
I0225 16:56:40.224308 47071 net.cpp:100] Creating Layer relu_segfuse
I0225 16:56:40.224331 47071 net.cpp:434] relu_segfuse <- segfuse
I0225 16:56:40.224354 47071 net.cpp:395] relu_segfuse -> segfuse (in-place)
I0225 16:56:40.224823 47071 net.cpp:150] Setting up relu_segfuse
I0225 16:56:40.224849 47071 net.cpp:157] Top shape: 3 8 448 448 (4816896)
I0225 16:56:40.224859 47071 net.cpp:165] Memory required for data: 3694559268
I0225 16:56:40.224867 47071 layer_factory.hpp:77] Creating layer segres
I0225 16:56:40.224900 47071 net.cpp:100] Creating Layer segres
I0225 16:56:40.224911 47071 net.cpp:434] segres <- segfuse
I0225 16:56:40.224927 47071 net.cpp:408] segres -> segres
I0225 16:56:40.230254 47071 net.cpp:150] Setting up segres
I0225 16:56:40.230293 47071 net.cpp:157] Top shape: 3 2 448 448 (1204224)
I0225 16:56:40.230300 47071 net.cpp:165] Memory required for data: 3699376164
I0225 16:56:40.230316 47071 layer_factory.hpp:77] Creating layer segres_segres_0_split
I0225 16:56:40.230337 47071 net.cpp:100] Creating Layer segres_segres_0_split
I0225 16:56:40.230418 47071 net.cpp:434] segres_segres_0_split <- segres
I0225 16:56:40.230479 47071 net.cpp:408] segres_segres_0_split -> segres_segres_0_split_0
I0225 16:56:40.230540 47071 net.cpp:408] segres_segres_0_split -> segres_segres_0_split_1
I0225 16:56:40.230765 47071 net.cpp:150] Setting up segres_segres_0_split
I0225 16:56:40.230844 47071 net.cpp:157] Top shape: 3 2 448 448 (1204224)
I0225 16:56:40.230868 47071 net.cpp:157] Top shape: 3 2 448 448 (1204224)
I0225 16:56:40.230878 47071 net.cpp:165] Memory required for data: 3709009956
I0225 16:56:40.230895 47071 layer_factory.hpp:77] Creating layer loss_cov_deconv_1
I0225 16:56:40.230908 47071 net.cpp:100] Creating Layer loss_cov_deconv_1
I0225 16:56:40.230917 47071 net.cpp:434] loss_cov_deconv_1 <- segres_segres_0_split_0
I0225 16:56:40.230927 47071 net.cpp:434] loss_cov_deconv_1 <- mask
I0225 16:56:40.230947 47071 net.cpp:408] loss_cov_deconv_1 -> loss_cov_deconv_1
I0225 16:56:40.230974 47071 layer_factory.hpp:77] Creating layer loss_cov_deconv_1
I0225 16:56:40.241091 47071 net.cpp:150] Setting up loss_cov_deconv_1
I0225 16:56:40.241133 47071 net.cpp:157] Top shape: (1)
I0225 16:56:40.241142 47071 net.cpp:160]     with loss weight 1
I0225 16:56:40.241227 47071 net.cpp:165] Memory required for data: 3709009960
I0225 16:56:40.241256 47071 layer_factory.hpp:77] Creating layer sliSegres
I0225 16:56:40.241292 47071 net.cpp:100] Creating Layer sliSegres
I0225 16:56:40.241319 47071 net.cpp:434] sliSegres <- segres_segres_0_split_1
I0225 16:56:40.241355 47071 net.cpp:408] sliSegres -> QurImg
I0225 16:56:40.241396 47071 net.cpp:408] sliSegres -> PosImg
I0225 16:56:40.241436 47071 net.cpp:408] sliSegres -> NegImg
I0225 16:56:40.241606 47071 net.cpp:150] Setting up sliSegres
I0225 16:56:40.241650 47071 net.cpp:157] Top shape: 1 2 448 448 (401408)
I0225 16:56:40.241677 47071 net.cpp:157] Top shape: 1 2 448 448 (401408)
I0225 16:56:40.241705 47071 net.cpp:157] Top shape: 1 2 448 448 (401408)
I0225 16:56:40.241727 47071 net.cpp:165] Memory required for data: 3713826856
I0225 16:56:40.241752 47071 layer_factory.hpp:77] Creating layer NegImgSilence
I0225 16:56:40.241808 47071 net.cpp:100] Creating Layer NegImgSilence
I0225 16:56:40.241822 47071 net.cpp:434] NegImgSilence <- NegImg
I0225 16:56:40.241832 47071 net.cpp:150] Setting up NegImgSilence
I0225 16:56:40.241837 47071 net.cpp:165] Memory required for data: 3713826856
I0225 16:56:40.241840 47071 layer_factory.hpp:77] Creating layer sliQurImg
I0225 16:56:40.241847 47071 net.cpp:100] Creating Layer sliQurImg
I0225 16:56:40.241852 47071 net.cpp:434] sliQurImg <- QurImg
I0225 16:56:40.241860 47071 net.cpp:408] sliQurImg -> backQurImg
I0225 16:56:40.241873 47071 net.cpp:408] sliQurImg -> foreQurImg
I0225 16:56:40.241932 47071 net.cpp:150] Setting up sliQurImg
I0225 16:56:40.241943 47071 net.cpp:157] Top shape: 1 1 448 448 (200704)
I0225 16:56:40.241948 47071 net.cpp:157] Top shape: 1 1 448 448 (200704)
I0225 16:56:40.241951 47071 net.cpp:165] Memory required for data: 3715432488
I0225 16:56:40.241955 47071 layer_factory.hpp:77] Creating layer foreQurImg_sliQurImg_1_split
I0225 16:56:40.241964 47071 net.cpp:100] Creating Layer foreQurImg_sliQurImg_1_split
I0225 16:56:40.241968 47071 net.cpp:434] foreQurImg_sliQurImg_1_split <- foreQurImg
I0225 16:56:40.241976 47071 net.cpp:408] foreQurImg_sliQurImg_1_split -> foreQurImg_sliQurImg_1_split_0
I0225 16:56:40.241984 47071 net.cpp:408] foreQurImg_sliQurImg_1_split -> foreQurImg_sliQurImg_1_split_1
I0225 16:56:40.242034 47071 net.cpp:150] Setting up foreQurImg_sliQurImg_1_split
I0225 16:56:40.242044 47071 net.cpp:157] Top shape: 1 1 448 448 (200704)
I0225 16:56:40.242048 47071 net.cpp:157] Top shape: 1 1 448 448 (200704)
I0225 16:56:40.242051 47071 net.cpp:165] Memory required for data: 3717038120
I0225 16:56:40.242055 47071 layer_factory.hpp:77] Creating layer backQurImgSilence
I0225 16:56:40.242063 47071 net.cpp:100] Creating Layer backQurImgSilence
I0225 16:56:40.242069 47071 net.cpp:434] backQurImgSilence <- backQurImg
I0225 16:56:40.242077 47071 net.cpp:150] Setting up backQurImgSilence
I0225 16:56:40.242084 47071 net.cpp:165] Memory required for data: 3717038120
I0225 16:56:40.242091 47071 layer_factory.hpp:77] Creating layer sliPosImg
I0225 16:56:40.242101 47071 net.cpp:100] Creating Layer sliPosImg
I0225 16:56:40.242110 47071 net.cpp:434] sliPosImg <- PosImg
I0225 16:56:40.242123 47071 net.cpp:408] sliPosImg -> backPosImg
I0225 16:56:40.242142 47071 net.cpp:408] sliPosImg -> forePosImg
I0225 16:56:40.242216 47071 net.cpp:150] Setting up sliPosImg
I0225 16:56:40.242233 47071 net.cpp:157] Top shape: 1 1 448 448 (200704)
I0225 16:56:40.242241 47071 net.cpp:157] Top shape: 1 1 448 448 (200704)
I0225 16:56:40.242247 47071 net.cpp:165] Memory required for data: 3718643752
I0225 16:56:40.242254 47071 layer_factory.hpp:77] Creating layer forePosImg_sliPosImg_1_split
I0225 16:56:40.242267 47071 net.cpp:100] Creating Layer forePosImg_sliPosImg_1_split
I0225 16:56:40.242277 47071 net.cpp:434] forePosImg_sliPosImg_1_split <- forePosImg
I0225 16:56:40.242286 47071 net.cpp:408] forePosImg_sliPosImg_1_split -> forePosImg_sliPosImg_1_split_0
I0225 16:56:40.242324 47071 net.cpp:408] forePosImg_sliPosImg_1_split -> forePosImg_sliPosImg_1_split_1
I0225 16:56:40.242385 47071 net.cpp:150] Setting up forePosImg_sliPosImg_1_split
I0225 16:56:40.242398 47071 net.cpp:157] Top shape: 1 1 448 448 (200704)
I0225 16:56:40.242401 47071 net.cpp:157] Top shape: 1 1 448 448 (200704)
I0225 16:56:40.242404 47071 net.cpp:165] Memory required for data: 3720249384
I0225 16:56:40.242408 47071 layer_factory.hpp:77] Creating layer backPosImgSilence
I0225 16:56:40.242415 47071 net.cpp:100] Creating Layer backPosImgSilence
I0225 16:56:40.242419 47071 net.cpp:434] backPosImgSilence <- backPosImg
I0225 16:56:40.242424 47071 net.cpp:150] Setting up backPosImgSilence
I0225 16:56:40.242429 47071 net.cpp:165] Memory required for data: 3720249384
I0225 16:56:40.242432 47071 layer_factory.hpp:77] Creating layer foreProjImg
I0225 16:56:40.242447 47071 net.cpp:100] Creating Layer foreProjImg
I0225 16:56:40.242453 47071 net.cpp:434] foreProjImg <- foreQurImg_sliQurImg_1_split_0
I0225 16:56:40.242458 47071 net.cpp:434] foreProjImg <- opflowX_opflowX_0_split_0
I0225 16:56:40.242463 47071 net.cpp:434] foreProjImg <- opflowY_opflowY_0_split_0
I0225 16:56:40.242468 47071 net.cpp:434] foreProjImg <- opflowLabel_opflowX_1_split_0
I0225 16:56:40.242473 47071 net.cpp:408] foreProjImg -> foreProjImg
I0225 16:56:40.242508 47071 net.cpp:150] Setting up foreProjImg
I0225 16:56:40.242518 47071 net.cpp:157] Top shape: 1 1 448 448 (200704)
I0225 16:56:40.242522 47071 net.cpp:165] Memory required for data: 3721052200
I0225 16:56:40.242524 47071 layer_factory.hpp:77] Creating layer backProjImg
I0225 16:56:40.242539 47071 net.cpp:100] Creating Layer backProjImg
I0225 16:56:40.242543 47071 net.cpp:434] backProjImg <- forePosImg_sliPosImg_1_split_0
I0225 16:56:40.242548 47071 net.cpp:434] backProjImg <- opflowX_opflowX_0_split_1
I0225 16:56:40.242552 47071 net.cpp:434] backProjImg <- opflowY_opflowY_0_split_1
I0225 16:56:40.242557 47071 net.cpp:434] backProjImg <- opflowLabel_opflowX_1_split_1
I0225 16:56:40.242561 47071 net.cpp:408] backProjImg -> backProjImg
I0225 16:56:40.242596 47071 net.cpp:150] Setting up backProjImg
I0225 16:56:40.242606 47071 net.cpp:157] Top shape: 1 1 448 448 (200704)
I0225 16:56:40.242609 47071 net.cpp:165] Memory required for data: 3721855016
I0225 16:56:40.242614 47071 layer_factory.hpp:77] Creating layer resForeImg_1
I0225 16:56:40.242622 47071 net.cpp:100] Creating Layer resForeImg_1
I0225 16:56:40.242626 47071 net.cpp:434] resForeImg_1 <- foreProjImg
I0225 16:56:40.242632 47071 net.cpp:408] resForeImg_1 -> resForeImg_1
I0225 16:56:40.242673 47071 net.cpp:150] Setting up resForeImg_1
I0225 16:56:40.242683 47071 net.cpp:157] Top shape: 1 200704 1 1 (200704)
I0225 16:56:40.242686 47071 net.cpp:165] Memory required for data: 3722657832
I0225 16:56:40.242689 47071 layer_factory.hpp:77] Creating layer softForeImg_1
I0225 16:56:40.242699 47071 net.cpp:100] Creating Layer softForeImg_1
I0225 16:56:40.242703 47071 net.cpp:434] softForeImg_1 <- resForeImg_1
I0225 16:56:40.242709 47071 net.cpp:408] softForeImg_1 -> softForeImg_1
I0225 16:56:40.245640 47071 net.cpp:150] Setting up softForeImg_1
I0225 16:56:40.245662 47071 net.cpp:157] Top shape: 1 200704 1 1 (200704)
I0225 16:56:40.245667 47071 net.cpp:165] Memory required for data: 3723460648
I0225 16:56:40.245672 47071 layer_factory.hpp:77] Creating layer foreImg_1
I0225 16:56:40.245684 47071 net.cpp:100] Creating Layer foreImg_1
I0225 16:56:40.245689 47071 net.cpp:434] foreImg_1 <- softForeImg_1
I0225 16:56:40.245697 47071 net.cpp:408] foreImg_1 -> foreImg_1
I0225 16:56:40.245746 47071 net.cpp:150] Setting up foreImg_1
I0225 16:56:40.245759 47071 net.cpp:157] Top shape: 1 1 448 448 (200704)
I0225 16:56:40.245762 47071 net.cpp:165] Memory required for data: 3724263464
I0225 16:56:40.245765 47071 layer_factory.hpp:77] Creating layer resForeImg_2
I0225 16:56:40.245772 47071 net.cpp:100] Creating Layer resForeImg_2
I0225 16:56:40.245780 47071 net.cpp:434] resForeImg_2 <- forePosImg_sliPosImg_1_split_1
I0225 16:56:40.245803 47071 net.cpp:408] resForeImg_2 -> resForeImg_2
I0225 16:56:40.245842 47071 net.cpp:150] Setting up resForeImg_2
I0225 16:56:40.245858 47071 net.cpp:157] Top shape: 1 200704 1 1 (200704)
I0225 16:56:40.245862 47071 net.cpp:165] Memory required for data: 3725066280
I0225 16:56:40.245865 47071 layer_factory.hpp:77] Creating layer softForeImg_2
I0225 16:56:40.245873 47071 net.cpp:100] Creating Layer softForeImg_2
I0225 16:56:40.245877 47071 net.cpp:434] softForeImg_2 <- resForeImg_2
I0225 16:56:40.245883 47071 net.cpp:408] softForeImg_2 -> softForeImg_2
I0225 16:56:40.246398 47071 net.cpp:150] Setting up softForeImg_2
I0225 16:56:40.246415 47071 net.cpp:157] Top shape: 1 200704 1 1 (200704)
I0225 16:56:40.246419 47071 net.cpp:165] Memory required for data: 3725869096
I0225 16:56:40.246424 47071 layer_factory.hpp:77] Creating layer foreImg_2
I0225 16:56:40.246433 47071 net.cpp:100] Creating Layer foreImg_2
I0225 16:56:40.246440 47071 net.cpp:434] foreImg_2 <- softForeImg_2
I0225 16:56:40.246449 47071 net.cpp:408] foreImg_2 -> foreImg_2
I0225 16:56:40.246486 47071 net.cpp:150] Setting up foreImg_2
I0225 16:56:40.246497 47071 net.cpp:157] Top shape: 1 1 448 448 (200704)
I0225 16:56:40.246500 47071 net.cpp:165] Memory required for data: 3726671912
I0225 16:56:40.246505 47071 layer_factory.hpp:77] Creating layer foreSalSmilarLoss
I0225 16:56:40.246522 47071 net.cpp:100] Creating Layer foreSalSmilarLoss
I0225 16:56:40.246528 47071 net.cpp:434] foreSalSmilarLoss <- foreImg_1
I0225 16:56:40.246533 47071 net.cpp:434] foreSalSmilarLoss <- foreImg_2
I0225 16:56:40.246541 47071 net.cpp:408] foreSalSmilarLoss -> foreSalSmilarLoss
I0225 16:56:40.246595 47071 net.cpp:150] Setting up foreSalSmilarLoss
I0225 16:56:40.246610 47071 net.cpp:157] Top shape: (1)
I0225 16:56:40.246613 47071 net.cpp:160]     with loss weight 0.001
I0225 16:56:40.246629 47071 net.cpp:165] Memory required for data: 3726671916
I0225 16:56:40.246632 47071 layer_factory.hpp:77] Creating layer resBackImg_1
I0225 16:56:40.246646 47071 net.cpp:100] Creating Layer resBackImg_1
I0225 16:56:40.246655 47071 net.cpp:434] resBackImg_1 <- backProjImg
I0225 16:56:40.246667 47071 net.cpp:408] resBackImg_1 -> resBackImg_1
I0225 16:56:40.246726 47071 net.cpp:150] Setting up resBackImg_1
I0225 16:56:40.246740 47071 net.cpp:157] Top shape: 1 200704 1 1 (200704)
I0225 16:56:40.246747 47071 net.cpp:165] Memory required for data: 3727474732
I0225 16:56:40.246783 47071 layer_factory.hpp:77] Creating layer softBackImg_1
I0225 16:56:40.246798 47071 net.cpp:100] Creating Layer softBackImg_1
I0225 16:56:40.246829 47071 net.cpp:434] softBackImg_1 <- resBackImg_1
I0225 16:56:40.246851 47071 net.cpp:408] softBackImg_1 -> softBackImg_1
I0225 16:56:40.248875 47071 net.cpp:150] Setting up softBackImg_1
I0225 16:56:40.248901 47071 net.cpp:157] Top shape: 1 200704 1 1 (200704)
I0225 16:56:40.248910 47071 net.cpp:165] Memory required for data: 3728277548
I0225 16:56:40.248924 47071 layer_factory.hpp:77] Creating layer backImg_1
I0225 16:56:40.248939 47071 net.cpp:100] Creating Layer backImg_1
I0225 16:56:40.248944 47071 net.cpp:434] backImg_1 <- softBackImg_1
I0225 16:56:40.248950 47071 net.cpp:408] backImg_1 -> backImg_1
I0225 16:56:40.248996 47071 net.cpp:150] Setting up backImg_1
I0225 16:56:40.249007 47071 net.cpp:157] Top shape: 1 1 448 448 (200704)
I0225 16:56:40.249011 47071 net.cpp:165] Memory required for data: 3729080364
I0225 16:56:40.249014 47071 layer_factory.hpp:77] Creating layer resBackImg_2
I0225 16:56:40.249024 47071 net.cpp:100] Creating Layer resBackImg_2
I0225 16:56:40.249030 47071 net.cpp:434] resBackImg_2 <- foreQurImg_sliQurImg_1_split_1
I0225 16:56:40.249038 47071 net.cpp:408] resBackImg_2 -> resBackImg_2
I0225 16:56:40.249074 47071 net.cpp:150] Setting up resBackImg_2
I0225 16:56:40.249084 47071 net.cpp:157] Top shape: 1 200704 1 1 (200704)
I0225 16:56:40.249088 47071 net.cpp:165] Memory required for data: 3729883180
I0225 16:56:40.249091 47071 layer_factory.hpp:77] Creating layer softBackImg_2
I0225 16:56:40.249102 47071 net.cpp:100] Creating Layer softBackImg_2
I0225 16:56:40.249127 47071 net.cpp:434] softBackImg_2 <- resBackImg_2
I0225 16:56:40.249140 47071 net.cpp:408] softBackImg_2 -> softBackImg_2
I0225 16:56:40.249652 47071 net.cpp:150] Setting up softBackImg_2
I0225 16:56:40.249668 47071 net.cpp:157] Top shape: 1 200704 1 1 (200704)
I0225 16:56:40.249673 47071 net.cpp:165] Memory required for data: 3730685996
I0225 16:56:40.249677 47071 layer_factory.hpp:77] Creating layer backImg_2
I0225 16:56:40.249689 47071 net.cpp:100] Creating Layer backImg_2
I0225 16:56:40.249696 47071 net.cpp:434] backImg_2 <- softBackImg_2
I0225 16:56:40.249702 47071 net.cpp:408] backImg_2 -> backImg_2
I0225 16:56:40.249743 47071 net.cpp:150] Setting up backImg_2
I0225 16:56:40.249753 47071 net.cpp:157] Top shape: 1 1 448 448 (200704)
I0225 16:56:40.249758 47071 net.cpp:165] Memory required for data: 3731488812
I0225 16:56:40.249760 47071 layer_factory.hpp:77] Creating layer backSalSmilarLoss
I0225 16:56:40.249768 47071 net.cpp:100] Creating Layer backSalSmilarLoss
I0225 16:56:40.249774 47071 net.cpp:434] backSalSmilarLoss <- backImg_1
I0225 16:56:40.249779 47071 net.cpp:434] backSalSmilarLoss <- backImg_2
I0225 16:56:40.249788 47071 net.cpp:408] backSalSmilarLoss -> backSalSmilarLoss
…
