…
I0225 16:54:43.792964 46852 net.cpp:322] The NetState phase (0) differed from the phase (1) specified by a rule in layer bn_ks_1_deconv_1
I0225 16:54:43.793905 46852 net.cpp:58] Initializing net from parameters: 
name: "ROS_CovDec"
state {
  phase: TRAIN
  level: 0
  stage: ""
}
layer {
  name: "img"
  type: "TripletImageData"
  top: "img"
  top: "labelImage"
  include {
    phase: TRAIN
  }
  transform_param {
    mean_value: 115.269
    mean_value: 122.346
    mean_value: 122.819
  }
  image_data_param {
    source: "/disk2/yangle/dataset/triDataset/triList.tri"
    batch_size: 1
    root_folder: "/disk2/yangle/dataset/triDataset/img/"
  }
}
layer {
  name: "imgSilence"
  type: "Silence"
  bottom: "labelImage"
  include {
    phase: TRAIN
  }
}
layer {
  name: "mask"
  type: "TripletImageData"
  top: "mask"
  top: "labelMask"
  include {
    phase: TRAIN
  }
  transform_param {
    scale: 0.0039215689
  }
  image_data_param {
    source: "/disk2/yangle/dataset/triDataset/triList.tri"
    batch_size: 1
    is_color: false
    root_folder: "/disk2/yangle/dataset/triDataset/mask/"
  }
}
layer {
  name: "maskSilence"
  type: "Silence"
  bottom: "labelMask"
  include {
    phase: TRAIN
  }
}
layer {
  name: "opflowX"
  type: "Data"
  top: "opflowX"
  top: "opflowLabel"
  include {
    phase: TRAIN
  }
  data_param {
    source: "/disk2/yangle/dataset/triDataset/lmdb/train_opX_lmdb"
    batch_size: 1
    backend: LMDB
  }
}
layer {
  name: "opflowY"
  type: "Data"
  top: "opflowY"
  include {
    phase: TRAIN
  }
  data_param {
    source: "/disk2/yangle/dataset/triDataset/lmdb/train_opY_lmdb"
    batch_size: 1
    backend: LMDB
  }
}
layer {
  name: "conv1_1"
  type: "Convolution"
  bottom: "img"
  top: "conv1_1"
  param {
    lr_mult: 0.1
    decay_mult: 1
  }
  param {
    lr_mult: 0.2
    decay_mult: 0
  }
  convolution_param {
    num_output: 64
    pad: 1
    kernel_size: 3
  }
}
layer {
  name: "relu1_1"
  type: "ReLU"
  bottom: "conv1_1"
  top: "conv1_1"
}
layer {
  name: "conv1_2"
  type: "Convolution"
  bottom: "conv1_1"
  top: "conv1_2"
  param {
    lr_mult: 0.1
    decay_mult: 1
  }
  param {
    lr_mult: 0.2
    decay_mult: 0
  }
  convolution_param {
    num_output: 64
    pad: 1
    kernel_size: 3
  }
}
layer {
  name: "relu1_2"
  type: "ReLU"
  bottom: "conv1_2"
  top: "conv1_2"
}
layer {
  name: "pool1"
  type: "Pooling"
  bottom: "conv1_2"
  top: "pool1"
  pooling_param {
    pool: MAX
    kernel_size: 2
    stride: 2
  }
}
layer {
  name: "conv2_1"
  type: "Convolution"
  bottom: "pool1"
  top: "conv2_1"
  param {
    lr_mult: 0.1
    decay_mult: 1
  }
  param {
    lr_mult: 0.2
    decay_mult: 0
  }
  convolution_param {
    num_output: 128
    pad: 1
    kernel_size: 3
  }
}
layer {
  name: "relu2_1"
  type: "ReLU"
  bottom: "conv2_1"
  top: "conv2_1"
}
layer {
  name: "conv2_2"
  type: "Convolution"
  bottom: "conv2_1"
  top: "conv2_2"
  param {
    lr_mult: 0.1
    decay_mult: 1
  }
  param {
    lr_mult: 0.2
    decay_mult: 0
  }
  convolution_param {
    num_output: 128
    pad: 1
    kernel_size: 3
  }
}
layer {
  name: "relu2_2"
  type: "ReLU"
  bottom: "conv2_2"
  top: "conv2_2"
}
layer {
  name: "pool2"
  type: "Pooling"
  bottom: "conv2_2"
  top: "pool2"
  pooling_param {
    pool: MAX
    kernel_size: 2
    stride: 2
  }
}
layer {
  name: "conv3_1"
  type: "Convolution"
  bottom: "pool2"
  top: "conv3_1"
  param {
    lr_mult: 0.1
    decay_mult: 1
  }
  param {
    lr_mult: 0.2
    decay_mult: 0
  }
  convolution_param {
    num_output: 256
    pad: 1
    kernel_size: 3
  }
}
layer {
  name: "relu3_1"
  type: "ReLU"
  bottom: "conv3_1"
  top: "conv3_1"
}
layer {
  name: "conv3_2"
  type: "Convolution"
  bottom: "conv3_1"
  top: "conv3_2"
  param {
    lr_mult: 0.1
    decay_mult: 1
  }
  param {
    lr_mult: 0.2
    decay_mult: 0
  }
  convolution_param {
    num_output: 256
    pad: 1
    kernel_size: 3
  }
}
layer {
  name: "relu3_2"
  type: "ReLU"
  bottom: "conv3_2"
  top: "conv3_2"
}
layer {
  name: "conv3_3"
  type: "Convolution"
  bottom: "conv3_2"
  top: "conv3_3"
  param {
    lr_mult: 0.1
    decay_mult: 1
  }
  param {
    lr_mult: 0.2
    decay_mult: 0
  }
  convolution_param {
    num_output: 256
    pad: 1
    kernel_size: 3
  }
}
layer {
  name: "relu3_3"
  type: "ReLU"
  bottom: "conv3_3"
  top: "conv3_3"
}
layer {
  name: "pool3"
  type: "Pooling"
  bottom: "conv3_3"
  top: "pool3"
  pooling_param {
    pool: MAX
    kernel_size: 2
    stride: 2
  }
}
layer {
  name: "conv4_1"
  type: "Convolution"
  bottom: "pool3"
  top: "conv4_1"
  param {
    lr_mult: 0.1
    decay_mult: 1
  }
  param {
    lr_mult: 0.2
    decay_mult: 0
  }
  convolution_param {
    num_output: 512
    pad: 1
    kernel_size: 3
  }
}
layer {
  name: "relu4_1"
  type: "ReLU"
  bottom: "conv4_1"
  top: "conv4_1"
}
layer {
  name: "conv4_2"
  type: "Convolution"
  bottom: "conv4_1"
  top: "conv4_2"
  param {
    lr_mult: 0.1
    decay_mult: 1
  }
  param {
    lr_mult: 0.2
    decay_mult: 0
  }
  convolution_param {
    num_output: 512
    pad: 1
    kernel_size: 3
  }
}
layer {
  name: "relu4_2"
  type: "ReLU"
  bottom: "conv4_2"
  top: "conv4_2"
}
layer {
  name: "conv4_3"
  type: "Convolution"
  bottom: "conv4_2"
  top: "conv4_3"
  param {
    lr_mult: 0.1
    decay_mult: 1
  }
  param {
    lr_mult: 0.2
    decay_mult: 0
  }
  convolution_param {
    num_output: 512
    pad: 1
    kernel_size: 3
  }
}
layer {
  name: "relu4_3"
  type: "ReLU"
  bottom: "conv4_3"
  top: "conv4_3"
}
layer {
  name: "conv5_1"
  type: "Convolution"
  bottom: "conv4_3"
  top: "conv5_1"
  param {
    lr_mult: 0.1
    decay_mult: 1
  }
  param {
    lr_mult: 0.2
    decay_mult: 0
  }
  convolution_param {
    num_output: 512
    pad: 2
    kernel_size: 3
    dilation: 2
  }
}
layer {
  name: "relu5_1"
  type: "ReLU"
  bottom: "conv5_1"
  top: "conv5_1"
}
layer {
  name: "conv5_2"
  type: "Convolution"
  bottom: "conv5_1"
  top: "conv5_2"
  param {
    lr_mult: 0.1
    decay_mult: 1
  }
  param {
    lr_mult: 0.2
    decay_mult: 0
  }
  convolution_param {
    num_output: 512
    pad: 2
    kernel_size: 3
    dilation: 2
  }
}
layer {
  name: "relu5_2"
  type: "ReLU"
  bottom: "conv5_2"
  top: "conv5_2"
}
layer {
  name: "conv5_3"
  type: "Convolution"
  bottom: "conv5_2"
  top: "conv5_3"
  param {
    lr_mult: 0.1
    decay_mult: 1
  }
  param {
    lr_mult: 0.2
    decay_mult: 0
  }
  convolution_param {
    num_output: 512
    pad: 2
    kernel_size: 3
    dilation: 2
  }
}
layer {
  name: "relu5_3"
  type: "ReLU"
  bottom: "conv5_3"
  top: "conv5_3"
}
layer {
  name: "top_cov"
  type: "Convolution"
  bottom: "conv5_3"
  top: "top_cov"
  param {
    lr_mult: 1
    decay_mult: 1
  }
  param {
    lr_mult: 2
    decay_mult: 0
  }
  convolution_param {
    num_output: 128
    pad: 1
    kernel_size: 3
    weight_filler {
      type: "gaussian"
      std: 0.01
    }
    bias_filler {
      type: "constant"
    }
  }
}
layer {
  name: "relu_top_cov"
  type: "ReLU"
  bottom: "top_cov"
  top: "top_cov"
}
layer {
  name: "km_1_conv_5"
  type: "Convolution"
  bottom: "top_cov"
  top: "km_1_conv_5"
  param {
    lr_mult: 1
    decay_mult: 1
  }
  param {
    lr_mult: 2
    decay_mult: 0
  }
  convolution_param {
    num_output: 512
    pad: 1
    kernel_size: 3
    weight_filler {
      type: "gaussian"
      std: 0.01
    }
    bias_filler {
      type: "constant"
    }
  }
}
layer {
  name: "relu_km_1_deconv_5"
  type: "ReLU"
  bottom: "km_1_conv_5"
  top: "km_1_conv_5"
}
layer {
  name: "km_2_conv_4"
  type: "Convolution"
  bottom: "km_1_conv_5"
  top: "km_2_conv_4"
  param {
    lr_mult: 1
    decay_mult: 1
  }
  param {
    lr_mult: 2
    decay_mult: 0
  }
  convolution_param {
    num_output: 256
    pad: 1
    kernel_size: 3
    weight_filler {
      type: "gaussian"
      std: 0.01
    }
    bias_filler {
      type: "constant"
    }
  }
}
layer {
  name: "bn_km_2_conv_4"
  type: "BatchNorm"
  bottom: "km_2_conv_4"
  top: "km_2_conv_4"
  include {
    phase: TRAIN
  }
  batch_norm_param {
    use_global_stats: false
  }
}
layer {
  name: "relu_km_2_conv_4"
  type: "ReLU"
  bottom: "km_2_conv_4"
  top: "km_2_conv_4"
}
layer {
  name: "ks_1_deconv_4"
  type: "Convolution"
  bottom: "conv4_3"
  top: "ks_1_deconv_4"
  param {
    lr_mult: 1
    decay_mult: 1
  }
  param {
    lr_mult: 2
    decay_mult: 0
  }
  convolution_param {
    num_output: 256
    pad: 1
    kernel_size: 3
    weight_filler {
      type: "gaussian"
      std: 0.01
    }
    bias_filler {
      type: "constant"
    }
  }
}
layer {
  name: "bn_ks_1_deconv_4"
  type: "BatchNorm"
  bottom: "ks_1_deconv_4"
  top: "ks_1_deconv_4"
  include {
    phase: TRAIN
  }
  batch_norm_param {
    use_global_stats: false
  }
}
layer {
  name: "relu_ks_1_deconv_4"
  type: "ReLU"
  bottom: "ks_1_deconv_4"
  top: "ks_1_deconv_4"
}
layer {
  name: "concat4"
  type: "Concat"
  bottom: "ks_1_deconv_4"
  bottom: "km_2_conv_4"
  top: "concat4"
  concat_param {
    concat_dim: 1
  }
}
layer {
  name: "cov_deconv_4"
  type: "Convolution"
  bottom: "concat4"
  top: "cov_deconv_4"
  param {
    lr_mult: 1
    decay_mult: 1
  }
  param {
    lr_mult: 2
    decay_mult: 0
  }
  convolution_param {
    num_output: 256
    pad: 1
    kernel_size: 3
    weight_filler {
      type: "gaussian"
      std: 0.01
    }
    bias_filler {
      type: "constant"
    }
  }
}
layer {
  name: "relu_cov_deconv_4"
  type: "ReLU"
  bottom: "cov_deconv_4"
  top: "cov_deconv_4"
}
layer {
  name: "km_1_deconv_3"
  type: "Deconvolution"
  bottom: "cov_deconv_4"
  top: "km_1_deconv_3"
  param {
    lr_mult: 0.01
    decay_mult: 0.01
  }
  convolution_param {
    num_output: 256
    bias_term: false
    pad: 1
    kernel_size: 4
    group: 256
    stride: 2
    weight_filler {
      type: "bilinear"
    }
  }
}
layer {
  name: "km_2_conv_3"
  type: "Convolution"
  bottom: "km_1_deconv_3"
  top: "km_2_conv_3"
  param {
    lr_mult: 1
    decay_mult: 1
  }
  param {
    lr_mult: 2
    decay_mult: 0
  }
  convolution_param {
    num_output: 128
    pad: 1
    kernel_size: 3
    weight_filler {
      type: "gaussian"
      std: 0.01
    }
    bias_filler {
      type: "constant"
    }
  }
}
layer {
  name: "bn_km_2_conv_3"
  type: "BatchNorm"
  bottom: "km_2_conv_3"
  top: "km_2_conv_3"
  include {
    phase: TRAIN
  }
  batch_norm_param {
    use_global_stats: false
  }
}
layer {
  name: "relu_km_2_conv_3"
  type: "ReLU"
  bottom: "km_2_conv_3"
  top: "km_2_conv_3"
}
layer {
  name: "ks_1_deconv_3"
  type: "Convolution"
  bottom: "conv3_3"
  top: "ks_1_deconv_3"
  param {
    lr_mult: 1
    decay_mult: 1
  }
  param {
    lr_mult: 2
    decay_mult: 0
  }
  convolution_param {
    num_output: 128
    pad: 1
    kernel_size: 3
    weight_filler {
      type: "gaussian"
      std: 0.01
    }
    bias_filler {
      type: "constant"
    }
  }
}
layer {
  name: "bn_ks_1_deconv_3"
  type: "BatchNorm"
  bottom: "ks_1_deconv_3"
  top: "ks_1_deconv_3"
  include {
    phase: TRAIN
  }
  batch_norm_param {
    use_global_stats: false
  }
}
layer {
  name: "relu_ks_1_deconv_3"
  type: "ReLU"
  bottom: "ks_1_deconv_3"
  top: "ks_1_deconv_3"
}
layer {
  name: "concat3"
  type: "Concat"
  bottom: "ks_1_deconv_3"
  bottom: "km_2_conv_3"
  top: "concat3"
  concat_param {
    concat_dim: 1
  }
}
layer {
  name: "cov_deconv_3"
  type: "Convolution"
  bottom: "concat3"
  top: "cov_deconv_3"
  param {
    lr_mult: 1
    decay_mult: 1
  }
  param {
    lr_mult: 2
    decay_mult: 0
  }
  convolution_param {
    num_output: 128
    pad: 1
    kernel_size: 3
    weight_filler {
      type: "gaussian"
      std: 0.01
    }
    bias_filler {
      type: "constant"
    }
  }
}
layer {
  name: "relu_cov_deconv_3"
  type: "ReLU"
  bottom: "cov_deconv_3"
  top: "cov_deconv_3"
}
layer {
  name: "km_1_deconv_2"
  type: "Deconvolution"
  bottom: "cov_deconv_3"
  top: "km_1_deconv_2"
  param {
    lr_mult: 0.01
    decay_mult: 0.01
  }
  convolution_param {
    num_output: 128
    bias_term: false
    pad: 1
    kernel_size: 4
    group: 128
    stride: 2
    weight_filler {
      type: "bilinear"
    }
  }
}
layer {
  name: "km_2_conv_2"
  type: "Convolution"
  bottom: "km_1_deconv_2"
  top: "km_2_conv_2"
  param {
    lr_mult: 1
    decay_mult: 1
  }
  param {
    lr_mult: 2
    decay_mult: 0
  }
  convolution_param {
    num_output: 64
    pad: 1
    kernel_size: 3
    weight_filler {
      type: "gaussian"
      std: 0.01
    }
    bias_filler {
      type: "constant"
    }
  }
}
layer {
  name: "bn_km_2_conv_2"
  type: "BatchNorm"
  bottom: "km_2_conv_2"
  top: "km_2_conv_2"
  include {
    phase: TRAIN
  }
  batch_norm_param {
    use_global_stats: false
  }
}
layer {
  name: "relu_km_2_conv_2"
  type: "ReLU"
  bottom: "km_2_conv_2"
  top: "km_2_conv_2"
}
layer {
  name: "ks_1_deconv_2"
  type: "Convolution"
  bottom: "conv2_2"
  top: "ks_1_deconv_2"
  param {
    lr_mult: 1
    decay_mult: 1
  }
  param {
    lr_mult: 2
    decay_mult: 0
  }
  convolution_param {
    num_output: 64
    pad: 1
    kernel_size: 3
    weight_filler {
      type: "gaussian"
      std: 0.01
    }
    bias_filler {
      type: "constant"
    }
  }
}
layer {
  name: "bn_ks_1_deconv_2"
  type: "BatchNorm"
  bottom: "ks_1_deconv_2"
  top: "ks_1_deconv_2"
  include {
    phase: TRAIN
  }
  batch_norm_param {
    use_global_stats: false
  }
}
layer {
  name: "relu_ks_1_deconv_2"
  type: "ReLU"
  bottom: "ks_1_deconv_2"
  top: "ks_1_deconv_2"
}
layer {
  name: "concat2"
  type: "Concat"
  bottom: "ks_1_deconv_2"
  bottom: "km_2_conv_2"
  top: "concat2"
  concat_param {
    concat_dim: 1
  }
}
layer {
  name: "cov_deconv_2"
  type: "Convolution"
  bottom: "concat2"
  top: "cov_deconv_2"
  param {
    lr_mult: 1
    decay_mult: 1
  }
  param {
    lr_mult: 2
    decay_mult: 0
  }
  convolution_param {
    num_output: 64
    pad: 1
    kernel_size: 3
    weight_filler {
      type: "gaussian"
      std: 0.01
    }
    bias_filler {
      type: "constant"
    }
  }
}
layer {
  name: "relu_cov_deconv_2"
  type: "ReLU"
  bottom: "cov_deconv_2"
  top: "cov_deconv_2"
}
layer {
  name: "km_1_deconv_1"
  type: "Deconvolution"
  bottom: "cov_deconv_2"
  top: "km_1_deconv_1"
  param {
    lr_mult: 0.01
    decay_mult: 0.01
  }
  convolution_param {
    num_output: 64
    bias_term: false
    pad: 1
    kernel_size: 4
    group: 64
    stride: 2
    weight_filler {
      type: "bilinear"
    }
  }
}
layer {
  name: "km_1_conv_1"
  type: "Convolution"
  bottom: "km_1_deconv_1"
  top: "km_1_conv_1"
  param {
    lr_mult: 1
    decay_mult: 1
  }
  param {
    lr_mult: 2
    decay_mult: 0
  }
  convolution_param {
    num_output: 32
    pad: 1
    kernel_size: 3
    weight_filler {
      type: "gaussian"
      std: 0.01
    }
    bias_filler {
      type: "constant"
    }
  }
}
layer {
  name: "bn_km_1_conv_1"
  type: "BatchNorm"
  bottom: "km_1_conv_1"
  top: "km_1_conv_1"
  include {
    phase: TRAIN
  }
  batch_norm_param {
    use_global_stats: false
  }
}
layer {
  name: "relu_km_1_conv_1"
  type: "ReLU"
  bottom: "km_1_conv_1"
  top: "km_1_conv_1"
}
layer {
  name: "ks_1_deconv_1"
  type: "Convolution"
  bottom: "conv1_2"
  top: "ks_1_deconv_1"
  param {
    lr_mult: 1
    decay_mult: 1
  }
  param {
    lr_mult: 2
    decay_mult: 0
  }
  convolution_param {
    num_output: 32
    pad: 1
    kernel_size: 3
    weight_filler {
      type: "gaussian"
      std: 0.01
    }
    bias_filler {
      type: "constant"
    }
  }
}
layer {
  name: "bn_ks_1_deconv_1"
  type: "BatchNorm"
  bottom: "ks_1_deconv_1"
  top: "ks_1_deconv_1"
  include {
    phase: TRAIN
  }
  batch_norm_param {
    use_global_stats: false
  }
}
layer {
  name: "relu_ks_1_deconv_1"
  type: "ReLU"
  bottom: "ks_1_deconv_1"
  top: "ks_1_deconv_1"
}
layer {
  name: "concat1"
  type: "Concat"
  bottom: "ks_1_deconv_1"
  bottom: "km_1_conv_1"
  top: "concat1"
  concat_param {
    concat_dim: 1
  }
}
layer {
  name: "segfuse"
  type: "Convolution"
  bottom: "concat1"
  top: "segfuse"
  param {
    lr_mult: 1
    decay_mult: 1
  }
  param {
    lr_mult: 2
    decay_mult: 0
  }
  convolution_param {
    num_output: 8
    pad: 1
    kernel_size: 3
    weight_filler {
      type: "gaussian"
      std: 0.01
    }
    bias_filler {
      type: "constant"
    }
  }
}
layer {
  name: "relu_segfuse"
  type: "ReLU"
  bottom: "segfuse"
  top: "segfuse"
}
layer {
  name: "segres"
  type: "Convolution"
  bottom: "segfuse"
  top: "segres"
  param {
    lr_mult: 1
    decay_mult: 1
  }
  param {
    lr_mult: 2
    decay_mult: 0
  }
  convolution_param {
    num_output: 2
    pad: 1
    kernel_size: 3
    weight_filler {
      type: "gaussian"
      std: 0.01
    }
    bias_filler {
      type: "constant"
    }
  }
}
layer {
  name: "loss_cov_deconv_1"
  type: "SoftmaxWithLoss"
  bottom: "segres"
  bottom: "mask"
  top: "loss_cov_deconv_1"
  loss_param {
    normalization: VALID
  }
}
layer {
  name: "sliSegres"
  type: "Slice"
  bottom: "segres"
  top: "QurImg"
  top: "PosImg"
  top: "NegImg"
  slice_param {
    axis: 0
  }
}
layer {
  name: "NegImgSilence"
  type: "Silence"
  bottom: "NegImg"
}
layer {
  name: "sliQurImg"
  type: "Slice"
  bottom: "QurImg"
  top: "backQurImg"
  top: "foreQurImg"
  slice_param {
    axis: 1
  }
}
layer {
  name: "backQurImgSilence"
  type: "Silence"
  bottom: "backQurImg"
}
layer {
  name: "sliPosImg"
  type: "Slice"
  bottom: "PosImg"
  top: "backPosImg"
  top: "forePosImg"
  slice_param {
    axis: 1
  }
}
layer {
  name: "backPosImgSilence"
  type: "Silence"
  bottom: "backPosImg"
}
layer {
  name: "foreProjImg"
  type: "OpflowForeProject"
  bottom: "foreQurImg"
  bottom: "opflowX"
  bottom: "opflowY"
  bottom: "opflowLabel"
  top: "foreProjImg"
}
layer {
  name: "backProjImg"
  type: "OpflowBackProject"
  bottom: "forePosImg"
  bottom: "opflowX"
  bottom: "opflowY"
  bottom: "opflowLabel"
  top: "backProjImg"
}
layer {
  name: "resForeImg_1"
  type: "Reshape"
  bottom: "foreProjImg"
  top: "resForeImg_1"
  reshape_param {
    shape {
      dim: 0
      dim: 200704
      dim: 1
      dim: 1
    }
  }
}
layer {
  name: "softForeImg_1"
  type: "Softmax"
  bottom: "resForeImg_1"
  top: "softForeImg_1"
}
layer {
  name: "foreImg_1"
  type: "Reshape"
  bottom: "softForeImg_1"
  top: "foreImg_1"
  reshape_param {
    shape {
      dim: 0
      dim: 1
      dim: 448
      dim: 448
    }
  }
}
layer {
  name: "resForeImg_2"
  type: "Reshape"
  bottom: "forePosImg"
  top: "resForeImg_2"
  reshape_param {
    shape {
      dim: 0
      dim: 200704
      dim: 1
      dim: 1
    }
  }
}
layer {
  name: "softForeImg_2"
  type: "Softmax"
  bottom: "resForeImg_2"
  top: "softForeImg_2"
}
layer {
  name: "foreImg_2"
  type: "Reshape"
  bottom: "softForeImg_2"
  top: "foreImg_2"
  reshape_param {
    shape {
      dim: 0
      dim: 1
      dim: 448
      dim: 448
    }
  }
}
layer {
  name: "foreSalSmilarLoss"
  type: "EuclideanLoss"
  bottom: "foreImg_1"
  bottom: "foreImg_2"
  top: "foreSalSmilarLoss"
  loss_weight: 100000
}
layer {
  name: "resBackImg_1"
  type: "Reshape"
  bottom: "backProjImg"
  top: "resBackImg_1"
  reshape_param {
    shape {
      dim: 0
      dim: 200704
      dim: 1
      dim: 1
    }
  }
}
layer {
  name: "softBackImg_1"
  type: "Softmax"
  bottom: "resBackImg_1"
  top: "softBackImg_1"
}
layer {
  name: "backImg_1"
  type: "Reshape"
  bottom: "softBackImg_1"
  top: "backImg_1"
  reshape_param {
    shape {
      dim: 0
      dim: 1
      dim: 448
      dim: 448
    }
  }
}
layer {
  name: "resBackImg_2"
  type: "Reshape"
  bottom: "foreQurImg"
  top: "resBackImg_2"
  reshape_param {
    shape {
      dim: 0
      dim: 200704
      dim: 1
      dim: 1
    }
  }
}
layer {
  name: "softBackImg_2"
  type: "Softmax"
  bottom: "resBackImg_2"
  top: "softBackImg_2"
}
layer {
  name: "backImg_2"
  type: "Reshape"
  bottom: "softBackImg_2"
  top: "backImg_2"
  reshape_param {
    shape {
      dim: 0
      dim: 1
      dim: 448
      dim: 448
    }
  }
}
layer {
  name: "backSalSmilarLoss"
  type: "EuclideanLoss"
  bottom: "backImg_1"
  bottom: "backImg_2"
  top: "backSalSmilarLoss"
  loss_weight: 100000
}
I0225 16:54:43.794785 46852 layer_factory.hpp:77] Creating layer img
I0225 16:54:43.794869 46852 net.cpp:100] Creating Layer img
I0225 16:54:43.794886 46852 net.cpp:408] img -> img
I0225 16:54:43.794934 46852 net.cpp:408] img -> labelImage
I0225 16:54:43.794960 46852 triplet_image_data_layer.cpp:37] Opening file /disk2/yangle/dataset/triDataset/triList.tri
I0225 16:54:43.795308 46852 triplet_image_data_layer.cpp:58] A total of 100 images.
I0225 16:54:43.861764 46852 triplet_image_data_layer.cpp:86] output data size: 3,3,448,448
I0225 16:54:43.861882 46852 triplet_image_data_layer.cpp:99] output label size: 3,1,1,1
I0225 16:54:43.889406 46852 net.cpp:150] Setting up img
I0225 16:54:43.889459 46852 net.cpp:157] Top shape: 3 3 448 448 (1806336)
I0225 16:54:43.889469 46852 net.cpp:157] Top shape: 3 1 1 1 (3)
I0225 16:54:43.889474 46852 net.cpp:165] Memory required for data: 7225356
I0225 16:54:43.889490 46852 layer_factory.hpp:77] Creating layer imgSilence
I0225 16:54:43.889513 46852 net.cpp:100] Creating Layer imgSilence
I0225 16:54:43.889524 46852 net.cpp:434] imgSilence <- labelImage
I0225 16:54:43.889539 46852 net.cpp:150] Setting up imgSilence
I0225 16:54:43.889544 46852 net.cpp:165] Memory required for data: 7225356
I0225 16:54:43.889547 46852 layer_factory.hpp:77] Creating layer mask
I0225 16:54:43.889569 46852 net.cpp:100] Creating Layer mask
I0225 16:54:43.889576 46852 net.cpp:408] mask -> mask
I0225 16:54:43.889596 46852 net.cpp:408] mask -> labelMask
I0225 16:54:43.889611 46852 triplet_image_data_layer.cpp:37] Opening file /disk2/yangle/dataset/triDataset/triList.tri
I0225 16:54:43.889827 46852 triplet_image_data_layer.cpp:58] A total of 100 images.
I0225 16:54:43.890862 46852 triplet_image_data_layer.cpp:86] output data size: 3,1,448,448
I0225 16:54:43.890933 46852 triplet_image_data_layer.cpp:99] output label size: 3,1,1,1
I0225 16:54:43.900862 46852 net.cpp:150] Setting up mask
I0225 16:54:43.900905 46852 net.cpp:157] Top shape: 3 1 448 448 (602112)
I0225 16:54:43.900913 46852 net.cpp:157] Top shape: 3 1 1 1 (3)
I0225 16:54:43.900918 46852 net.cpp:165] Memory required for data: 9633816
I0225 16:54:43.900926 46852 layer_factory.hpp:77] Creating layer maskSilence
I0225 16:54:43.900939 46852 net.cpp:100] Creating Layer maskSilence
I0225 16:54:43.900945 46852 net.cpp:434] maskSilence <- labelMask
I0225 16:54:43.900954 46852 net.cpp:150] Setting up maskSilence
I0225 16:54:43.900960 46852 net.cpp:165] Memory required for data: 9633816
I0225 16:54:43.900964 46852 layer_factory.hpp:77] Creating layer opflowX
I0225 16:54:43.901054 46852 net.cpp:100] Creating Layer opflowX
I0225 16:54:43.901068 46852 net.cpp:408] opflowX -> opflowX
I0225 16:54:43.901085 46852 net.cpp:408] opflowX -> opflowLabel
I0225 16:54:43.905179 46861 db_lmdb.cpp:35] Opened lmdb /disk2/yangle/dataset/triDataset/lmdb/train_opX_lmdb
I0225 16:54:43.905701 46852 data_layer.cpp:41] output data size: 1,1,448,448
I0225 16:54:43.909317 46852 net.cpp:150] Setting up opflowX
I0225 16:54:43.909359 46852 net.cpp:157] Top shape: 1 1 448 448 (200704)
I0225 16:54:43.909368 46852 net.cpp:157] Top shape: 1 (1)
I0225 16:54:43.909373 46852 net.cpp:165] Memory required for data: 10436636
I0225 16:54:43.909382 46852 layer_factory.hpp:77] Creating layer opflowX_opflowX_0_split
I0225 16:54:43.909406 46852 net.cpp:100] Creating Layer opflowX_opflowX_0_split
I0225 16:54:43.909413 46852 net.cpp:434] opflowX_opflowX_0_split <- opflowX
I0225 16:54:43.909425 46852 net.cpp:408] opflowX_opflowX_0_split -> opflowX_opflowX_0_split_0
I0225 16:54:43.909445 46852 net.cpp:408] opflowX_opflowX_0_split -> opflowX_opflowX_0_split_1
I0225 16:54:43.909543 46852 net.cpp:150] Setting up opflowX_opflowX_0_split
I0225 16:54:43.909555 46852 net.cpp:157] Top shape: 1 1 448 448 (200704)
I0225 16:54:43.909561 46852 net.cpp:157] Top shape: 1 1 448 448 (200704)
I0225 16:54:43.909565 46852 net.cpp:165] Memory required for data: 12042268
I0225 16:54:43.909570 46852 layer_factory.hpp:77] Creating layer opflowLabel_opflowX_1_split
I0225 16:54:43.909577 46852 net.cpp:100] Creating Layer opflowLabel_opflowX_1_split
I0225 16:54:43.909582 46852 net.cpp:434] opflowLabel_opflowX_1_split <- opflowLabel
I0225 16:54:43.909590 46852 net.cpp:408] opflowLabel_opflowX_1_split -> opflowLabel_opflowX_1_split_0
I0225 16:54:43.909605 46852 net.cpp:408] opflowLabel_opflowX_1_split -> opflowLabel_opflowX_1_split_1
I0225 16:54:43.909646 46852 net.cpp:150] Setting up opflowLabel_opflowX_1_split
I0225 16:54:43.909654 46852 net.cpp:157] Top shape: 1 (1)
I0225 16:54:43.909659 46852 net.cpp:157] Top shape: 1 (1)
I0225 16:54:43.909663 46852 net.cpp:165] Memory required for data: 12042276
I0225 16:54:43.909667 46852 layer_factory.hpp:77] Creating layer opflowY
I0225 16:54:43.909744 46852 net.cpp:100] Creating Layer opflowY
I0225 16:54:43.909756 46852 net.cpp:408] opflowY -> opflowY
I0225 16:54:43.910835 46863 db_lmdb.cpp:35] Opened lmdb /disk2/yangle/dataset/triDataset/lmdb/train_opY_lmdb
I0225 16:54:43.911234 46852 data_layer.cpp:41] output data size: 1,1,448,448
I0225 16:54:43.915698 46852 net.cpp:150] Setting up opflowY
I0225 16:54:43.915741 46852 net.cpp:157] Top shape: 1 1 448 448 (200704)
I0225 16:54:43.915747 46852 net.cpp:165] Memory required for data: 12845092
I0225 16:54:43.915755 46852 layer_factory.hpp:77] Creating layer opflowY_opflowY_0_split
I0225 16:54:43.915779 46852 net.cpp:100] Creating Layer opflowY_opflowY_0_split
I0225 16:54:43.915786 46852 net.cpp:434] opflowY_opflowY_0_split <- opflowY
I0225 16:54:43.915796 46852 net.cpp:408] opflowY_opflowY_0_split -> opflowY_opflowY_0_split_0
I0225 16:54:43.915808 46852 net.cpp:408] opflowY_opflowY_0_split -> opflowY_opflowY_0_split_1
I0225 16:54:43.915904 46852 net.cpp:150] Setting up opflowY_opflowY_0_split
I0225 16:54:43.915920 46852 net.cpp:157] Top shape: 1 1 448 448 (200704)
I0225 16:54:43.915925 46852 net.cpp:157] Top shape: 1 1 448 448 (200704)
I0225 16:54:43.915953 46852 net.cpp:165] Memory required for data: 14450724
I0225 16:54:43.915958 46852 layer_factory.hpp:77] Creating layer conv1_1
I0225 16:54:43.915977 46852 net.cpp:100] Creating Layer conv1_1
I0225 16:54:43.915985 46852 net.cpp:434] conv1_1 <- img
I0225 16:54:43.915994 46852 net.cpp:408] conv1_1 -> conv1_1
I0225 16:54:44.476747 46852 net.cpp:150] Setting up conv1_1
I0225 16:54:44.476799 46852 net.cpp:157] Top shape: 3 64 448 448 (38535168)
I0225 16:54:44.476805 46852 net.cpp:165] Memory required for data: 168591396
I0225 16:54:44.476838 46852 layer_factory.hpp:77] Creating layer relu1_1
I0225 16:54:44.476855 46852 net.cpp:100] Creating Layer relu1_1
I0225 16:54:44.476862 46852 net.cpp:434] relu1_1 <- conv1_1
I0225 16:54:44.476871 46852 net.cpp:395] relu1_1 -> conv1_1 (in-place)
I0225 16:54:44.477121 46852 net.cpp:150] Setting up relu1_1
I0225 16:54:44.477139 46852 net.cpp:157] Top shape: 3 64 448 448 (38535168)
I0225 16:54:44.477144 46852 net.cpp:165] Memory required for data: 322732068
I0225 16:54:44.477149 46852 layer_factory.hpp:77] Creating layer conv1_2
I0225 16:54:44.477164 46852 net.cpp:100] Creating Layer conv1_2
I0225 16:54:44.477169 46852 net.cpp:434] conv1_2 <- conv1_1
I0225 16:54:44.477179 46852 net.cpp:408] conv1_2 -> conv1_2
I0225 16:54:44.480564 46852 net.cpp:150] Setting up conv1_2
I0225 16:54:44.480589 46852 net.cpp:157] Top shape: 3 64 448 448 (38535168)
I0225 16:54:44.480597 46852 net.cpp:165] Memory required for data: 476872740
I0225 16:54:44.480610 46852 layer_factory.hpp:77] Creating layer relu1_2
I0225 16:54:44.480623 46852 net.cpp:100] Creating Layer relu1_2
I0225 16:54:44.480629 46852 net.cpp:434] relu1_2 <- conv1_2
I0225 16:54:44.480636 46852 net.cpp:395] relu1_2 -> conv1_2 (in-place)
I0225 16:54:44.481694 46852 net.cpp:150] Setting up relu1_2
I0225 16:54:44.481717 46852 net.cpp:157] Top shape: 3 64 448 448 (38535168)
I0225 16:54:44.481729 46852 net.cpp:165] Memory required for data: 631013412
I0225 16:54:44.481734 46852 layer_factory.hpp:77] Creating layer conv1_2_relu1_2_0_split
I0225 16:54:44.481745 46852 net.cpp:100] Creating Layer conv1_2_relu1_2_0_split
I0225 16:54:44.481750 46852 net.cpp:434] conv1_2_relu1_2_0_split <- conv1_2
I0225 16:54:44.481760 46852 net.cpp:408] conv1_2_relu1_2_0_split -> conv1_2_relu1_2_0_split_0
I0225 16:54:44.481770 46852 net.cpp:408] conv1_2_relu1_2_0_split -> conv1_2_relu1_2_0_split_1
I0225 16:54:44.481839 46852 net.cpp:150] Setting up conv1_2_relu1_2_0_split
I0225 16:54:44.481853 46852 net.cpp:157] Top shape: 3 64 448 448 (38535168)
I0225 16:54:44.481860 46852 net.cpp:157] Top shape: 3 64 448 448 (38535168)
I0225 16:54:44.481864 46852 net.cpp:165] Memory required for data: 939294756
I0225 16:54:44.481869 46852 layer_factory.hpp:77] Creating layer pool1
I0225 16:54:44.481880 46852 net.cpp:100] Creating Layer pool1
I0225 16:54:44.481889 46852 net.cpp:434] pool1 <- conv1_2_relu1_2_0_split_0
I0225 16:54:44.481896 46852 net.cpp:408] pool1 -> pool1
I0225 16:54:44.481971 46852 net.cpp:150] Setting up pool1
I0225 16:54:44.481986 46852 net.cpp:157] Top shape: 3 64 224 224 (9633792)
I0225 16:54:44.481989 46852 net.cpp:165] Memory required for data: 977829924
I0225 16:54:44.481997 46852 layer_factory.hpp:77] Creating layer conv2_1
I0225 16:54:44.482008 46852 net.cpp:100] Creating Layer conv2_1
I0225 16:54:44.482013 46852 net.cpp:434] conv2_1 <- pool1
I0225 16:54:44.482020 46852 net.cpp:408] conv2_1 -> conv2_1
I0225 16:54:44.488390 46852 net.cpp:150] Setting up conv2_1
I0225 16:54:44.488422 46852 net.cpp:157] Top shape: 3 128 224 224 (19267584)
I0225 16:54:44.488428 46852 net.cpp:165] Memory required for data: 1054900260
I0225 16:54:44.488443 46852 layer_factory.hpp:77] Creating layer relu2_1
I0225 16:54:44.488457 46852 net.cpp:100] Creating Layer relu2_1
I0225 16:54:44.488466 46852 net.cpp:434] relu2_1 <- conv2_1
I0225 16:54:44.488481 46852 net.cpp:395] relu2_1 -> conv2_1 (in-place)
I0225 16:54:44.488720 46852 net.cpp:150] Setting up relu2_1
I0225 16:54:44.488742 46852 net.cpp:157] Top shape: 3 128 224 224 (19267584)
I0225 16:54:44.488747 46852 net.cpp:165] Memory required for data: 1131970596
I0225 16:54:44.488775 46852 layer_factory.hpp:77] Creating layer conv2_2
I0225 16:54:44.488791 46852 net.cpp:100] Creating Layer conv2_2
I0225 16:54:44.488801 46852 net.cpp:434] conv2_2 <- conv2_1
I0225 16:54:44.488809 46852 net.cpp:408] conv2_2 -> conv2_2
I0225 16:54:44.493127 46852 net.cpp:150] Setting up conv2_2
I0225 16:54:44.493160 46852 net.cpp:157] Top shape: 3 128 224 224 (19267584)
I0225 16:54:44.493165 46852 net.cpp:165] Memory required for data: 1209040932
I0225 16:54:44.493180 46852 layer_factory.hpp:77] Creating layer relu2_2
I0225 16:54:44.493191 46852 net.cpp:100] Creating Layer relu2_2
I0225 16:54:44.493197 46852 net.cpp:434] relu2_2 <- conv2_2
I0225 16:54:44.493207 46852 net.cpp:395] relu2_2 -> conv2_2 (in-place)
I0225 16:54:44.493470 46852 net.cpp:150] Setting up relu2_2
I0225 16:54:44.493486 46852 net.cpp:157] Top shape: 3 128 224 224 (19267584)
I0225 16:54:44.493491 46852 net.cpp:165] Memory required for data: 1286111268
I0225 16:54:44.493496 46852 layer_factory.hpp:77] Creating layer conv2_2_relu2_2_0_split
I0225 16:54:44.493507 46852 net.cpp:100] Creating Layer conv2_2_relu2_2_0_split
I0225 16:54:44.493515 46852 net.cpp:434] conv2_2_relu2_2_0_split <- conv2_2
I0225 16:54:44.493525 46852 net.cpp:408] conv2_2_relu2_2_0_split -> conv2_2_relu2_2_0_split_0
I0225 16:54:44.493535 46852 net.cpp:408] conv2_2_relu2_2_0_split -> conv2_2_relu2_2_0_split_1
I0225 16:54:44.493592 46852 net.cpp:150] Setting up conv2_2_relu2_2_0_split
I0225 16:54:44.493604 46852 net.cpp:157] Top shape: 3 128 224 224 (19267584)
I0225 16:54:44.493609 46852 net.cpp:157] Top shape: 3 128 224 224 (19267584)
I0225 16:54:44.493616 46852 net.cpp:165] Memory required for data: 1440251940
I0225 16:54:44.493621 46852 layer_factory.hpp:77] Creating layer pool2
I0225 16:54:44.493633 46852 net.cpp:100] Creating Layer pool2
I0225 16:54:44.493641 46852 net.cpp:434] pool2 <- conv2_2_relu2_2_0_split_0
I0225 16:54:44.493651 46852 net.cpp:408] pool2 -> pool2
I0225 16:54:44.493705 46852 net.cpp:150] Setting up pool2
I0225 16:54:44.493716 46852 net.cpp:157] Top shape: 3 128 112 112 (4816896)
I0225 16:54:44.493721 46852 net.cpp:165] Memory required for data: 1459519524
I0225 16:54:44.493726 46852 layer_factory.hpp:77] Creating layer conv3_1
I0225 16:54:44.493739 46852 net.cpp:100] Creating Layer conv3_1
I0225 16:54:44.493746 46852 net.cpp:434] conv3_1 <- pool2
I0225 16:54:44.493757 46852 net.cpp:408] conv3_1 -> conv3_1
I0225 16:54:44.499449 46852 net.cpp:150] Setting up conv3_1
I0225 16:54:44.499490 46852 net.cpp:157] Top shape: 3 256 112 112 (9633792)
I0225 16:54:44.499498 46852 net.cpp:165] Memory required for data: 1498054692
I0225 16:54:44.499521 46852 layer_factory.hpp:77] Creating layer relu3_1
I0225 16:54:44.499537 46852 net.cpp:100] Creating Layer relu3_1
I0225 16:54:44.499544 46852 net.cpp:434] relu3_1 <- conv3_1
I0225 16:54:44.499557 46852 net.cpp:395] relu3_1 -> conv3_1 (in-place)
I0225 16:54:44.499879 46852 net.cpp:150] Setting up relu3_1
I0225 16:54:44.499902 46852 net.cpp:157] Top shape: 3 256 112 112 (9633792)
I0225 16:54:44.499909 46852 net.cpp:165] Memory required for data: 1536589860
I0225 16:54:44.499917 46852 layer_factory.hpp:77] Creating layer conv3_2
I0225 16:54:44.499936 46852 net.cpp:100] Creating Layer conv3_2
I0225 16:54:44.499948 46852 net.cpp:434] conv3_2 <- conv3_1
I0225 16:54:44.499963 46852 net.cpp:408] conv3_2 -> conv3_2
I0225 16:54:44.508875 46852 net.cpp:150] Setting up conv3_2
I0225 16:54:44.508935 46852 net.cpp:157] Top shape: 3 256 112 112 (9633792)
I0225 16:54:44.508950 46852 net.cpp:165] Memory required for data: 1575125028
I0225 16:54:44.508968 46852 layer_factory.hpp:77] Creating layer relu3_2
I0225 16:54:44.508985 46852 net.cpp:100] Creating Layer relu3_2
I0225 16:54:44.509016 46852 net.cpp:434] relu3_2 <- conv3_2
I0225 16:54:44.509029 46852 net.cpp:395] relu3_2 -> conv3_2 (in-place)
I0225 16:54:44.509410 46852 net.cpp:150] Setting up relu3_2
I0225 16:54:44.509433 46852 net.cpp:157] Top shape: 3 256 112 112 (9633792)
I0225 16:54:44.509439 46852 net.cpp:165] Memory required for data: 1613660196
I0225 16:54:44.509475 46852 layer_factory.hpp:77] Creating layer conv3_3
I0225 16:54:44.509496 46852 net.cpp:100] Creating Layer conv3_3
I0225 16:54:44.509503 46852 net.cpp:434] conv3_3 <- conv3_2
I0225 16:54:44.509524 46852 net.cpp:408] conv3_3 -> conv3_3
I0225 16:54:44.516408 46852 net.cpp:150] Setting up conv3_3
I0225 16:54:44.516450 46852 net.cpp:157] Top shape: 3 256 112 112 (9633792)
I0225 16:54:44.516458 46852 net.cpp:165] Memory required for data: 1652195364
I0225 16:54:44.516472 46852 layer_factory.hpp:77] Creating layer relu3_3
I0225 16:54:44.516486 46852 net.cpp:100] Creating Layer relu3_3
I0225 16:54:44.516497 46852 net.cpp:434] relu3_3 <- conv3_3
I0225 16:54:44.516517 46852 net.cpp:395] relu3_3 -> conv3_3 (in-place)
I0225 16:54:44.516868 46852 net.cpp:150] Setting up relu3_3
I0225 16:54:44.516887 46852 net.cpp:157] Top shape: 3 256 112 112 (9633792)
I0225 16:54:44.516893 46852 net.cpp:165] Memory required for data: 1690730532
I0225 16:54:44.516899 46852 layer_factory.hpp:77] Creating layer conv3_3_relu3_3_0_split
I0225 16:54:44.516914 46852 net.cpp:100] Creating Layer conv3_3_relu3_3_0_split
I0225 16:54:44.516921 46852 net.cpp:434] conv3_3_relu3_3_0_split <- conv3_3
I0225 16:54:44.516930 46852 net.cpp:408] conv3_3_relu3_3_0_split -> conv3_3_relu3_3_0_split_0
I0225 16:54:44.516943 46852 net.cpp:408] conv3_3_relu3_3_0_split -> conv3_3_relu3_3_0_split_1
I0225 16:54:44.517030 46852 net.cpp:150] Setting up conv3_3_relu3_3_0_split
I0225 16:54:44.517043 46852 net.cpp:157] Top shape: 3 256 112 112 (9633792)
I0225 16:54:44.517055 46852 net.cpp:157] Top shape: 3 256 112 112 (9633792)
I0225 16:54:44.517060 46852 net.cpp:165] Memory required for data: 1767800868
I0225 16:54:44.517066 46852 layer_factory.hpp:77] Creating layer pool3
I0225 16:54:44.517076 46852 net.cpp:100] Creating Layer pool3
I0225 16:54:44.517086 46852 net.cpp:434] pool3 <- conv3_3_relu3_3_0_split_0
I0225 16:54:44.517097 46852 net.cpp:408] pool3 -> pool3
I0225 16:54:44.517171 46852 net.cpp:150] Setting up pool3
I0225 16:54:44.517184 46852 net.cpp:157] Top shape: 3 256 56 56 (2408448)
I0225 16:54:44.517190 46852 net.cpp:165] Memory required for data: 1777434660
I0225 16:54:44.517196 46852 layer_factory.hpp:77] Creating layer conv4_1
I0225 16:54:44.517216 46852 net.cpp:100] Creating Layer conv4_1
I0225 16:54:44.517225 46852 net.cpp:434] conv4_1 <- pool3
I0225 16:54:44.517237 46852 net.cpp:408] conv4_1 -> conv4_1
I0225 16:54:44.528926 46852 net.cpp:150] Setting up conv4_1
I0225 16:54:44.529044 46852 net.cpp:157] Top shape: 3 512 56 56 (4816896)
I0225 16:54:44.529059 46852 net.cpp:165] Memory required for data: 1796702244
I0225 16:54:44.529081 46852 layer_factory.hpp:77] Creating layer relu4_1
I0225 16:54:44.529134 46852 net.cpp:100] Creating Layer relu4_1
I0225 16:54:44.529167 46852 net.cpp:434] relu4_1 <- conv4_1
I0225 16:54:44.529186 46852 net.cpp:395] relu4_1 -> conv4_1 (in-place)
I0225 16:54:44.530699 46852 net.cpp:150] Setting up relu4_1
I0225 16:54:44.530725 46852 net.cpp:157] Top shape: 3 512 56 56 (4816896)
I0225 16:54:44.530738 46852 net.cpp:165] Memory required for data: 1815969828
I0225 16:54:44.530746 46852 layer_factory.hpp:77] Creating layer conv4_2
I0225 16:54:44.530768 46852 net.cpp:100] Creating Layer conv4_2
I0225 16:54:44.530777 46852 net.cpp:434] conv4_2 <- conv4_1
I0225 16:54:44.530788 46852 net.cpp:408] conv4_2 -> conv4_2
I0225 16:54:44.544865 46852 net.cpp:150] Setting up conv4_2
I0225 16:54:44.544903 46852 net.cpp:157] Top shape: 3 512 56 56 (4816896)
I0225 16:54:44.544911 46852 net.cpp:165] Memory required for data: 1835237412
I0225 16:54:44.544940 46852 layer_factory.hpp:77] Creating layer relu4_2
I0225 16:54:44.544965 46852 net.cpp:100] Creating Layer relu4_2
I0225 16:54:44.544982 46852 net.cpp:434] relu4_2 <- conv4_2
I0225 16:54:44.544994 46852 net.cpp:395] relu4_2 -> conv4_2 (in-place)
I0225 16:54:44.545399 46852 net.cpp:150] Setting up relu4_2
I0225 16:54:44.545420 46852 net.cpp:157] Top shape: 3 512 56 56 (4816896)
I0225 16:54:44.545428 46852 net.cpp:165] Memory required for data: 1854504996
I0225 16:54:44.545434 46852 layer_factory.hpp:77] Creating layer conv4_3
I0225 16:54:44.545493 46852 net.cpp:100] Creating Layer conv4_3
I0225 16:54:44.545509 46852 net.cpp:434] conv4_3 <- conv4_2
I0225 16:54:44.545521 46852 net.cpp:408] conv4_3 -> conv4_3
I0225 16:54:44.557535 46852 net.cpp:150] Setting up conv4_3
I0225 16:54:44.557566 46852 net.cpp:157] Top shape: 3 512 56 56 (4816896)
I0225 16:54:44.557574 46852 net.cpp:165] Memory required for data: 1873772580
I0225 16:54:44.557588 46852 layer_factory.hpp:77] Creating layer relu4_3
I0225 16:54:44.557600 46852 net.cpp:100] Creating Layer relu4_3
I0225 16:54:44.557608 46852 net.cpp:434] relu4_3 <- conv4_3
I0225 16:54:44.557620 46852 net.cpp:395] relu4_3 -> conv4_3 (in-place)
I0225 16:54:44.557993 46852 net.cpp:150] Setting up relu4_3
I0225 16:54:44.558015 46852 net.cpp:157] Top shape: 3 512 56 56 (4816896)
I0225 16:54:44.558022 46852 net.cpp:165] Memory required for data: 1893040164
I0225 16:54:44.558028 46852 layer_factory.hpp:77] Creating layer conv4_3_relu4_3_0_split
I0225 16:54:44.558039 46852 net.cpp:100] Creating Layer conv4_3_relu4_3_0_split
I0225 16:54:44.558046 46852 net.cpp:434] conv4_3_relu4_3_0_split <- conv4_3
I0225 16:54:44.558059 46852 net.cpp:408] conv4_3_relu4_3_0_split -> conv4_3_relu4_3_0_split_0
I0225 16:54:44.558080 46852 net.cpp:408] conv4_3_relu4_3_0_split -> conv4_3_relu4_3_0_split_1
I0225 16:54:44.558171 46852 net.cpp:150] Setting up conv4_3_relu4_3_0_split
I0225 16:54:44.558187 46852 net.cpp:157] Top shape: 3 512 56 56 (4816896)
I0225 16:54:44.558194 46852 net.cpp:157] Top shape: 3 512 56 56 (4816896)
I0225 16:54:44.558202 46852 net.cpp:165] Memory required for data: 1931575332
I0225 16:54:44.558208 46852 layer_factory.hpp:77] Creating layer conv5_1
I0225 16:54:44.558226 46852 net.cpp:100] Creating Layer conv5_1
I0225 16:54:44.558235 46852 net.cpp:434] conv5_1 <- conv4_3_relu4_3_0_split_0
I0225 16:54:44.558248 46852 net.cpp:408] conv5_1 -> conv5_1
I0225 16:54:44.570412 46852 net.cpp:150] Setting up conv5_1
I0225 16:54:44.570446 46852 net.cpp:157] Top shape: 3 512 56 56 (4816896)
I0225 16:54:44.570453 46852 net.cpp:165] Memory required for data: 1950842916
I0225 16:54:44.570467 46852 layer_factory.hpp:77] Creating layer relu5_1
I0225 16:54:44.570482 46852 net.cpp:100] Creating Layer relu5_1
I0225 16:54:44.570490 46852 net.cpp:434] relu5_1 <- conv5_1
I0225 16:54:44.570500 46852 net.cpp:395] relu5_1 -> conv5_1 (in-place)
I0225 16:54:44.570884 46852 net.cpp:150] Setting up relu5_1
I0225 16:54:44.570904 46852 net.cpp:157] Top shape: 3 512 56 56 (4816896)
I0225 16:54:44.570911 46852 net.cpp:165] Memory required for data: 1970110500
I0225 16:54:44.570919 46852 layer_factory.hpp:77] Creating layer conv5_2
I0225 16:54:44.570935 46852 net.cpp:100] Creating Layer conv5_2
I0225 16:54:44.570943 46852 net.cpp:434] conv5_2 <- conv5_1
I0225 16:54:44.570956 46852 net.cpp:408] conv5_2 -> conv5_2
I0225 16:54:44.580011 46852 net.cpp:150] Setting up conv5_2
I0225 16:54:44.580039 46852 net.cpp:157] Top shape: 3 512 56 56 (4816896)
I0225 16:54:44.580047 46852 net.cpp:165] Memory required for data: 1989378084
I0225 16:54:44.580060 46852 layer_factory.hpp:77] Creating layer relu5_2
I0225 16:54:44.580070 46852 net.cpp:100] Creating Layer relu5_2
I0225 16:54:44.580078 46852 net.cpp:434] relu5_2 <- conv5_2
I0225 16:54:44.580087 46852 net.cpp:395] relu5_2 -> conv5_2 (in-place)
I0225 16:54:44.580462 46852 net.cpp:150] Setting up relu5_2
I0225 16:54:44.580482 46852 net.cpp:157] Top shape: 3 512 56 56 (4816896)
I0225 16:54:44.580488 46852 net.cpp:165] Memory required for data: 2008645668
I0225 16:54:44.580494 46852 layer_factory.hpp:77] Creating layer conv5_3
I0225 16:54:44.580512 46852 net.cpp:100] Creating Layer conv5_3
I0225 16:54:44.580518 46852 net.cpp:434] conv5_3 <- conv5_2
I0225 16:54:44.580528 46852 net.cpp:408] conv5_3 -> conv5_3
I0225 16:54:44.589167 46852 net.cpp:150] Setting up conv5_3
I0225 16:54:44.589195 46852 net.cpp:157] Top shape: 3 512 56 56 (4816896)
I0225 16:54:44.589201 46852 net.cpp:165] Memory required for data: 2027913252
I0225 16:54:44.589212 46852 layer_factory.hpp:77] Creating layer relu5_3
I0225 16:54:44.589251 46852 net.cpp:100] Creating Layer relu5_3
I0225 16:54:44.589258 46852 net.cpp:434] relu5_3 <- conv5_3
I0225 16:54:44.589267 46852 net.cpp:395] relu5_3 -> conv5_3 (in-place)
I0225 16:54:44.590694 46852 net.cpp:150] Setting up relu5_3
I0225 16:54:44.590718 46852 net.cpp:157] Top shape: 3 512 56 56 (4816896)
I0225 16:54:44.590726 46852 net.cpp:165] Memory required for data: 2047180836
I0225 16:54:44.590733 46852 layer_factory.hpp:77] Creating layer top_cov
I0225 16:54:44.590754 46852 net.cpp:100] Creating Layer top_cov
I0225 16:54:44.590760 46852 net.cpp:434] top_cov <- conv5_3
I0225 16:54:44.590772 46852 net.cpp:408] top_cov -> top_cov
I0225 16:54:44.629667 46852 net.cpp:150] Setting up top_cov
I0225 16:54:44.629726 46852 net.cpp:157] Top shape: 3 128 56 56 (1204224)
I0225 16:54:44.629736 46852 net.cpp:165] Memory required for data: 2051997732
I0225 16:54:44.629756 46852 layer_factory.hpp:77] Creating layer relu_top_cov
I0225 16:54:44.629779 46852 net.cpp:100] Creating Layer relu_top_cov
I0225 16:54:44.629791 46852 net.cpp:434] relu_top_cov <- top_cov
I0225 16:54:44.629802 46852 net.cpp:395] relu_top_cov -> top_cov (in-place)
I0225 16:54:44.630244 46852 net.cpp:150] Setting up relu_top_cov
I0225 16:54:44.630266 46852 net.cpp:157] Top shape: 3 128 56 56 (1204224)
I0225 16:54:44.630275 46852 net.cpp:165] Memory required for data: 2056814628
I0225 16:54:44.630281 46852 layer_factory.hpp:77] Creating layer km_1_conv_5
I0225 16:54:44.630311 46852 net.cpp:100] Creating Layer km_1_conv_5
I0225 16:54:44.630326 46852 net.cpp:434] km_1_conv_5 <- top_cov
I0225 16:54:44.630342 46852 net.cpp:408] km_1_conv_5 -> km_1_conv_5
I0225 16:54:44.676030 46852 net.cpp:150] Setting up km_1_conv_5
I0225 16:54:44.676091 46852 net.cpp:157] Top shape: 3 512 56 56 (4816896)
I0225 16:54:44.676097 46852 net.cpp:165] Memory required for data: 2076082212
I0225 16:54:44.676115 46852 layer_factory.hpp:77] Creating layer relu_km_1_deconv_5
I0225 16:54:44.676129 46852 net.cpp:100] Creating Layer relu_km_1_deconv_5
I0225 16:54:44.676137 46852 net.cpp:434] relu_km_1_deconv_5 <- km_1_conv_5
I0225 16:54:44.676175 46852 net.cpp:395] relu_km_1_deconv_5 -> km_1_conv_5 (in-place)
I0225 16:54:44.676522 46852 net.cpp:150] Setting up relu_km_1_deconv_5
I0225 16:54:44.676537 46852 net.cpp:157] Top shape: 3 512 56 56 (4816896)
I0225 16:54:44.676542 46852 net.cpp:165] Memory required for data: 2095349796
I0225 16:54:44.676547 46852 layer_factory.hpp:77] Creating layer km_2_conv_4
I0225 16:54:44.676568 46852 net.cpp:100] Creating Layer km_2_conv_4
I0225 16:54:44.676574 46852 net.cpp:434] km_2_conv_4 <- km_1_conv_5
I0225 16:54:44.676584 46852 net.cpp:408] km_2_conv_4 -> km_2_conv_4
I0225 16:54:44.735244 46852 net.cpp:150] Setting up km_2_conv_4
I0225 16:54:44.735291 46852 net.cpp:157] Top shape: 3 256 56 56 (2408448)
I0225 16:54:44.735298 46852 net.cpp:165] Memory required for data: 2104983588
I0225 16:54:44.735312 46852 layer_factory.hpp:77] Creating layer bn_km_2_conv_4
I0225 16:54:44.735339 46852 net.cpp:100] Creating Layer bn_km_2_conv_4
I0225 16:54:44.735347 46852 net.cpp:434] bn_km_2_conv_4 <- km_2_conv_4
I0225 16:54:44.735363 46852 net.cpp:395] bn_km_2_conv_4 -> km_2_conv_4 (in-place)
I0225 16:54:44.735673 46852 net.cpp:150] Setting up bn_km_2_conv_4
I0225 16:54:44.735687 46852 net.cpp:157] Top shape: 3 256 56 56 (2408448)
I0225 16:54:44.735692 46852 net.cpp:165] Memory required for data: 2114617380
I0225 16:54:44.735713 46852 layer_factory.hpp:77] Creating layer relu_km_2_conv_4
I0225 16:54:44.735733 46852 net.cpp:100] Creating Layer relu_km_2_conv_4
I0225 16:54:44.735743 46852 net.cpp:434] relu_km_2_conv_4 <- km_2_conv_4
I0225 16:54:44.735752 46852 net.cpp:395] relu_km_2_conv_4 -> km_2_conv_4 (in-place)
I0225 16:54:44.736080 46852 net.cpp:150] Setting up relu_km_2_conv_4
I0225 16:54:44.736099 46852 net.cpp:157] Top shape: 3 256 56 56 (2408448)
I0225 16:54:44.736104 46852 net.cpp:165] Memory required for data: 2124251172
I0225 16:54:44.736111 46852 layer_factory.hpp:77] Creating layer ks_1_deconv_4
I0225 16:54:44.736137 46852 net.cpp:100] Creating Layer ks_1_deconv_4
I0225 16:54:44.736166 46852 net.cpp:434] ks_1_deconv_4 <- conv4_3_relu4_3_0_split_1
I0225 16:54:44.736176 46852 net.cpp:408] ks_1_deconv_4 -> ks_1_deconv_4
I0225 16:54:44.792752 46852 net.cpp:150] Setting up ks_1_deconv_4
I0225 16:54:44.792809 46852 net.cpp:157] Top shape: 3 256 56 56 (2408448)
I0225 16:54:44.792819 46852 net.cpp:165] Memory required for data: 2133884964
I0225 16:54:44.792837 46852 layer_factory.hpp:77] Creating layer bn_ks_1_deconv_4
I0225 16:54:44.792865 46852 net.cpp:100] Creating Layer bn_ks_1_deconv_4
I0225 16:54:44.792912 46852 net.cpp:434] bn_ks_1_deconv_4 <- ks_1_deconv_4
I0225 16:54:44.792954 46852 net.cpp:395] bn_ks_1_deconv_4 -> ks_1_deconv_4 (in-place)
I0225 16:54:44.793332 46852 net.cpp:150] Setting up bn_ks_1_deconv_4
I0225 16:54:44.793349 46852 net.cpp:157] Top shape: 3 256 56 56 (2408448)
I0225 16:54:44.793354 46852 net.cpp:165] Memory required for data: 2143518756
I0225 16:54:44.793365 46852 layer_factory.hpp:77] Creating layer relu_ks_1_deconv_4
I0225 16:54:44.793376 46852 net.cpp:100] Creating Layer relu_ks_1_deconv_4
I0225 16:54:44.793387 46852 net.cpp:434] relu_ks_1_deconv_4 <- ks_1_deconv_4
I0225 16:54:44.793406 46852 net.cpp:395] relu_ks_1_deconv_4 -> ks_1_deconv_4 (in-place)
I0225 16:54:44.793721 46852 net.cpp:150] Setting up relu_ks_1_deconv_4
I0225 16:54:44.793738 46852 net.cpp:157] Top shape: 3 256 56 56 (2408448)
I0225 16:54:44.793743 46852 net.cpp:165] Memory required for data: 2153152548
I0225 16:54:44.793751 46852 layer_factory.hpp:77] Creating layer concat4
I0225 16:54:44.793771 46852 net.cpp:100] Creating Layer concat4
I0225 16:54:44.793784 46852 net.cpp:434] concat4 <- ks_1_deconv_4
I0225 16:54:44.793795 46852 net.cpp:434] concat4 <- km_2_conv_4
I0225 16:54:44.793807 46852 net.cpp:408] concat4 -> concat4
I0225 16:54:44.793889 46852 net.cpp:150] Setting up concat4
I0225 16:54:44.793907 46852 net.cpp:157] Top shape: 3 512 56 56 (4816896)
I0225 16:54:44.793951 46852 net.cpp:165] Memory required for data: 2172420132
I0225 16:54:44.793967 46852 layer_factory.hpp:77] Creating layer cov_deconv_4
I0225 16:54:44.793989 46852 net.cpp:100] Creating Layer cov_deconv_4
I0225 16:54:44.794001 46852 net.cpp:434] cov_deconv_4 <- concat4
I0225 16:54:44.794019 46852 net.cpp:408] cov_deconv_4 -> cov_deconv_4
I0225 16:54:44.860237 46852 net.cpp:150] Setting up cov_deconv_4
I0225 16:54:44.860287 46852 net.cpp:157] Top shape: 3 256 56 56 (2408448)
I0225 16:54:44.860296 46852 net.cpp:165] Memory required for data: 2182053924
I0225 16:54:44.860308 46852 layer_factory.hpp:77] Creating layer relu_cov_deconv_4
I0225 16:54:44.860326 46852 net.cpp:100] Creating Layer relu_cov_deconv_4
I0225 16:54:44.860333 46852 net.cpp:434] relu_cov_deconv_4 <- cov_deconv_4
I0225 16:54:44.860345 46852 net.cpp:395] relu_cov_deconv_4 -> cov_deconv_4 (in-place)
I0225 16:54:44.861493 46852 net.cpp:150] Setting up relu_cov_deconv_4
I0225 16:54:44.861516 46852 net.cpp:157] Top shape: 3 256 56 56 (2408448)
I0225 16:54:44.861527 46852 net.cpp:165] Memory required for data: 2191687716
I0225 16:54:44.861533 46852 layer_factory.hpp:77] Creating layer km_1_deconv_3
I0225 16:54:44.861557 46852 net.cpp:100] Creating Layer km_1_deconv_3
I0225 16:54:44.861567 46852 net.cpp:434] km_1_deconv_3 <- cov_deconv_4
I0225 16:54:44.861585 46852 net.cpp:408] km_1_deconv_3 -> km_1_deconv_3
I0225 16:54:44.862990 46852 net.cpp:150] Setting up km_1_deconv_3
I0225 16:54:44.863011 46852 net.cpp:157] Top shape: 3 256 112 112 (9633792)
I0225 16:54:44.863016 46852 net.cpp:165] Memory required for data: 2230222884
I0225 16:54:44.863026 46852 layer_factory.hpp:77] Creating layer km_2_conv_3
I0225 16:54:44.863044 46852 net.cpp:100] Creating Layer km_2_conv_3
I0225 16:54:44.863049 46852 net.cpp:434] km_2_conv_3 <- km_1_deconv_3
I0225 16:54:44.863059 46852 net.cpp:408] km_2_conv_3 -> km_2_conv_3
I0225 16:54:44.879173 46852 net.cpp:150] Setting up km_2_conv_3
I0225 16:54:44.879207 46852 net.cpp:157] Top shape: 3 128 112 112 (4816896)
I0225 16:54:44.879218 46852 net.cpp:165] Memory required for data: 2249490468
I0225 16:54:44.879253 46852 layer_factory.hpp:77] Creating layer bn_km_2_conv_3
I0225 16:54:44.879272 46852 net.cpp:100] Creating Layer bn_km_2_conv_3
I0225 16:54:44.879282 46852 net.cpp:434] bn_km_2_conv_3 <- km_2_conv_3
I0225 16:54:44.879290 46852 net.cpp:395] bn_km_2_conv_3 -> km_2_conv_3 (in-place)
I0225 16:54:44.879606 46852 net.cpp:150] Setting up bn_km_2_conv_3
I0225 16:54:44.879621 46852 net.cpp:157] Top shape: 3 128 112 112 (4816896)
I0225 16:54:44.879626 46852 net.cpp:165] Memory required for data: 2268758052
I0225 16:54:44.879637 46852 layer_factory.hpp:77] Creating layer relu_km_2_conv_3
I0225 16:54:44.879648 46852 net.cpp:100] Creating Layer relu_km_2_conv_3
I0225 16:54:44.879654 46852 net.cpp:434] relu_km_2_conv_3 <- km_2_conv_3
I0225 16:54:44.879664 46852 net.cpp:395] relu_km_2_conv_3 -> km_2_conv_3 (in-place)
I0225 16:54:44.880780 46852 net.cpp:150] Setting up relu_km_2_conv_3
I0225 16:54:44.880803 46852 net.cpp:157] Top shape: 3 128 112 112 (4816896)
I0225 16:54:44.880808 46852 net.cpp:165] Memory required for data: 2288025636
I0225 16:54:44.880813 46852 layer_factory.hpp:77] Creating layer ks_1_deconv_3
I0225 16:54:44.880831 46852 net.cpp:100] Creating Layer ks_1_deconv_3
I0225 16:54:44.880837 46852 net.cpp:434] ks_1_deconv_3 <- conv3_3_relu3_3_0_split_1
I0225 16:54:44.880847 46852 net.cpp:408] ks_1_deconv_3 -> ks_1_deconv_3
I0225 16:54:44.898767 46852 net.cpp:150] Setting up ks_1_deconv_3
I0225 16:54:44.898813 46852 net.cpp:157] Top shape: 3 128 112 112 (4816896)
I0225 16:54:44.898818 46852 net.cpp:165] Memory required for data: 2307293220
I0225 16:54:44.898830 46852 layer_factory.hpp:77] Creating layer bn_ks_1_deconv_3
I0225 16:54:44.898845 46852 net.cpp:100] Creating Layer bn_ks_1_deconv_3
I0225 16:54:44.898854 46852 net.cpp:434] bn_ks_1_deconv_3 <- ks_1_deconv_3
I0225 16:54:44.898864 46852 net.cpp:395] bn_ks_1_deconv_3 -> ks_1_deconv_3 (in-place)
I0225 16:54:44.899176 46852 net.cpp:150] Setting up bn_ks_1_deconv_3
I0225 16:54:44.899189 46852 net.cpp:157] Top shape: 3 128 112 112 (4816896)
I0225 16:54:44.899194 46852 net.cpp:165] Memory required for data: 2326560804
I0225 16:54:44.899204 46852 layer_factory.hpp:77] Creating layer relu_ks_1_deconv_3
I0225 16:54:44.899214 46852 net.cpp:100] Creating Layer relu_ks_1_deconv_3
I0225 16:54:44.899219 46852 net.cpp:434] relu_ks_1_deconv_3 <- ks_1_deconv_3
I0225 16:54:44.899226 46852 net.cpp:395] relu_ks_1_deconv_3 -> ks_1_deconv_3 (in-place)
I0225 16:54:44.899497 46852 net.cpp:150] Setting up relu_ks_1_deconv_3
I0225 16:54:44.899513 46852 net.cpp:157] Top shape: 3 128 112 112 (4816896)
I0225 16:54:44.899518 46852 net.cpp:165] Memory required for data: 2345828388
I0225 16:54:44.899523 46852 layer_factory.hpp:77] Creating layer concat3
I0225 16:54:44.899533 46852 net.cpp:100] Creating Layer concat3
I0225 16:54:44.899541 46852 net.cpp:434] concat3 <- ks_1_deconv_3
I0225 16:54:44.899549 46852 net.cpp:434] concat3 <- km_2_conv_3
I0225 16:54:44.899559 46852 net.cpp:408] concat3 -> concat3
I0225 16:54:44.899616 46852 net.cpp:150] Setting up concat3
I0225 16:54:44.899628 46852 net.cpp:157] Top shape: 3 256 112 112 (9633792)
I0225 16:54:44.899632 46852 net.cpp:165] Memory required for data: 2384363556
I0225 16:54:44.899636 46852 layer_factory.hpp:77] Creating layer cov_deconv_3
I0225 16:54:44.899659 46852 net.cpp:100] Creating Layer cov_deconv_3
I0225 16:54:44.899664 46852 net.cpp:434] cov_deconv_3 <- concat3
I0225 16:54:44.899674 46852 net.cpp:408] cov_deconv_3 -> cov_deconv_3
I0225 16:54:44.917372 46852 net.cpp:150] Setting up cov_deconv_3
I0225 16:54:44.917400 46852 net.cpp:157] Top shape: 3 128 112 112 (4816896)
I0225 16:54:44.917412 46852 net.cpp:165] Memory required for data: 2403631140
I0225 16:54:44.917423 46852 layer_factory.hpp:77] Creating layer relu_cov_deconv_3
I0225 16:54:44.917459 46852 net.cpp:100] Creating Layer relu_cov_deconv_3
I0225 16:54:44.917470 46852 net.cpp:434] relu_cov_deconv_3 <- cov_deconv_3
I0225 16:54:44.917485 46852 net.cpp:395] relu_cov_deconv_3 -> cov_deconv_3 (in-place)
I0225 16:54:44.917757 46852 net.cpp:150] Setting up relu_cov_deconv_3
I0225 16:54:44.917794 46852 net.cpp:157] Top shape: 3 128 112 112 (4816896)
I0225 16:54:44.917804 46852 net.cpp:165] Memory required for data: 2422898724
I0225 16:54:44.917809 46852 layer_factory.hpp:77] Creating layer km_1_deconv_2
I0225 16:54:44.917822 46852 net.cpp:100] Creating Layer km_1_deconv_2
I0225 16:54:44.917827 46852 net.cpp:434] km_1_deconv_2 <- cov_deconv_3
I0225 16:54:44.917839 46852 net.cpp:408] km_1_deconv_2 -> km_1_deconv_2
I0225 16:54:44.918237 46852 net.cpp:150] Setting up km_1_deconv_2
I0225 16:54:44.918259 46852 net.cpp:157] Top shape: 3 128 224 224 (19267584)
I0225 16:54:44.918263 46852 net.cpp:165] Memory required for data: 2499969060
I0225 16:54:44.918270 46852 layer_factory.hpp:77] Creating layer km_2_conv_2
I0225 16:54:44.918284 46852 net.cpp:100] Creating Layer km_2_conv_2
I0225 16:54:44.918290 46852 net.cpp:434] km_2_conv_2 <- km_1_deconv_2
I0225 16:54:44.918298 46852 net.cpp:408] km_2_conv_2 -> km_2_conv_2
I0225 16:54:44.925406 46852 net.cpp:150] Setting up km_2_conv_2
I0225 16:54:44.925431 46852 net.cpp:157] Top shape: 3 64 224 224 (9633792)
I0225 16:54:44.925436 46852 net.cpp:165] Memory required for data: 2538504228
I0225 16:54:44.925451 46852 layer_factory.hpp:77] Creating layer bn_km_2_conv_2
I0225 16:54:44.925464 46852 net.cpp:100] Creating Layer bn_km_2_conv_2
I0225 16:54:44.925470 46852 net.cpp:434] bn_km_2_conv_2 <- km_2_conv_2
I0225 16:54:44.925478 46852 net.cpp:395] bn_km_2_conv_2 -> km_2_conv_2 (in-place)
I0225 16:54:44.925858 46852 net.cpp:150] Setting up bn_km_2_conv_2
I0225 16:54:44.925873 46852 net.cpp:157] Top shape: 3 64 224 224 (9633792)
I0225 16:54:44.925876 46852 net.cpp:165] Memory required for data: 2577039396
I0225 16:54:44.925886 46852 layer_factory.hpp:77] Creating layer relu_km_2_conv_2
I0225 16:54:44.925896 46852 net.cpp:100] Creating Layer relu_km_2_conv_2
I0225 16:54:44.925901 46852 net.cpp:434] relu_km_2_conv_2 <- km_2_conv_2
I0225 16:54:44.925907 46852 net.cpp:395] relu_km_2_conv_2 -> km_2_conv_2 (in-place)
I0225 16:54:44.926178 46852 net.cpp:150] Setting up relu_km_2_conv_2
I0225 16:54:44.926194 46852 net.cpp:157] Top shape: 3 64 224 224 (9633792)
I0225 16:54:44.926199 46852 net.cpp:165] Memory required for data: 2615574564
I0225 16:54:44.926203 46852 layer_factory.hpp:77] Creating layer ks_1_deconv_2
I0225 16:54:44.926219 46852 net.cpp:100] Creating Layer ks_1_deconv_2
I0225 16:54:44.926231 46852 net.cpp:434] ks_1_deconv_2 <- conv2_2_relu2_2_0_split_1
I0225 16:54:44.926244 46852 net.cpp:408] ks_1_deconv_2 -> ks_1_deconv_2
I0225 16:54:44.932435 46852 net.cpp:150] Setting up ks_1_deconv_2
I0225 16:54:44.932459 46852 net.cpp:157] Top shape: 3 64 224 224 (9633792)
I0225 16:54:44.932464 46852 net.cpp:165] Memory required for data: 2654109732
I0225 16:54:44.932474 46852 layer_factory.hpp:77] Creating layer bn_ks_1_deconv_2
I0225 16:54:44.932488 46852 net.cpp:100] Creating Layer bn_ks_1_deconv_2
I0225 16:54:44.932494 46852 net.cpp:434] bn_ks_1_deconv_2 <- ks_1_deconv_2
I0225 16:54:44.932503 46852 net.cpp:395] bn_ks_1_deconv_2 -> ks_1_deconv_2 (in-place)
I0225 16:54:44.932874 46852 net.cpp:150] Setting up bn_ks_1_deconv_2
I0225 16:54:44.932888 46852 net.cpp:157] Top shape: 3 64 224 224 (9633792)
I0225 16:54:44.932893 46852 net.cpp:165] Memory required for data: 2692644900
I0225 16:54:44.932921 46852 layer_factory.hpp:77] Creating layer relu_ks_1_deconv_2
I0225 16:54:44.932934 46852 net.cpp:100] Creating Layer relu_ks_1_deconv_2
I0225 16:54:44.932942 46852 net.cpp:434] relu_ks_1_deconv_2 <- ks_1_deconv_2
I0225 16:54:44.932948 46852 net.cpp:395] relu_ks_1_deconv_2 -> ks_1_deconv_2 (in-place)
I0225 16:54:44.933220 46852 net.cpp:150] Setting up relu_ks_1_deconv_2
I0225 16:54:44.933238 46852 net.cpp:157] Top shape: 3 64 224 224 (9633792)
I0225 16:54:44.933241 46852 net.cpp:165] Memory required for data: 2731180068
I0225 16:54:44.933246 46852 layer_factory.hpp:77] Creating layer concat2
I0225 16:54:44.933259 46852 net.cpp:100] Creating Layer concat2
I0225 16:54:44.933264 46852 net.cpp:434] concat2 <- ks_1_deconv_2
I0225 16:54:44.933270 46852 net.cpp:434] concat2 <- km_2_conv_2
I0225 16:54:44.933298 46852 net.cpp:408] concat2 -> concat2
I0225 16:54:44.933351 46852 net.cpp:150] Setting up concat2
I0225 16:54:44.933362 46852 net.cpp:157] Top shape: 3 128 224 224 (19267584)
I0225 16:54:44.933367 46852 net.cpp:165] Memory required for data: 2808250404
I0225 16:54:44.933370 46852 layer_factory.hpp:77] Creating layer cov_deconv_2
I0225 16:54:44.933385 46852 net.cpp:100] Creating Layer cov_deconv_2
I0225 16:54:44.933393 46852 net.cpp:434] cov_deconv_2 <- concat2
I0225 16:54:44.933403 46852 net.cpp:408] cov_deconv_2 -> cov_deconv_2
I0225 16:54:44.939543 46852 net.cpp:150] Setting up cov_deconv_2
I0225 16:54:44.939566 46852 net.cpp:157] Top shape: 3 64 224 224 (9633792)
I0225 16:54:44.939571 46852 net.cpp:165] Memory required for data: 2846785572
I0225 16:54:44.939581 46852 layer_factory.hpp:77] Creating layer relu_cov_deconv_2
I0225 16:54:44.939594 46852 net.cpp:100] Creating Layer relu_cov_deconv_2
I0225 16:54:44.939599 46852 net.cpp:434] relu_cov_deconv_2 <- cov_deconv_2
I0225 16:54:44.939607 46852 net.cpp:395] relu_cov_deconv_2 -> cov_deconv_2 (in-place)
I0225 16:54:44.940762 46852 net.cpp:150] Setting up relu_cov_deconv_2
I0225 16:54:44.940784 46852 net.cpp:157] Top shape: 3 64 224 224 (9633792)
I0225 16:54:44.940794 46852 net.cpp:165] Memory required for data: 2885320740
I0225 16:54:44.940799 46852 layer_factory.hpp:77] Creating layer km_1_deconv_1
I0225 16:54:44.940815 46852 net.cpp:100] Creating Layer km_1_deconv_1
I0225 16:54:44.940821 46852 net.cpp:434] km_1_deconv_1 <- cov_deconv_2
I0225 16:54:44.940829 46852 net.cpp:408] km_1_deconv_1 -> km_1_deconv_1
I0225 16:54:44.941190 46852 net.cpp:150] Setting up km_1_deconv_1
I0225 16:54:44.941205 46852 net.cpp:157] Top shape: 3 64 448 448 (38535168)
I0225 16:54:44.941210 46852 net.cpp:165] Memory required for data: 3039461412
I0225 16:54:44.941216 46852 layer_factory.hpp:77] Creating layer km_1_conv_1
I0225 16:54:44.941228 46852 net.cpp:100] Creating Layer km_1_conv_1
I0225 16:54:44.941233 46852 net.cpp:434] km_1_conv_1 <- km_1_deconv_1
I0225 16:54:44.941241 46852 net.cpp:408] km_1_conv_1 -> km_1_conv_1
I0225 16:54:44.944303 46852 net.cpp:150] Setting up km_1_conv_1
I0225 16:54:44.944326 46852 net.cpp:157] Top shape: 3 32 448 448 (19267584)
I0225 16:54:44.944331 46852 net.cpp:165] Memory required for data: 3116531748
I0225 16:54:44.944340 46852 layer_factory.hpp:77] Creating layer bn_km_1_conv_1
I0225 16:54:44.944351 46852 net.cpp:100] Creating Layer bn_km_1_conv_1
I0225 16:54:44.944357 46852 net.cpp:434] bn_km_1_conv_1 <- km_1_conv_1
I0225 16:54:44.944367 46852 net.cpp:395] bn_km_1_conv_1 -> km_1_conv_1 (in-place)
I0225 16:54:44.945026 46852 net.cpp:150] Setting up bn_km_1_conv_1
I0225 16:54:44.945053 46852 net.cpp:157] Top shape: 3 32 448 448 (19267584)
I0225 16:54:44.945062 46852 net.cpp:165] Memory required for data: 3193602084
I0225 16:54:44.945080 46852 layer_factory.hpp:77] Creating layer relu_km_1_conv_1
I0225 16:54:44.945094 46852 net.cpp:100] Creating Layer relu_km_1_conv_1
I0225 16:54:44.945107 46852 net.cpp:434] relu_km_1_conv_1 <- km_1_conv_1
I0225 16:54:44.945118 46852 net.cpp:395] relu_km_1_conv_1 -> km_1_conv_1 (in-place)
I0225 16:54:44.946703 46852 net.cpp:150] Setting up relu_km_1_conv_1
I0225 16:54:44.946732 46852 net.cpp:157] Top shape: 3 32 448 448 (19267584)
I0225 16:54:44.946741 46852 net.cpp:165] Memory required for data: 3270672420
I0225 16:54:44.946755 46852 layer_factory.hpp:77] Creating layer ks_1_deconv_1
I0225 16:54:44.946785 46852 net.cpp:100] Creating Layer ks_1_deconv_1
I0225 16:54:44.946799 46852 net.cpp:434] ks_1_deconv_1 <- conv1_2_relu1_2_0_split_1
I0225 16:54:44.946820 46852 net.cpp:408] ks_1_deconv_1 -> ks_1_deconv_1
I0225 16:54:44.953189 46852 net.cpp:150] Setting up ks_1_deconv_1
I0225 16:54:44.953228 46852 net.cpp:157] Top shape: 3 32 448 448 (19267584)
I0225 16:54:44.953238 46852 net.cpp:165] Memory required for data: 3347742756
I0225 16:54:44.953254 46852 layer_factory.hpp:77] Creating layer bn_ks_1_deconv_1
I0225 16:54:44.953275 46852 net.cpp:100] Creating Layer bn_ks_1_deconv_1
I0225 16:54:44.953318 46852 net.cpp:434] bn_ks_1_deconv_1 <- ks_1_deconv_1
I0225 16:54:44.953335 46852 net.cpp:395] bn_ks_1_deconv_1 -> ks_1_deconv_1 (in-place)
I0225 16:54:44.954152 46852 net.cpp:150] Setting up bn_ks_1_deconv_1
I0225 16:54:44.954174 46852 net.cpp:157] Top shape: 3 32 448 448 (19267584)
I0225 16:54:44.954180 46852 net.cpp:165] Memory required for data: 3424813092
I0225 16:54:44.954197 46852 layer_factory.hpp:77] Creating layer relu_ks_1_deconv_1
I0225 16:54:44.954210 46852 net.cpp:100] Creating Layer relu_ks_1_deconv_1
I0225 16:54:44.954222 46852 net.cpp:434] relu_ks_1_deconv_1 <- ks_1_deconv_1
I0225 16:54:44.954236 46852 net.cpp:395] relu_ks_1_deconv_1 -> ks_1_deconv_1 (in-place)
I0225 16:54:44.954658 46852 net.cpp:150] Setting up relu_ks_1_deconv_1
I0225 16:54:44.954679 46852 net.cpp:157] Top shape: 3 32 448 448 (19267584)
I0225 16:54:44.954685 46852 net.cpp:165] Memory required for data: 3501883428
I0225 16:54:44.954692 46852 layer_factory.hpp:77] Creating layer concat1
I0225 16:54:44.954707 46852 net.cpp:100] Creating Layer concat1
I0225 16:54:44.954715 46852 net.cpp:434] concat1 <- ks_1_deconv_1
I0225 16:54:44.954725 46852 net.cpp:434] concat1 <- km_1_conv_1
I0225 16:54:44.954744 46852 net.cpp:408] concat1 -> concat1
I0225 16:54:44.954819 46852 net.cpp:150] Setting up concat1
I0225 16:54:44.954835 46852 net.cpp:157] Top shape: 3 64 448 448 (38535168)
I0225 16:54:44.954845 46852 net.cpp:165] Memory required for data: 3656024100
I0225 16:54:44.954852 46852 layer_factory.hpp:77] Creating layer segfuse
I0225 16:54:44.954874 46852 net.cpp:100] Creating Layer segfuse
I0225 16:54:44.954881 46852 net.cpp:434] segfuse <- concat1
I0225 16:54:44.954897 46852 net.cpp:408] segfuse -> segfuse
I0225 16:54:44.960872 46852 net.cpp:150] Setting up segfuse
I0225 16:54:44.960911 46852 net.cpp:157] Top shape: 3 8 448 448 (4816896)
I0225 16:54:44.960921 46852 net.cpp:165] Memory required for data: 3675291684
I0225 16:54:44.960937 46852 layer_factory.hpp:77] Creating layer relu_segfuse
I0225 16:54:44.960957 46852 net.cpp:100] Creating Layer relu_segfuse
I0225 16:54:44.960970 46852 net.cpp:434] relu_segfuse <- segfuse
I0225 16:54:44.960985 46852 net.cpp:395] relu_segfuse -> segfuse (in-place)
I0225 16:54:44.961412 46852 net.cpp:150] Setting up relu_segfuse
I0225 16:54:44.961434 46852 net.cpp:157] Top shape: 3 8 448 448 (4816896)
I0225 16:54:44.961442 46852 net.cpp:165] Memory required for data: 3694559268
I0225 16:54:44.961449 46852 layer_factory.hpp:77] Creating layer segres
I0225 16:54:44.961472 46852 net.cpp:100] Creating Layer segres
I0225 16:54:44.961483 46852 net.cpp:434] segres <- segfuse
I0225 16:54:44.961504 46852 net.cpp:408] segres -> segres
I0225 16:54:44.966336 46852 net.cpp:150] Setting up segres
I0225 16:54:44.966368 46852 net.cpp:157] Top shape: 3 2 448 448 (1204224)
I0225 16:54:44.966377 46852 net.cpp:165] Memory required for data: 3699376164
I0225 16:54:44.966390 46852 layer_factory.hpp:77] Creating layer segres_segres_0_split
I0225 16:54:44.966408 46852 net.cpp:100] Creating Layer segres_segres_0_split
I0225 16:54:44.966423 46852 net.cpp:434] segres_segres_0_split <- segres
I0225 16:54:44.966434 46852 net.cpp:408] segres_segres_0_split -> segres_segres_0_split_0
I0225 16:54:44.966451 46852 net.cpp:408] segres_segres_0_split -> segres_segres_0_split_1
I0225 16:54:44.966558 46852 net.cpp:150] Setting up segres_segres_0_split
I0225 16:54:44.966573 46852 net.cpp:157] Top shape: 3 2 448 448 (1204224)
I0225 16:54:44.966584 46852 net.cpp:157] Top shape: 3 2 448 448 (1204224)
I0225 16:54:44.966590 46852 net.cpp:165] Memory required for data: 3709009956
I0225 16:54:44.966596 46852 layer_factory.hpp:77] Creating layer loss_cov_deconv_1
I0225 16:54:44.966611 46852 net.cpp:100] Creating Layer loss_cov_deconv_1
I0225 16:54:44.966621 46852 net.cpp:434] loss_cov_deconv_1 <- segres_segres_0_split_0
I0225 16:54:44.966630 46852 net.cpp:434] loss_cov_deconv_1 <- mask
I0225 16:54:44.966646 46852 net.cpp:408] loss_cov_deconv_1 -> loss_cov_deconv_1
I0225 16:54:44.966671 46852 layer_factory.hpp:77] Creating layer loss_cov_deconv_1
I0225 16:54:44.972506 46852 net.cpp:150] Setting up loss_cov_deconv_1
I0225 16:54:44.972546 46852 net.cpp:157] Top shape: (1)
I0225 16:54:44.972554 46852 net.cpp:160]     with loss weight 1
I0225 16:54:44.972584 46852 net.cpp:165] Memory required for data: 3709009960
I0225 16:54:44.972592 46852 layer_factory.hpp:77] Creating layer sliSegres
I0225 16:54:44.972609 46852 net.cpp:100] Creating Layer sliSegres
I0225 16:54:44.972623 46852 net.cpp:434] sliSegres <- segres_segres_0_split_1
I0225 16:54:44.972640 46852 net.cpp:408] sliSegres -> QurImg
I0225 16:54:44.972657 46852 net.cpp:408] sliSegres -> PosImg
I0225 16:54:44.972668 46852 net.cpp:408] sliSegres -> NegImg
I0225 16:54:44.972820 46852 net.cpp:150] Setting up sliSegres
I0225 16:54:44.972836 46852 net.cpp:157] Top shape: 1 2 448 448 (401408)
I0225 16:54:44.972846 46852 net.cpp:157] Top shape: 1 2 448 448 (401408)
I0225 16:54:44.972856 46852 net.cpp:157] Top shape: 1 2 448 448 (401408)
I0225 16:54:44.972861 46852 net.cpp:165] Memory required for data: 3713826856
I0225 16:54:44.972867 46852 layer_factory.hpp:77] Creating layer NegImgSilence
I0225 16:54:44.972887 46852 net.cpp:100] Creating Layer NegImgSilence
I0225 16:54:44.972896 46852 net.cpp:434] NegImgSilence <- NegImg
I0225 16:54:44.972905 46852 net.cpp:150] Setting up NegImgSilence
I0225 16:54:44.972913 46852 net.cpp:165] Memory required for data: 3713826856
I0225 16:54:44.972919 46852 layer_factory.hpp:77] Creating layer sliQurImg
I0225 16:54:44.972935 46852 net.cpp:100] Creating Layer sliQurImg
I0225 16:54:44.972944 46852 net.cpp:434] sliQurImg <- QurImg
I0225 16:54:44.972954 46852 net.cpp:408] sliQurImg -> backQurImg
I0225 16:54:44.972968 46852 net.cpp:408] sliQurImg -> foreQurImg
I0225 16:54:44.973054 46852 net.cpp:150] Setting up sliQurImg
I0225 16:54:44.973068 46852 net.cpp:157] Top shape: 1 1 448 448 (200704)
I0225 16:54:44.973079 46852 net.cpp:157] Top shape: 1 1 448 448 (200704)
I0225 16:54:44.973085 46852 net.cpp:165] Memory required for data: 3715432488
I0225 16:54:44.973091 46852 layer_factory.hpp:77] Creating layer foreQurImg_sliQurImg_1_split
I0225 16:54:44.973104 46852 net.cpp:100] Creating Layer foreQurImg_sliQurImg_1_split
I0225 16:54:44.973114 46852 net.cpp:434] foreQurImg_sliQurImg_1_split <- foreQurImg
I0225 16:54:44.973126 46852 net.cpp:408] foreQurImg_sliQurImg_1_split -> foreQurImg_sliQurImg_1_split_0
I0225 16:54:44.973141 46852 net.cpp:408] foreQurImg_sliQurImg_1_split -> foreQurImg_sliQurImg_1_split_1
I0225 16:54:44.973220 46852 net.cpp:150] Setting up foreQurImg_sliQurImg_1_split
I0225 16:54:44.973233 46852 net.cpp:157] Top shape: 1 1 448 448 (200704)
I0225 16:54:44.973243 46852 net.cpp:157] Top shape: 1 1 448 448 (200704)
I0225 16:54:44.973251 46852 net.cpp:165] Memory required for data: 3717038120
I0225 16:54:44.973258 46852 layer_factory.hpp:77] Creating layer backQurImgSilence
I0225 16:54:44.973271 46852 net.cpp:100] Creating Layer backQurImgSilence
I0225 16:54:44.973281 46852 net.cpp:434] backQurImgSilence <- backQurImg
I0225 16:54:44.973292 46852 net.cpp:150] Setting up backQurImgSilence
I0225 16:54:44.973299 46852 net.cpp:165] Memory required for data: 3717038120
I0225 16:54:44.973306 46852 layer_factory.hpp:77] Creating layer sliPosImg
I0225 16:54:44.973315 46852 net.cpp:100] Creating Layer sliPosImg
I0225 16:54:44.973323 46852 net.cpp:434] sliPosImg <- PosImg
I0225 16:54:44.973335 46852 net.cpp:408] sliPosImg -> backPosImg
I0225 16:54:44.973350 46852 net.cpp:408] sliPosImg -> forePosImg
I0225 16:54:44.973428 46852 net.cpp:150] Setting up sliPosImg
I0225 16:54:44.973443 46852 net.cpp:157] Top shape: 1 1 448 448 (200704)
I0225 16:54:44.973453 46852 net.cpp:157] Top shape: 1 1 448 448 (200704)
I0225 16:54:44.973459 46852 net.cpp:165] Memory required for data: 3718643752
I0225 16:54:44.973465 46852 layer_factory.hpp:77] Creating layer forePosImg_sliPosImg_1_split
I0225 16:54:44.973476 46852 net.cpp:100] Creating Layer forePosImg_sliPosImg_1_split
I0225 16:54:44.973486 46852 net.cpp:434] forePosImg_sliPosImg_1_split <- forePosImg
I0225 16:54:44.973496 46852 net.cpp:408] forePosImg_sliPosImg_1_split -> forePosImg_sliPosImg_1_split_0
I0225 16:54:44.973539 46852 net.cpp:408] forePosImg_sliPosImg_1_split -> forePosImg_sliPosImg_1_split_1
I0225 16:54:44.973620 46852 net.cpp:150] Setting up forePosImg_sliPosImg_1_split
I0225 16:54:44.973634 46852 net.cpp:157] Top shape: 1 1 448 448 (200704)
I0225 16:54:44.973644 46852 net.cpp:157] Top shape: 1 1 448 448 (200704)
I0225 16:54:44.973651 46852 net.cpp:165] Memory required for data: 3720249384
I0225 16:54:44.973659 46852 layer_factory.hpp:77] Creating layer backPosImgSilence
I0225 16:54:44.973668 46852 net.cpp:100] Creating Layer backPosImgSilence
I0225 16:54:44.973677 46852 net.cpp:434] backPosImgSilence <- backPosImg
I0225 16:54:44.973692 46852 net.cpp:150] Setting up backPosImgSilence
I0225 16:54:44.973701 46852 net.cpp:165] Memory required for data: 3720249384
I0225 16:54:44.973706 46852 layer_factory.hpp:77] Creating layer foreProjImg
I0225 16:54:44.973719 46852 net.cpp:100] Creating Layer foreProjImg
I0225 16:54:44.973727 46852 net.cpp:434] foreProjImg <- foreQurImg_sliQurImg_1_split_0
I0225 16:54:44.973740 46852 net.cpp:434] foreProjImg <- opflowX_opflowX_0_split_0
I0225 16:54:44.973752 46852 net.cpp:434] foreProjImg <- opflowY_opflowY_0_split_0
I0225 16:54:44.973762 46852 net.cpp:434] foreProjImg <- opflowLabel_opflowX_1_split_0
I0225 16:54:44.973773 46852 net.cpp:408] foreProjImg -> foreProjImg
I0225 16:54:44.973821 46852 net.cpp:150] Setting up foreProjImg
I0225 16:54:44.973834 46852 net.cpp:157] Top shape: 1 1 448 448 (200704)
I0225 16:54:44.973842 46852 net.cpp:165] Memory required for data: 3721052200
I0225 16:54:44.973848 46852 layer_factory.hpp:77] Creating layer backProjImg
I0225 16:54:44.973873 46852 net.cpp:100] Creating Layer backProjImg
I0225 16:54:44.973882 46852 net.cpp:434] backProjImg <- forePosImg_sliPosImg_1_split_0
I0225 16:54:44.973891 46852 net.cpp:434] backProjImg <- opflowX_opflowX_0_split_1
I0225 16:54:44.973901 46852 net.cpp:434] backProjImg <- opflowY_opflowY_0_split_1
I0225 16:54:44.973912 46852 net.cpp:434] backProjImg <- opflowLabel_opflowX_1_split_1
I0225 16:54:44.973920 46852 net.cpp:408] backProjImg -> backProjImg
I0225 16:54:44.973970 46852 net.cpp:150] Setting up backProjImg
I0225 16:54:44.973984 46852 net.cpp:157] Top shape: 1 1 448 448 (200704)
I0225 16:54:44.973991 46852 net.cpp:165] Memory required for data: 3721855016
I0225 16:54:44.973997 46852 layer_factory.hpp:77] Creating layer resForeImg_1
I0225 16:54:44.974016 46852 net.cpp:100] Creating Layer resForeImg_1
I0225 16:54:44.974026 46852 net.cpp:434] resForeImg_1 <- foreProjImg
I0225 16:54:44.974040 46852 net.cpp:408] resForeImg_1 -> resForeImg_1
I0225 16:54:44.974102 46852 net.cpp:150] Setting up resForeImg_1
I0225 16:54:44.974117 46852 net.cpp:157] Top shape: 1 200704 1 1 (200704)
I0225 16:54:44.974124 46852 net.cpp:165] Memory required for data: 3722657832
I0225 16:54:44.974130 46852 layer_factory.hpp:77] Creating layer softForeImg_1
I0225 16:54:44.974140 46852 net.cpp:100] Creating Layer softForeImg_1
I0225 16:54:44.974148 46852 net.cpp:434] softForeImg_1 <- resForeImg_1
I0225 16:54:44.974161 46852 net.cpp:408] softForeImg_1 -> softForeImg_1
I0225 16:54:44.978293 46852 net.cpp:150] Setting up softForeImg_1
I0225 16:54:44.978333 46852 net.cpp:157] Top shape: 1 200704 1 1 (200704)
I0225 16:54:44.978345 46852 net.cpp:165] Memory required for data: 3723460648
I0225 16:54:44.978353 46852 layer_factory.hpp:77] Creating layer foreImg_1
I0225 16:54:44.978369 46852 net.cpp:100] Creating Layer foreImg_1
I0225 16:54:44.978379 46852 net.cpp:434] foreImg_1 <- softForeImg_1
I0225 16:54:44.978395 46852 net.cpp:408] foreImg_1 -> foreImg_1
I0225 16:54:44.978463 46852 net.cpp:150] Setting up foreImg_1
I0225 16:54:44.978477 46852 net.cpp:157] Top shape: 1 1 448 448 (200704)
I0225 16:54:44.978485 46852 net.cpp:165] Memory required for data: 3724263464
I0225 16:54:44.978490 46852 layer_factory.hpp:77] Creating layer resForeImg_2
I0225 16:54:44.978503 46852 net.cpp:100] Creating Layer resForeImg_2
I0225 16:54:44.978515 46852 net.cpp:434] resForeImg_2 <- forePosImg_sliPosImg_1_split_1
I0225 16:54:44.978551 46852 net.cpp:408] resForeImg_2 -> resForeImg_2
I0225 16:54:44.978608 46852 net.cpp:150] Setting up resForeImg_2
I0225 16:54:44.978622 46852 net.cpp:157] Top shape: 1 200704 1 1 (200704)
I0225 16:54:44.978629 46852 net.cpp:165] Memory required for data: 3725066280
I0225 16:54:44.978636 46852 layer_factory.hpp:77] Creating layer softForeImg_2
I0225 16:54:44.978654 46852 net.cpp:100] Creating Layer softForeImg_2
I0225 16:54:44.978662 46852 net.cpp:434] softForeImg_2 <- resForeImg_2
I0225 16:54:44.978673 46852 net.cpp:408] softForeImg_2 -> softForeImg_2
I0225 16:54:44.979466 46852 net.cpp:150] Setting up softForeImg_2
I0225 16:54:44.979488 46852 net.cpp:157] Top shape: 1 200704 1 1 (200704)
I0225 16:54:44.979496 46852 net.cpp:165] Memory required for data: 3725869096
I0225 16:54:44.979501 46852 layer_factory.hpp:77] Creating layer foreImg_2
I0225 16:54:44.979512 46852 net.cpp:100] Creating Layer foreImg_2
I0225 16:54:44.979519 46852 net.cpp:434] foreImg_2 <- softForeImg_2
I0225 16:54:44.979532 46852 net.cpp:408] foreImg_2 -> foreImg_2
I0225 16:54:44.979594 46852 net.cpp:150] Setting up foreImg_2
I0225 16:54:44.979607 46852 net.cpp:157] Top shape: 1 1 448 448 (200704)
I0225 16:54:44.979616 46852 net.cpp:165] Memory required for data: 3726671912
I0225 16:54:44.979622 46852 layer_factory.hpp:77] Creating layer foreSalSmilarLoss
I0225 16:54:44.979643 46852 net.cpp:100] Creating Layer foreSalSmilarLoss
I0225 16:54:44.979655 46852 net.cpp:434] foreSalSmilarLoss <- foreImg_1
I0225 16:54:44.979661 46852 net.cpp:434] foreSalSmilarLoss <- foreImg_2
I0225 16:54:44.979673 46852 net.cpp:408] foreSalSmilarLoss -> foreSalSmilarLoss
I0225 16:54:44.979758 46852 net.cpp:150] Setting up foreSalSmilarLoss
I0225 16:54:44.979771 46852 net.cpp:157] Top shape: (1)
I0225 16:54:44.979778 46852 net.cpp:160]     with loss weight 100000
I0225 16:54:44.979799 46852 net.cpp:165] Memory required for data: 3726671916
I0225 16:54:44.979805 46852 layer_factory.hpp:77] Creating layer resBackImg_1
I0225 16:54:44.979823 46852 net.cpp:100] Creating Layer resBackImg_1
I0225 16:54:44.979835 46852 net.cpp:434] resBackImg_1 <- backProjImg
I0225 16:54:44.979846 46852 net.cpp:408] resBackImg_1 -> resBackImg_1
I0225 16:54:44.979907 46852 net.cpp:150] Setting up resBackImg_1
I0225 16:54:44.979919 46852 net.cpp:157] Top shape: 1 200704 1 1 (200704)
I0225 16:54:44.979928 46852 net.cpp:165] Memory required for data: 3727474732
I0225 16:54:44.979933 46852 layer_factory.hpp:77] Creating layer softBackImg_1
I0225 16:54:44.979943 46852 net.cpp:100] Creating Layer softBackImg_1
I0225 16:54:44.979948 46852 net.cpp:434] softBackImg_1 <- resBackImg_1
I0225 16:54:44.979959 46852 net.cpp:408] softBackImg_1 -> softBackImg_1
I0225 16:54:44.984038 46852 net.cpp:150] Setting up softBackImg_1
I0225 16:54:44.984074 46852 net.cpp:157] Top shape: 1 200704 1 1 (200704)
I0225 16:54:44.984083 46852 net.cpp:165] Memory required for data: 3728277548
I0225 16:54:44.984091 46852 layer_factory.hpp:77] Creating layer backImg_1
I0225 16:54:44.984104 46852 net.cpp:100] Creating Layer backImg_1
I0225 16:54:44.984114 46852 net.cpp:434] backImg_1 <- softBackImg_1
I0225 16:54:44.984133 46852 net.cpp:408] backImg_1 -> backImg_1
I0225 16:54:44.984205 46852 net.cpp:150] Setting up backImg_1
I0225 16:54:44.984218 46852 net.cpp:157] Top shape: 1 1 448 448 (200704)
I0225 16:54:44.984226 46852 net.cpp:165] Memory required for data: 3729080364
I0225 16:54:44.984232 46852 layer_factory.hpp:77] Creating layer resBackImg_2
I0225 16:54:44.984246 46852 net.cpp:100] Creating Layer resBackImg_2
I0225 16:54:44.984252 46852 net.cpp:434] resBackImg_2 <- foreQurImg_sliQurImg_1_split_1
I0225 16:54:44.984261 46852 net.cpp:408] resBackImg_2 -> resBackImg_2
I0225 16:54:44.984314 46852 net.cpp:150] Setting up resBackImg_2
I0225 16:54:44.984328 46852 net.cpp:157] Top shape: 1 200704 1 1 (200704)
I0225 16:54:44.984333 46852 net.cpp:165] Memory required for data: 3729883180
I0225 16:54:44.984349 46852 layer_factory.hpp:77] Creating layer softBackImg_2
I0225 16:54:44.984359 46852 net.cpp:100] Creating Layer softBackImg_2
I0225 16:54:44.984401 46852 net.cpp:434] softBackImg_2 <- resBackImg_2
I0225 16:54:44.984416 46852 net.cpp:408] softBackImg_2 -> softBackImg_2
I0225 16:54:44.985177 46852 net.cpp:150] Setting up softBackImg_2
I0225 16:54:44.985201 46852 net.cpp:157] Top shape: 1 200704 1 1 (200704)
I0225 16:54:44.985208 46852 net.cpp:165] Memory required for data: 3730685996
I0225 16:54:44.985214 46852 layer_factory.hpp:77] Creating layer backImg_2
I0225 16:54:44.985225 46852 net.cpp:100] Creating Layer backImg_2
I0225 16:54:44.985232 46852 net.cpp:434] backImg_2 <- softBackImg_2
I0225 16:54:44.985242 46852 net.cpp:408] backImg_2 -> backImg_2
I0225 16:54:44.985306 46852 net.cpp:150] Setting up backImg_2
I0225 16:54:44.985321 46852 net.cpp:157] Top shape: 1 1 448 448 (200704)
I0225 16:54:44.985326 46852 net.cpp:165] Memory required for data: 3731488812
I0225 16:54:44.985335 46852 layer_factory.hpp:77] Creating layer backSalSmilarLoss
I0225 16:54:44.985354 46852 net.cpp:100] Creating Layer backSalSmilarLoss
I0225 16:54:44.985360 46852 net.cpp:434] backSalSmilarLoss <- backImg_1
I0225 16:54:44.985368 46852 net.cpp:434] backSalSmilarLoss <- backImg_2
I0225 16:54:44.985378 46852 net.cpp:408] backSalSmilarLoss -> backSalSmilarLoss
…
