…
  stage: ""
}
layer {
  name: "img"
  type: "Data"
  top: "img"
  include {
    phase: TRAIN
  }
  transform_param {
    mean_value: 115.269
    mean_value: 122.346
    mean_value: 122.819
  }
  data_param {
    source: "/disk2/yangle/dataset/lmdb/lmdb/train_image_lmdb"
    batch_size: 12
    backend: LMDB
  }
}
layer {
  name: "mask"
  type: "Data"
  top: "mask"
  include {
    phase: TRAIN
  }
  transform_param {
    scale: 0.0039215689
  }
  data_param {
    source: "/disk2/yangle/dataset/lmdb/lmdb/train_mask_lmdb"
    batch_size: 12
    backend: LMDB
  }
}
layer {
  name: "mask_56"
  type: "Interp"
  bottom: "mask"
  top: "mask_56"
  interp_param {
    shrink_factor: 4
    pad_beg: 0
    pad_end: 0
    is_seglabel: true
  }
}
layer {
  name: "mask_112"
  type: "Interp"
  bottom: "mask"
  top: "mask_112"
  interp_param {
    shrink_factor: 2
    pad_beg: 0
    pad_end: 0
    is_seglabel: true
  }
}
layer {
  name: "conv1_1"
  type: "Convolution"
  bottom: "img"
  top: "conv1_1"
  param {
    lr_mult: 0.1
    decay_mult: 1
  }
  param {
    lr_mult: 0.2
    decay_mult: 0
  }
  convolution_param {
    num_output: 64
    pad: 1
    kernel_size: 3
  }
}
layer {
  name: "relu1_1"
  type: "ReLU"
  bottom: "conv1_1"
  top: "conv1_1"
}
layer {
  name: "conv1_2"
  type: "Convolution"
  bottom: "conv1_1"
  top: "conv1_2"
  param {
    lr_mult: 0.1
    decay_mult: 1
  }
  param {
    lr_mult: 0.2
    decay_mult: 0
  }
  convolution_param {
    num_output: 64
    pad: 1
    kernel_size: 3
  }
}
layer {
  name: "relu1_2"
  type: "ReLU"
  bottom: "conv1_2"
  top: "conv1_2"
}
layer {
  name: "pool1"
  type: "Pooling"
  bottom: "conv1_2"
  top: "pool1"
  pooling_param {
    pool: MAX
    kernel_size: 2
    stride: 2
  }
}
layer {
  name: "conv2_1"
  type: "Convolution"
  bottom: "pool1"
  top: "conv2_1"
  param {
    lr_mult: 0.1
    decay_mult: 1
  }
  param {
    lr_mult: 0.2
    decay_mult: 0
  }
  convolution_param {
    num_output: 128
    pad: 1
    kernel_size: 3
  }
}
layer {
  name: "relu2_1"
  type: "ReLU"
  bottom: "conv2_1"
  top: "conv2_1"
}
layer {
  name: "conv2_2"
  type: "Convolution"
  bottom: "conv2_1"
  top: "conv2_2"
  param {
    lr_mult: 0.1
    decay_mult: 1
  }
  param {
    lr_mult: 0.2
    decay_mult: 0
  }
  convolution_param {
    num_output: 128
    pad: 1
    kernel_size: 3
  }
}
layer {
  name: "relu2_2"
  type: "ReLU"
  bottom: "conv2_2"
  top: "conv2_2"
}
layer {
  name: "pool2"
  type: "Pooling"
  bottom: "conv2_2"
  top: "pool2"
  pooling_param {
    pool: MAX
    kernel_size: 2
    stride: 2
  }
}
layer {
  name: "conv3_1"
  type: "Convolution"
  bottom: "pool2"
  top: "conv3_1"
  param {
    lr_mult: 0.1
    decay_mult: 1
  }
  param {
    lr_mult: 0.2
    decay_mult: 0
  }
  convolution_param {
    num_output: 256
    pad: 1
    kernel_size: 3
  }
}
layer {
  name: "relu3_1"
  type: "ReLU"
  bottom: "conv3_1"
  top: "conv3_1"
}
layer {
  name: "conv3_2"
  type: "Convolution"
  bottom: "conv3_1"
  top: "conv3_2"
  param {
    lr_mult: 0.1
    decay_mult: 1
  }
  param {
    lr_mult: 0.2
    decay_mult: 0
  }
  convolution_param {
    num_output: 256
    pad: 1
    kernel_size: 3
  }
}
layer {
  name: "relu3_2"
  type: "ReLU"
  bottom: "conv3_2"
  top: "conv3_2"
}
layer {
  name: "conv3_3"
  type: "Convolution"
  bottom: "conv3_2"
  top: "conv3_3"
  param {
    lr_mult: 0.1
    decay_mult: 1
  }
  param {
    lr_mult: 0.2
    decay_mult: 0
  }
  convolution_param {
    num_output: 256
    pad: 1
    kernel_size: 3
  }
}
layer {
  name: "relu3_3"
  type: "ReLU"
  bottom: "conv3_3"
  top: "conv3_3"
}
layer {
  name: "conv4_1"
  type: "Convolution"
  bottom: "conv3_3"
  top: "conv4_1"
  param {
    lr_mult: 0.1
    decay_mult: 1
  }
  param {
    lr_mult: 0.2
    decay_mult: 0
  }
  convolution_param {
    num_output: 512
    pad: 2
    kernel_size: 3
    dilation: 2
  }
}
layer {
  name: "relu4_1"
  type: "ReLU"
  bottom: "conv4_1"
  top: "conv4_1"
}
layer {
  name: "conv4_2"
  type: "Convolution"
  bottom: "conv4_1"
  top: "conv4_2"
  param {
    lr_mult: 0.1
    decay_mult: 1
  }
  param {
    lr_mult: 0.2
    decay_mult: 0
  }
  convolution_param {
    num_output: 512
    pad: 2
    kernel_size: 3
    dilation: 2
  }
}
layer {
  name: "relu4_2"
  type: "ReLU"
  bottom: "conv4_2"
  top: "conv4_2"
}
layer {
  name: "conv4_3"
  type: "Convolution"
  bottom: "conv4_2"
  top: "conv4_3"
  param {
    lr_mult: 0.1
    decay_mult: 1
  }
  param {
    lr_mult: 0.2
    decay_mult: 0
  }
  convolution_param {
    num_output: 512
    pad: 2
    kernel_size: 3
    dilation: 2
  }
}
layer {
  name: "relu4_3"
  type: "ReLU"
  bottom: "conv4_3"
  top: "conv4_3"
}
layer {
  name: "conv5_1"
  type: "Convolution"
  bottom: "conv4_3"
  top: "conv5_1"
  param {
    lr_mult: 0.1
    decay_mult: 1
  }
  param {
    lr_mult: 0.2
    decay_mult: 0
  }
  convolution_param {
    num_output: 512
    pad: 4
    kernel_size: 3
    dilation: 4
  }
}
layer {
  name: "relu5_1"
  type: "ReLU"
  bottom: "conv5_1"
  top: "conv5_1"
}
layer {
  name: "conv5_2"
  type: "Convolution"
  bottom: "conv5_1"
  top: "conv5_2"
  param {
    lr_mult: 0.1
    decay_mult: 1
  }
  param {
    lr_mult: 0.2
    decay_mult: 0
  }
  convolution_param {
    num_output: 512
    pad: 4
    kernel_size: 3
    dilation: 4
  }
}
layer {
  name: "relu5_2"
  type: "ReLU"
  bottom: "conv5_2"
  top: "conv5_2"
}
layer {
  name: "conv5_3"
  type: "Convolution"
  bottom: "conv5_2"
  top: "conv5_3"
  param {
    lr_mult: 0.1
    decay_mult: 1
  }
  param {
    lr_mult: 0.2
    decay_mult: 0
  }
  convolution_param {
    num_output: 512
    pad: 4
    kernel_size: 3
    dilation: 4
  }
}
layer {
  name: "relu5_3"
  type: "ReLU"
  bottom: "conv5_3"
  top: "conv5_3"
}
layer {
  name: "top_cov"
  type: "Convolution"
  bottom: "conv5_3"
  top: "top_cov"
  param {
    lr_mult: 0.1
    decay_mult: 0.1
  }
  param {
    lr_mult: 0.2
    decay_mult: 0
  }
  convolution_param {
    num_output: 128
    pad: 1
    kernel_size: 3
    weight_filler {
      type: "gaussian"
      std: 0.01
    }
    bias_filler {
      type: "constant"
    }
  }
}
layer {
  name: "relu_top_cov"
  type: "ReLU"
  bottom: "top_cov"
  top: "top_cov"
}
layer {
  name: "cov_deconv_5_1"
  type: "Convolution"
  bottom: "top_cov"
  top: "cov_deconv_5_1"
  param {
    lr_mult: 1
    decay_mult: 1
  }
  param {
    lr_mult: 2
    decay_mult: 0
  }
  convolution_param {
    num_output: 16
    pad: 1
    kernel_size: 3
    weight_filler {
      type: "gaussian"
      std: 0.01
    }
    bias_filler {
      type: "constant"
    }
  }
}
layer {
  name: "relu_cov_deconv_5_1"
  type: "ReLU"
  bottom: "cov_deconv_5_1"
  top: "cov_deconv_5_1"
}
layer {
  name: "tri_CovDec_5_2"
  type: "Convolution"
  bottom: "cov_deconv_5_1"
  top: "tri_CovDec_5_2"
  param {
    lr_mult: 1
    decay_mult: 1
  }
  param {
    lr_mult: 2
    decay_mult: 0
  }
  convolution_param {
    num_output: 2
    pad: 1
    kernel_size: 3
    weight_filler {
      type: "gaussian"
      std: 0.01
    }
    bias_filler {
      type: "constant"
    }
  }
}
layer {
  name: "loss_tri_CovDec_5"
  type: "SoftmaxWithLoss"
  bottom: "tri_CovDec_5_2"
  bottom: "mask_56"
  top: "loss_tri_CovDec_5"
  loss_param {
    normalization: VALID
  }
}
layer {
  name: "km_1_conv_5"
  type: "Convolution"
  bottom: "top_cov"
  top: "km_1_conv_5"
  param {
    lr_mult: 1
    decay_mult: 1
  }
  param {
    lr_mult: 2
    decay_mult: 0
  }
  convolution_param {
    num_output: 512
    pad: 1
    kernel_size: 3
    weight_filler {
      type: "gaussian"
      std: 0.01
    }
    bias_filler {
      type: "constant"
    }
  }
}
layer {
  name: "relu_km_1_deconv_5"
  type: "ReLU"
  bottom: "km_1_conv_5"
  top: "km_1_conv_5"
}
layer {
  name: "km_2_conv_4"
  type: "Convolution"
  bottom: "km_1_conv_5"
  top: "km_2_conv_4"
  param {
    lr_mult: 1
    decay_mult: 1
  }
  param {
    lr_mult: 2
    decay_mult: 0
  }
  convolution_param {
    num_output: 256
    pad: 1
    kernel_size: 3
    weight_filler {
      type: "gaussian"
      std: 0.01
    }
    bias_filler {
      type: "constant"
    }
  }
}
layer {
  name: "bn_km_2_conv_4"
  type: "BatchNorm"
  bottom: "km_2_conv_4"
  top: "km_2_conv_4"
  include {
    phase: TRAIN
  }
  batch_norm_param {
    use_global_stats: false
  }
}
layer {
  name: "relu_km_2_conv_4"
  type: "ReLU"
  bottom: "km_2_conv_4"
  top: "km_2_conv_4"
}
layer {
  name: "ks_1_deconv_4"
  type: "Convolution"
  bottom: "conv4_3"
  top: "ks_1_deconv_4"
  param {
    lr_mult: 1
    decay_mult: 1
  }
  param {
    lr_mult: 2
    decay_mult: 0
  }
  convolution_param {
    num_output: 256
    pad: 1
    kernel_size: 3
    weight_filler {
      type: "gaussian"
      std: 0.01
    }
    bias_filler {
      type: "constant"
    }
  }
}
layer {
  name: "bn_ks_1_deconv_4"
  type: "BatchNorm"
  bottom: "ks_1_deconv_4"
  top: "ks_1_deconv_4"
  include {
    phase: TRAIN
  }
  batch_norm_param {
    use_global_stats: false
  }
}
layer {
  name: "relu_ks_1_deconv_4"
  type: "ReLU"
  bottom: "ks_1_deconv_4"
  top: "ks_1_deconv_4"
}
layer {
  name: "concat4"
  type: "Concat"
  bottom: "ks_1_deconv_4"
  bottom: "km_2_conv_4"
  top: "concat4"
  concat_param {
    concat_dim: 1
  }
}
layer {
  name: "cov_deconv_4"
  type: "Convolution"
  bottom: "concat4"
  top: "cov_deconv_4"
  param {
    lr_mult: 1
    decay_mult: 1
  }
  param {
    lr_mult: 2
    decay_mult: 0
  }
  convolution_param {
    num_output: 256
    pad: 1
    kernel_size: 3
    weight_filler {
      type: "gaussian"
      std: 0.01
    }
    bias_filler {
      type: "constant"
    }
  }
}
layer {
  name: "relu_cov_deconv_4"
  type: "ReLU"
  bottom: "cov_deconv_4"
  top: "cov_deconv_4"
}
layer {
  name: "cov_deconv_4_1"
  type: "Convolution"
  bottom: "cov_deconv_4"
  top: "cov_deconv_4_1"
  param {
    lr_mult: 1
    decay_mult: 1
  }
  param {
    lr_mult: 2
    decay_mult: 0
  }
  convolution_param {
    num_output: 16
    pad: 1
    kernel_size: 3
    weight_filler {
      type: "gaussian"
      std: 0.01
    }
    bias_filler {
      type: "constant"
    }
  }
}
layer {
  name: "relu_cov_deconv_4_1"
  type: "ReLU"
  bottom: "cov_deconv_4_1"
  top: "cov_deconv_4_1"
}
layer {
  name: "tri_CovDec_4_2"
  type: "Convolution"
  bottom: "cov_deconv_4_1"
  top: "tri_CovDec_4_2"
  param {
    lr_mult: 1
    decay_mult: 1
  }
  param {
    lr_mult: 2
    decay_mult: 0
  }
  convolution_param {
    num_output: 2
    pad: 1
    kernel_size: 3
    weight_filler {
      type: "gaussian"
      std: 0.01
    }
    bias_filler {
      type: "constant"
    }
  }
}
layer {
  name: "loss_tri_CovDec_4"
  type: "SoftmaxWithLoss"
  bottom: "tri_CovDec_4_2"
  bottom: "mask_56"
  top: "loss_tri_CovDec_4"
  loss_param {
    normalization: VALID
  }
}
layer {
  name: "km_2_conv_3"
  type: "Convolution"
  bottom: "cov_deconv_4"
  top: "km_2_conv_3"
  param {
    lr_mult: 1
    decay_mult: 1
  }
  param {
    lr_mult: 2
    decay_mult: 0
  }
  convolution_param {
    num_output: 128
    pad: 1
    kernel_size: 3
    weight_filler {
      type: "gaussian"
      std: 0.01
    }
    bias_filler {
      type: "constant"
    }
  }
}
layer {
  name: "bn_km_2_conv_3"
  type: "BatchNorm"
  bottom: "km_2_conv_3"
  top: "km_2_conv_3"
  include {
    phase: TRAIN
  }
  batch_norm_param {
    use_global_stats: false
  }
}
layer {
  name: "relu_km_2_conv_3"
  type: "ReLU"
  bottom: "km_2_conv_3"
  top: "km_2_conv_3"
}
layer {
  name: "ks_1_deconv_3"
  type: "Convolution"
  bottom: "conv3_3"
  top: "ks_1_deconv_3"
  param {
    lr_mult: 1
    decay_mult: 1
  }
  param {
    lr_mult: 2
    decay_mult: 0
  }
  convolution_param {
    num_output: 128
    pad: 1
    kernel_size: 3
    weight_filler {
      type: "gaussian"
      std: 0.01
    }
    bias_filler {
      type: "constant"
    }
  }
}
layer {
  name: "bn_ks_1_deconv_3"
  type: "BatchNorm"
  bottom: "ks_1_deconv_3"
  top: "ks_1_deconv_3"
  include {
    phase: TRAIN
  }
  batch_norm_param {
    use_global_stats: false
  }
}
layer {
  name: "relu_ks_1_deconv_3"
  type: "ReLU"
  bottom: "ks_1_deconv_3"
  top: "ks_1_deconv_3"
}
layer {
  name: "concat3"
  type: "Concat"
  bottom: "ks_1_deconv_3"
  bottom: "km_2_conv_3"
  top: "concat3"
  concat_param {
    concat_dim: 1
  }
}
layer {
  name: "cov_deconv_3"
  type: "Convolution"
  bottom: "concat3"
  top: "cov_deconv_3"
  param {
    lr_mult: 1
    decay_mult: 1
  }
  param {
    lr_mult: 2
    decay_mult: 0
  }
  convolution_param {
    num_output: 128
    pad: 1
    kernel_size: 3
    weight_filler {
      type: "gaussian"
      std: 0.01
    }
    bias_filler {
      type: "constant"
    }
  }
}
layer {
  name: "relu_cov_deconv_3"
  type: "ReLU"
  bottom: "cov_deconv_3"
  top: "cov_deconv_3"
}
layer {
  name: "cov_deconv_3_1"
  type: "Convolution"
  bottom: "cov_deconv_3"
  top: "cov_deconv_3_1"
  param {
    lr_mult: 1
    decay_mult: 1
  }
  param {
    lr_mult: 2
    decay_mult: 0
  }
  convolution_param {
    num_output: 16
    pad: 1
    kernel_size: 3
    weight_filler {
      type: "gaussian"
      std: 0.01
    }
    bias_filler {
      type: "constant"
    }
  }
}
layer {
  name: "relu_cov_deconv_3_1"
  type: "ReLU"
  bottom: "cov_deconv_3_1"
  top: "cov_deconv_3_1"
}
layer {
  name: "tri_CovDec_3_2"
  type: "Convolution"
  bottom: "cov_deconv_3_1"
  top: "tri_CovDec_3_2"
  param {
    lr_mult: 1
    decay_mult: 1
  }
  param {
    lr_mult: 2
    decay_mult: 0
  }
  convolution_param {
    num_output: 2
    pad: 1
    kernel_size: 3
    weight_filler {
      type: "gaussian"
      std: 0.01
    }
    bias_filler {
      type: "constant"
    }
  }
}
layer {
  name: "loss_tri_CovDec_3"
  type: "SoftmaxWithLoss"
  bottom: "tri_CovDec_3_2"
  bottom: "mask_56"
  top: "loss_tri_CovDec_3"
  loss_param {
    normalization: VALID
  }
}
layer {
  name: "km_1_deconv_2"
  type: "Deconvolution"
  bottom: "cov_deconv_3"
  top: "km_1_deconv_2"
  param {
    lr_mult: 0.01
    decay_mult: 0.01
  }
  convolution_param {
    num_output: 128
    bias_term: false
    pad: 1
    kernel_size: 4
    group: 128
    stride: 2
    weight_filler {
      type: "bilinear"
    }
  }
}
layer {
  name: "km_2_conv_2"
  type: "Convolution"
  bottom: "km_1_deconv_2"
  top: "km_2_conv_2"
  param {
    lr_mult: 1
    decay_mult: 1
  }
  param {
    lr_mult: 2
    decay_mult: 0
  }
  convolution_param {
    num_output: 64
    pad: 1
    kernel_size: 3
    weight_filler {
      type: "gaussian"
      std: 0.01
    }
    bias_filler {
      type: "constant"
    }
  }
}
layer {
  name: "bn_km_2_conv_2"
  type: "BatchNorm"
  bottom: "km_2_conv_2"
  top: "km_2_conv_2"
  include {
    phase: TRAIN
  }
  batch_norm_param {
    use_global_stats: false
  }
}
layer {
  name: "relu_km_2_conv_2"
  type: "ReLU"
  bottom: "km_2_conv_2"
  top: "km_2_conv_2"
}
layer {
  name: "ks_1_deconv_2"
  type: "Convolution"
  bottom: "conv2_2"
  top: "ks_1_deconv_2"
  param {
    lr_mult: 1
    decay_mult: 1
  }
  param {
    lr_mult: 2
    decay_mult: 0
  }
  convolution_param {
    num_output: 64
    pad: 1
    kernel_size: 3
    weight_filler {
      type: "gaussian"
      std: 0.01
    }
    bias_filler {
      type: "constant"
    }
  }
}
layer {
  name: "bn_ks_1_deconv_2"
  type: "BatchNorm"
  bottom: "ks_1_deconv_2"
  top: "ks_1_deconv_2"
  include {
    phase: TRAIN
  }
  batch_norm_param {
    use_global_stats: false
  }
}
layer {
  name: "relu_ks_1_deconv_2"
  type: "ReLU"
  bottom: "ks_1_deconv_2"
  top: "ks_1_deconv_2"
}
layer {
  name: "concat2"
  type: "Concat"
  bottom: "ks_1_deconv_2"
  bottom: "km_2_conv_2"
  top: "concat2"
  concat_param {
    concat_dim: 1
  }
}
layer {
  name: "cov_deconv_2"
  type: "Convolution"
  bottom: "concat2"
  top: "cov_deconv_2"
  param {
    lr_mult: 1
    decay_mult: 1
  }
  param {
    lr_mult: 2
    decay_mult: 0
  }
  convolution_param {
    num_output: 64
    pad: 1
    kernel_size: 3
    weight_filler {
      type: "gaussian"
      std: 0.01
    }
    bias_filler {
      type: "constant"
    }
  }
}
layer {
  name: "relu_cov_deconv_2"
  type: "ReLU"
  bottom: "cov_deconv_2"
  top: "cov_deconv_2"
}
layer {
  name: "cov_deconv_2_1"
  type: "Convolution"
  bottom: "cov_deconv_2"
  top: "cov_deconv_2_1"
  param {
    lr_mult: 1
    decay_mult: 1
  }
  param {
    lr_mult: 2
    decay_mult: 0
  }
  convolution_param {
    num_output: 8
    pad: 1
    kernel_size: 3
    weight_filler {
      type: "gaussian"
      std: 0.01
    }
    bias_filler {
      type: "constant"
    }
  }
}
layer {
  name: "relu_cov_deconv_2_1"
  type: "ReLU"
  bottom: "cov_deconv_2_1"
  top: "cov_deconv_2_1"
}
layer {
  name: "tri_CovDec_2_2"
  type: "Convolution"
  bottom: "cov_deconv_2_1"
  top: "tri_CovDec_2_2"
  param {
    lr_mult: 1
    decay_mult: 1
  }
  param {
    lr_mult: 2
    decay_mult: 0
  }
  convolution_param {
    num_output: 2
    pad: 1
    kernel_size: 3
    weight_filler {
      type: "gaussian"
      std: 0.01
    }
    bias_filler {
      type: "constant"
    }
  }
}
layer {
  name: "loss_tri_CovDec_2"
  type: "SoftmaxWithLoss"
  bottom: "tri_CovDec_2_2"
  bottom: "mask_112"
  top: "loss_tri_CovDec_2"
  loss_param {
    normalization: VALID
  }
}
layer {
  name: "km_1_deconv_1"
  type: "Deconvolution"
  bottom: "cov_deconv_2"
  top: "km_1_deconv_1"
  param {
    lr_mult: 0.01
    decay_mult: 0.01
  }
  convolution_param {
    num_output: 64
    bias_term: false
    pad: 1
    kernel_size: 4
    group: 64
    stride: 2
    weight_filler {
      type: "bilinear"
    }
  }
}
layer {
  name: "km_1_conv_1"
  type: "Convolution"
  bottom: "km_1_deconv_1"
  top: "km_1_conv_1"
  param {
    lr_mult: 1
    decay_mult: 1
  }
  param {
    lr_mult: 2
    decay_mult: 0
  }
  convolution_param {
    num_output: 32
    pad: 1
    kernel_size: 3
    weight_filler {
      type: "gaussian"
      std: 0.01
    }
    bias_filler {
      type: "constant"
    }
  }
}
layer {
  name: "bn_km_1_conv_1"
  type: "BatchNorm"
  bottom: "km_1_conv_1"
  top: "km_1_conv_1"
  include {
    phase: TRAIN
  }
  batch_norm_param {
    use_global_stats: false
  }
}
layer {
  name: "relu_km_1_conv_1"
  type: "ReLU"
  bottom: "km_1_conv_1"
  top: "km_1_conv_1"
}
layer {
  name: "ks_1_deconv_1"
  type: "Convolution"
  bottom: "conv1_2"
  top: "ks_1_deconv_1"
  param {
    lr_mult: 1
    decay_mult: 1
  }
  param {
    lr_mult: 2
    decay_mult: 0
  }
  convolution_param {
    num_output: 32
    pad: 1
    kernel_size: 3
    weight_filler {
      type: "gaussian"
      std: 0.01
    }
    bias_filler {
      type: "constant"
    }
  }
}
layer {
  name: "bn_ks_1_deconv_1"
  type: "BatchNorm"
  bottom: "ks_1_deconv_1"
  top: "ks_1_deconv_1"
  include {
    phase: TRAIN
  }
  batch_norm_param {
    use_global_stats: false
  }
}
layer {
  name: "relu_ks_1_deconv_1"
  type: "ReLU"
  bottom: "ks_1_deconv_1"
  top: "ks_1_deconv_1"
}
layer {
  name: "concat1"
  type: "Concat"
  bottom: "ks_1_deconv_1"
  bottom: "km_1_conv_1"
  top: "concat1"
  concat_param {
    concat_dim: 1
  }
}
layer {
  name: "segfuse"
  type: "Convolution"
  bottom: "concat1"
  top: "segfuse"
  param {
    lr_mult: 1
    decay_mult: 1
  }
  param {
    lr_mult: 2
    decay_mult: 0
  }
  convolution_param {
    num_output: 8
    pad: 1
    kernel_size: 3
    weight_filler {
      type: "gaussian"
      std: 0.01
    }
    bias_filler {
      type: "constant"
    }
  }
}
layer {
  name: "relu_segfuse"
  type: "ReLU"
  bottom: "segfuse"
  top: "segfuse"
}
layer {
  name: "tri_CovDec_1_2"
  type: "Convolution"
  bottom: "segfuse"
  top: "tri_CovDec_1_2"
  param {
    lr_mult: 1
    decay_mult: 1
  }
  param {
    lr_mult: 2
    decay_mult: 0
  }
  convolution_param {
    num_output: 2
    pad: 1
    kernel_size: 3
    weight_filler {
      type: "gaussian"
      std: 0.01
    }
    bias_filler {
      type: "constant"
    }
  }
}
layer {
  name: "loss_tri_CovDec_1"
  type: "SoftmaxWithLoss"
  bottom: "tri_CovDec_1_2"
  bottom: "mask"
  top: "loss_tri_CovDec_1"
  loss_param {
    normalization: VALID
  }
}
I0120 09:13:30.449403 33389 layer_factory.hpp:77] Creating layer img
I0120 09:13:30.454105 33389 net.cpp:100] Creating Layer img
I0120 09:13:30.454128 33389 net.cpp:408] img -> img
I0120 09:13:30.456810 33395 db_lmdb.cpp:35] Opened lmdb /disk2/yangle/dataset/lmdb/lmdb/train_image_lmdb
I0120 09:13:30.495048 33389 data_layer.cpp:41] output data size: 12,3,224,224
I0120 09:13:30.513655 33389 net.cpp:150] Setting up img
I0120 09:13:30.513695 33389 net.cpp:157] Top shape: 12 3 224 224 (1806336)
I0120 09:13:30.513702 33389 net.cpp:165] Memory required for data: 7225344
I0120 09:13:30.513715 33389 layer_factory.hpp:77] Creating layer mask
I0120 09:13:30.513797 33389 net.cpp:100] Creating Layer mask
I0120 09:13:30.513810 33389 net.cpp:408] mask -> mask
I0120 09:13:30.516454 33397 db_lmdb.cpp:35] Opened lmdb /disk2/yangle/dataset/lmdb/lmdb/train_mask_lmdb
I0120 09:13:30.516988 33389 data_layer.cpp:41] output data size: 12,1,224,224
I0120 09:13:30.530608 33389 net.cpp:150] Setting up mask
I0120 09:13:30.530647 33389 net.cpp:157] Top shape: 12 1 224 224 (602112)
I0120 09:13:30.530655 33389 net.cpp:165] Memory required for data: 9633792
I0120 09:13:30.530663 33389 layer_factory.hpp:77] Creating layer mask_mask_0_split
I0120 09:13:30.530692 33389 net.cpp:100] Creating Layer mask_mask_0_split
I0120 09:13:30.530704 33389 net.cpp:434] mask_mask_0_split <- mask
I0120 09:13:30.530733 33389 net.cpp:408] mask_mask_0_split -> mask_mask_0_split_0
I0120 09:13:30.530751 33389 net.cpp:408] mask_mask_0_split -> mask_mask_0_split_1
I0120 09:13:30.530762 33389 net.cpp:408] mask_mask_0_split -> mask_mask_0_split_2
I0120 09:13:30.530916 33389 net.cpp:150] Setting up mask_mask_0_split
I0120 09:13:30.530935 33389 net.cpp:157] Top shape: 12 1 224 224 (602112)
I0120 09:13:30.530943 33389 net.cpp:157] Top shape: 12 1 224 224 (602112)
I0120 09:13:30.530956 33389 net.cpp:157] Top shape: 12 1 224 224 (602112)
I0120 09:13:30.530962 33389 net.cpp:165] Memory required for data: 16859136
I0120 09:13:30.530968 33389 layer_factory.hpp:77] Creating layer mask_56
I0120 09:13:30.530982 33389 net.cpp:100] Creating Layer mask_56
I0120 09:13:30.530992 33389 net.cpp:434] mask_56 <- mask_mask_0_split_0
I0120 09:13:30.531002 33389 net.cpp:408] mask_56 -> mask_56
I0120 09:13:30.531052 33389 net.cpp:150] Setting up mask_56
I0120 09:13:30.531095 33389 net.cpp:157] Top shape: 12 1 56 56 (37632)
I0120 09:13:30.531106 33389 net.cpp:165] Memory required for data: 17009664
I0120 09:13:30.531112 33389 layer_factory.hpp:77] Creating layer mask_56_mask_56_0_split
I0120 09:13:30.531126 33389 net.cpp:100] Creating Layer mask_56_mask_56_0_split
I0120 09:13:30.531136 33389 net.cpp:434] mask_56_mask_56_0_split <- mask_56
I0120 09:13:30.531147 33389 net.cpp:408] mask_56_mask_56_0_split -> mask_56_mask_56_0_split_0
I0120 09:13:30.531162 33389 net.cpp:408] mask_56_mask_56_0_split -> mask_56_mask_56_0_split_1
I0120 09:13:30.531173 33389 net.cpp:408] mask_56_mask_56_0_split -> mask_56_mask_56_0_split_2
I0120 09:13:30.531262 33389 net.cpp:150] Setting up mask_56_mask_56_0_split
I0120 09:13:30.531275 33389 net.cpp:157] Top shape: 12 1 56 56 (37632)
I0120 09:13:30.531283 33389 net.cpp:157] Top shape: 12 1 56 56 (37632)
I0120 09:13:30.531294 33389 net.cpp:157] Top shape: 12 1 56 56 (37632)
I0120 09:13:30.531299 33389 net.cpp:165] Memory required for data: 17461248
I0120 09:13:30.531306 33389 layer_factory.hpp:77] Creating layer mask_112
I0120 09:13:30.531316 33389 net.cpp:100] Creating Layer mask_112
I0120 09:13:30.531322 33389 net.cpp:434] mask_112 <- mask_mask_0_split_1
I0120 09:13:30.531332 33389 net.cpp:408] mask_112 -> mask_112
I0120 09:13:30.531369 33389 net.cpp:150] Setting up mask_112
I0120 09:13:30.531381 33389 net.cpp:157] Top shape: 12 1 112 112 (150528)
I0120 09:13:30.531388 33389 net.cpp:165] Memory required for data: 18063360
I0120 09:13:30.531394 33389 layer_factory.hpp:77] Creating layer conv1_1
I0120 09:13:30.531415 33389 net.cpp:100] Creating Layer conv1_1
I0120 09:13:30.531443 33389 net.cpp:434] conv1_1 <- img
I0120 09:13:30.531455 33389 net.cpp:408] conv1_1 -> conv1_1
I0120 09:13:31.008465 33389 net.cpp:150] Setting up conv1_1
I0120 09:13:31.008546 33389 net.cpp:157] Top shape: 12 64 224 224 (38535168)
I0120 09:13:31.008558 33389 net.cpp:165] Memory required for data: 172204032
I0120 09:13:31.008599 33389 layer_factory.hpp:77] Creating layer relu1_1
I0120 09:13:31.008680 33389 net.cpp:100] Creating Layer relu1_1
I0120 09:13:31.008707 33389 net.cpp:434] relu1_1 <- conv1_1
I0120 09:13:31.008725 33389 net.cpp:395] relu1_1 -> conv1_1 (in-place)
I0120 09:13:31.009114 33389 net.cpp:150] Setting up relu1_1
I0120 09:13:31.009136 33389 net.cpp:157] Top shape: 12 64 224 224 (38535168)
I0120 09:13:31.009143 33389 net.cpp:165] Memory required for data: 326344704
I0120 09:13:31.009153 33389 layer_factory.hpp:77] Creating layer conv1_2
I0120 09:13:31.009207 33389 net.cpp:100] Creating Layer conv1_2
I0120 09:13:31.009218 33389 net.cpp:434] conv1_2 <- conv1_1
I0120 09:13:31.009235 33389 net.cpp:408] conv1_2 -> conv1_2
I0120 09:13:31.012703 33389 net.cpp:150] Setting up conv1_2
I0120 09:13:31.012738 33389 net.cpp:157] Top shape: 12 64 224 224 (38535168)
I0120 09:13:31.012748 33389 net.cpp:165] Memory required for data: 480485376
I0120 09:13:31.012768 33389 layer_factory.hpp:77] Creating layer relu1_2
I0120 09:13:31.012785 33389 net.cpp:100] Creating Layer relu1_2
I0120 09:13:31.012794 33389 net.cpp:434] relu1_2 <- conv1_2
I0120 09:13:31.012811 33389 net.cpp:395] relu1_2 -> conv1_2 (in-place)
I0120 09:13:31.014946 33389 net.cpp:150] Setting up relu1_2
I0120 09:13:31.014979 33389 net.cpp:157] Top shape: 12 64 224 224 (38535168)
I0120 09:13:31.014988 33389 net.cpp:165] Memory required for data: 634626048
I0120 09:13:31.014997 33389 layer_factory.hpp:77] Creating layer conv1_2_relu1_2_0_split
I0120 09:13:31.015022 33389 net.cpp:100] Creating Layer conv1_2_relu1_2_0_split
I0120 09:13:31.015040 33389 net.cpp:434] conv1_2_relu1_2_0_split <- conv1_2
I0120 09:13:31.015053 33389 net.cpp:408] conv1_2_relu1_2_0_split -> conv1_2_relu1_2_0_split_0
I0120 09:13:31.015067 33389 net.cpp:408] conv1_2_relu1_2_0_split -> conv1_2_relu1_2_0_split_1
I0120 09:13:31.015161 33389 net.cpp:150] Setting up conv1_2_relu1_2_0_split
I0120 09:13:31.015175 33389 net.cpp:157] Top shape: 12 64 224 224 (38535168)
I0120 09:13:31.015184 33389 net.cpp:157] Top shape: 12 64 224 224 (38535168)
I0120 09:13:31.015219 33389 net.cpp:165] Memory required for data: 942907392
I0120 09:13:31.015228 33389 layer_factory.hpp:77] Creating layer pool1
I0120 09:13:31.015254 33389 net.cpp:100] Creating Layer pool1
I0120 09:13:31.015264 33389 net.cpp:434] pool1 <- conv1_2_relu1_2_0_split_0
I0120 09:13:31.015275 33389 net.cpp:408] pool1 -> pool1
I0120 09:13:31.015372 33389 net.cpp:150] Setting up pool1
I0120 09:13:31.015388 33389 net.cpp:157] Top shape: 12 64 112 112 (9633792)
I0120 09:13:31.015398 33389 net.cpp:165] Memory required for data: 981442560
I0120 09:13:31.015406 33389 layer_factory.hpp:77] Creating layer conv2_1
I0120 09:13:31.015449 33389 net.cpp:100] Creating Layer conv2_1
I0120 09:13:31.015458 33389 net.cpp:434] conv2_1 <- pool1
I0120 09:13:31.015470 33389 net.cpp:408] conv2_1 -> conv2_1
I0120 09:13:31.025454 33389 net.cpp:150] Setting up conv2_1
I0120 09:13:31.025478 33389 net.cpp:157] Top shape: 12 128 112 112 (19267584)
I0120 09:13:31.025483 33389 net.cpp:165] Memory required for data: 1058512896
I0120 09:13:31.025498 33389 layer_factory.hpp:77] Creating layer relu2_1
I0120 09:13:31.025507 33389 net.cpp:100] Creating Layer relu2_1
I0120 09:13:31.025512 33389 net.cpp:434] relu2_1 <- conv2_1
I0120 09:13:31.025521 33389 net.cpp:395] relu2_1 -> conv2_1 (in-place)
I0120 09:13:31.026600 33389 net.cpp:150] Setting up relu2_1
I0120 09:13:31.026621 33389 net.cpp:157] Top shape: 12 128 112 112 (19267584)
I0120 09:13:31.026626 33389 net.cpp:165] Memory required for data: 1135583232
I0120 09:13:31.026631 33389 layer_factory.hpp:77] Creating layer conv2_2
I0120 09:13:31.026644 33389 net.cpp:100] Creating Layer conv2_2
I0120 09:13:31.026649 33389 net.cpp:434] conv2_2 <- conv2_1
I0120 09:13:31.026657 33389 net.cpp:408] conv2_2 -> conv2_2
I0120 09:13:31.029891 33389 net.cpp:150] Setting up conv2_2
I0120 09:13:31.029911 33389 net.cpp:157] Top shape: 12 128 112 112 (19267584)
I0120 09:13:31.029917 33389 net.cpp:165] Memory required for data: 1212653568
I0120 09:13:31.029927 33389 layer_factory.hpp:77] Creating layer relu2_2
I0120 09:13:31.029933 33389 net.cpp:100] Creating Layer relu2_2
I0120 09:13:31.029938 33389 net.cpp:434] relu2_2 <- conv2_2
I0120 09:13:31.029950 33389 net.cpp:395] relu2_2 -> conv2_2 (in-place)
I0120 09:13:31.030207 33389 net.cpp:150] Setting up relu2_2
I0120 09:13:31.030222 33389 net.cpp:157] Top shape: 12 128 112 112 (19267584)
I0120 09:13:31.030226 33389 net.cpp:165] Memory required for data: 1289723904
I0120 09:13:31.030231 33389 layer_factory.hpp:77] Creating layer conv2_2_relu2_2_0_split
I0120 09:13:31.030246 33389 net.cpp:100] Creating Layer conv2_2_relu2_2_0_split
I0120 09:13:31.030252 33389 net.cpp:434] conv2_2_relu2_2_0_split <- conv2_2
I0120 09:13:31.030259 33389 net.cpp:408] conv2_2_relu2_2_0_split -> conv2_2_relu2_2_0_split_0
I0120 09:13:31.030268 33389 net.cpp:408] conv2_2_relu2_2_0_split -> conv2_2_relu2_2_0_split_1
I0120 09:13:31.030328 33389 net.cpp:150] Setting up conv2_2_relu2_2_0_split
I0120 09:13:31.030338 33389 net.cpp:157] Top shape: 12 128 112 112 (19267584)
I0120 09:13:31.030342 33389 net.cpp:157] Top shape: 12 128 112 112 (19267584)
I0120 09:13:31.030346 33389 net.cpp:165] Memory required for data: 1443864576
I0120 09:13:31.030350 33389 layer_factory.hpp:77] Creating layer pool2
I0120 09:13:31.030370 33389 net.cpp:100] Creating Layer pool2
I0120 09:13:31.030375 33389 net.cpp:434] pool2 <- conv2_2_relu2_2_0_split_0
I0120 09:13:31.030385 33389 net.cpp:408] pool2 -> pool2
I0120 09:13:31.030436 33389 net.cpp:150] Setting up pool2
I0120 09:13:31.030445 33389 net.cpp:157] Top shape: 12 128 56 56 (4816896)
I0120 09:13:31.030453 33389 net.cpp:165] Memory required for data: 1463132160
I0120 09:13:31.030457 33389 layer_factory.hpp:77] Creating layer conv3_1
I0120 09:13:31.030467 33389 net.cpp:100] Creating Layer conv3_1
I0120 09:13:31.030470 33389 net.cpp:434] conv3_1 <- pool2
I0120 09:13:31.030479 33389 net.cpp:408] conv3_1 -> conv3_1
I0120 09:13:31.033591 33389 net.cpp:150] Setting up conv3_1
I0120 09:13:31.033612 33389 net.cpp:157] Top shape: 12 256 56 56 (9633792)
I0120 09:13:31.033633 33389 net.cpp:165] Memory required for data: 1501667328
I0120 09:13:31.033650 33389 layer_factory.hpp:77] Creating layer relu3_1
I0120 09:13:31.033659 33389 net.cpp:100] Creating Layer relu3_1
I0120 09:13:31.033663 33389 net.cpp:434] relu3_1 <- conv3_1
I0120 09:13:31.033674 33389 net.cpp:395] relu3_1 -> conv3_1 (in-place)
I0120 09:13:31.033926 33389 net.cpp:150] Setting up relu3_1
I0120 09:13:31.033941 33389 net.cpp:157] Top shape: 12 256 56 56 (9633792)
I0120 09:13:31.033946 33389 net.cpp:165] Memory required for data: 1540202496
I0120 09:13:31.033951 33389 layer_factory.hpp:77] Creating layer conv3_2
I0120 09:13:31.033977 33389 net.cpp:100] Creating Layer conv3_2
I0120 09:13:31.033982 33389 net.cpp:434] conv3_2 <- conv3_1
I0120 09:13:31.033989 33389 net.cpp:408] conv3_2 -> conv3_2
I0120 09:13:31.038957 33389 net.cpp:150] Setting up conv3_2
I0120 09:13:31.038978 33389 net.cpp:157] Top shape: 12 256 56 56 (9633792)
I0120 09:13:31.038985 33389 net.cpp:165] Memory required for data: 1578737664
I0120 09:13:31.038993 33389 layer_factory.hpp:77] Creating layer relu3_2
I0120 09:13:31.039003 33389 net.cpp:100] Creating Layer relu3_2
I0120 09:13:31.039010 33389 net.cpp:434] relu3_2 <- conv3_2
I0120 09:13:31.039016 33389 net.cpp:395] relu3_2 -> conv3_2 (in-place)
I0120 09:13:31.039269 33389 net.cpp:150] Setting up relu3_2
I0120 09:13:31.039285 33389 net.cpp:157] Top shape: 12 256 56 56 (9633792)
I0120 09:13:31.039290 33389 net.cpp:165] Memory required for data: 1617272832
I0120 09:13:31.039294 33389 layer_factory.hpp:77] Creating layer conv3_3
I0120 09:13:31.039306 33389 net.cpp:100] Creating Layer conv3_3
I0120 09:13:31.039314 33389 net.cpp:434] conv3_3 <- conv3_2
I0120 09:13:31.039330 33389 net.cpp:408] conv3_3 -> conv3_3
I0120 09:13:31.047013 33389 net.cpp:150] Setting up conv3_3
I0120 09:13:31.047035 33389 net.cpp:157] Top shape: 12 256 56 56 (9633792)
I0120 09:13:31.047040 33389 net.cpp:165] Memory required for data: 1655808000
I0120 09:13:31.047052 33389 layer_factory.hpp:77] Creating layer relu3_3
I0120 09:13:31.047070 33389 net.cpp:100] Creating Layer relu3_3
I0120 09:13:31.047075 33389 net.cpp:434] relu3_3 <- conv3_3
I0120 09:13:31.047086 33389 net.cpp:395] relu3_3 -> conv3_3 (in-place)
I0120 09:13:31.047341 33389 net.cpp:150] Setting up relu3_3
I0120 09:13:31.047356 33389 net.cpp:157] Top shape: 12 256 56 56 (9633792)
I0120 09:13:31.047361 33389 net.cpp:165] Memory required for data: 1694343168
I0120 09:13:31.047368 33389 layer_factory.hpp:77] Creating layer conv3_3_relu3_3_0_split
I0120 09:13:31.047375 33389 net.cpp:100] Creating Layer conv3_3_relu3_3_0_split
I0120 09:13:31.047380 33389 net.cpp:434] conv3_3_relu3_3_0_split <- conv3_3
I0120 09:13:31.047390 33389 net.cpp:408] conv3_3_relu3_3_0_split -> conv3_3_relu3_3_0_split_0
I0120 09:13:31.047404 33389 net.cpp:408] conv3_3_relu3_3_0_split -> conv3_3_relu3_3_0_split_1
I0120 09:13:31.047478 33389 net.cpp:150] Setting up conv3_3_relu3_3_0_split
I0120 09:13:31.047492 33389 net.cpp:157] Top shape: 12 256 56 56 (9633792)
I0120 09:13:31.047498 33389 net.cpp:157] Top shape: 12 256 56 56 (9633792)
I0120 09:13:31.047508 33389 net.cpp:165] Memory required for data: 1771413504
I0120 09:13:31.047513 33389 layer_factory.hpp:77] Creating layer conv4_1
I0120 09:13:31.047523 33389 net.cpp:100] Creating Layer conv4_1
I0120 09:13:31.047528 33389 net.cpp:434] conv4_1 <- conv3_3_relu3_3_0_split_0
I0120 09:13:31.047536 33389 net.cpp:408] conv4_1 -> conv4_1
I0120 09:13:31.052981 33389 net.cpp:150] Setting up conv4_1
I0120 09:13:31.053002 33389 net.cpp:157] Top shape: 12 512 56 56 (19267584)
I0120 09:13:31.053007 33389 net.cpp:165] Memory required for data: 1848483840
I0120 09:13:31.053016 33389 layer_factory.hpp:77] Creating layer relu4_1
I0120 09:13:31.053025 33389 net.cpp:100] Creating Layer relu4_1
I0120 09:13:31.053028 33389 net.cpp:434] relu4_1 <- conv4_1
I0120 09:13:31.053037 33389 net.cpp:395] relu4_1 -> conv4_1 (in-place)
I0120 09:13:31.054435 33389 net.cpp:150] Setting up relu4_1
I0120 09:13:31.054456 33389 net.cpp:157] Top shape: 12 512 56 56 (19267584)
I0120 09:13:31.054477 33389 net.cpp:165] Memory required for data: 1925554176
I0120 09:13:31.054482 33389 layer_factory.hpp:77] Creating layer conv4_2
I0120 09:13:31.054497 33389 net.cpp:100] Creating Layer conv4_2
I0120 09:13:31.054503 33389 net.cpp:434] conv4_2 <- conv4_1
I0120 09:13:31.054512 33389 net.cpp:408] conv4_2 -> conv4_2
I0120 09:13:31.061357 33389 net.cpp:150] Setting up conv4_2
I0120 09:13:31.061383 33389 net.cpp:157] Top shape: 12 512 56 56 (19267584)
I0120 09:13:31.061388 33389 net.cpp:165] Memory required for data: 2002624512
I0120 09:13:31.061405 33389 layer_factory.hpp:77] Creating layer relu4_2
I0120 09:13:31.061424 33389 net.cpp:100] Creating Layer relu4_2
I0120 09:13:31.061429 33389 net.cpp:434] relu4_2 <- conv4_2
I0120 09:13:31.061437 33389 net.cpp:395] relu4_2 -> conv4_2 (in-place)
I0120 09:13:31.061688 33389 net.cpp:150] Setting up relu4_2
I0120 09:13:31.061702 33389 net.cpp:157] Top shape: 12 512 56 56 (19267584)
I0120 09:13:31.061707 33389 net.cpp:165] Memory required for data: 2079694848
I0120 09:13:31.061712 33389 layer_factory.hpp:77] Creating layer conv4_3
I0120 09:13:31.061723 33389 net.cpp:100] Creating Layer conv4_3
I0120 09:13:31.061731 33389 net.cpp:434] conv4_3 <- conv4_2
I0120 09:13:31.061746 33389 net.cpp:408] conv4_3 -> conv4_3
I0120 09:13:31.068563 33389 net.cpp:150] Setting up conv4_3
I0120 09:13:31.068583 33389 net.cpp:157] Top shape: 12 512 56 56 (19267584)
I0120 09:13:31.068588 33389 net.cpp:165] Memory required for data: 2156765184
I0120 09:13:31.068596 33389 layer_factory.hpp:77] Creating layer relu4_3
I0120 09:13:31.068604 33389 net.cpp:100] Creating Layer relu4_3
I0120 09:13:31.068609 33389 net.cpp:434] relu4_3 <- conv4_3
I0120 09:13:31.068619 33389 net.cpp:395] relu4_3 -> conv4_3 (in-place)
I0120 09:13:31.068878 33389 net.cpp:150] Setting up relu4_3
I0120 09:13:31.068893 33389 net.cpp:157] Top shape: 12 512 56 56 (19267584)
I0120 09:13:31.068897 33389 net.cpp:165] Memory required for data: 2233835520
I0120 09:13:31.068902 33389 layer_factory.hpp:77] Creating layer conv4_3_relu4_3_0_split
I0120 09:13:31.068910 33389 net.cpp:100] Creating Layer conv4_3_relu4_3_0_split
I0120 09:13:31.068917 33389 net.cpp:434] conv4_3_relu4_3_0_split <- conv4_3
I0120 09:13:31.068931 33389 net.cpp:408] conv4_3_relu4_3_0_split -> conv4_3_relu4_3_0_split_0
I0120 09:13:31.068939 33389 net.cpp:408] conv4_3_relu4_3_0_split -> conv4_3_relu4_3_0_split_1
I0120 09:13:31.069002 33389 net.cpp:150] Setting up conv4_3_relu4_3_0_split
I0120 09:13:31.069012 33389 net.cpp:157] Top shape: 12 512 56 56 (19267584)
I0120 09:13:31.069017 33389 net.cpp:157] Top shape: 12 512 56 56 (19267584)
I0120 09:13:31.069021 33389 net.cpp:165] Memory required for data: 2387976192
I0120 09:13:31.069027 33389 layer_factory.hpp:77] Creating layer conv5_1
I0120 09:13:31.069053 33389 net.cpp:100] Creating Layer conv5_1
I0120 09:13:31.069061 33389 net.cpp:434] conv5_1 <- conv4_3_relu4_3_0_split_0
I0120 09:13:31.069072 33389 net.cpp:408] conv5_1 -> conv5_1
I0120 09:13:31.075964 33389 net.cpp:150] Setting up conv5_1
I0120 09:13:31.075986 33389 net.cpp:157] Top shape: 12 512 56 56 (19267584)
I0120 09:13:31.075991 33389 net.cpp:165] Memory required for data: 2465046528
I0120 09:13:31.075999 33389 layer_factory.hpp:77] Creating layer relu5_1
I0120 09:13:31.076009 33389 net.cpp:100] Creating Layer relu5_1
I0120 09:13:31.076015 33389 net.cpp:434] relu5_1 <- conv5_1
I0120 09:13:31.076021 33389 net.cpp:395] relu5_1 -> conv5_1 (in-place)
I0120 09:13:31.076277 33389 net.cpp:150] Setting up relu5_1
I0120 09:13:31.076292 33389 net.cpp:157] Top shape: 12 512 56 56 (19267584)
I0120 09:13:31.076297 33389 net.cpp:165] Memory required for data: 2542116864
I0120 09:13:31.076300 33389 layer_factory.hpp:77] Creating layer conv5_2
I0120 09:13:31.076314 33389 net.cpp:100] Creating Layer conv5_2
I0120 09:13:31.076323 33389 net.cpp:434] conv5_2 <- conv5_1
I0120 09:13:31.076330 33389 net.cpp:408] conv5_2 -> conv5_2
I0120 09:13:31.083137 33389 net.cpp:150] Setting up conv5_2
I0120 09:13:31.083158 33389 net.cpp:157] Top shape: 12 512 56 56 (19267584)
I0120 09:13:31.083163 33389 net.cpp:165] Memory required for data: 2619187200
I0120 09:13:31.083196 33389 layer_factory.hpp:77] Creating layer relu5_2
I0120 09:13:31.083204 33389 net.cpp:100] Creating Layer relu5_2
I0120 09:13:31.083209 33389 net.cpp:434] relu5_2 <- conv5_2
I0120 09:13:31.083219 33389 net.cpp:395] relu5_2 -> conv5_2 (in-place)
I0120 09:13:31.084465 33389 net.cpp:150] Setting up relu5_2
I0120 09:13:31.084486 33389 net.cpp:157] Top shape: 12 512 56 56 (19267584)
I0120 09:13:31.084491 33389 net.cpp:165] Memory required for data: 2696257536
I0120 09:13:31.084496 33389 layer_factory.hpp:77] Creating layer conv5_3
I0120 09:13:31.084508 33389 net.cpp:100] Creating Layer conv5_3
I0120 09:13:31.084513 33389 net.cpp:434] conv5_3 <- conv5_2
I0120 09:13:31.084523 33389 net.cpp:408] conv5_3 -> conv5_3
I0120 09:13:31.091388 33389 net.cpp:150] Setting up conv5_3
I0120 09:13:31.091410 33389 net.cpp:157] Top shape: 12 512 56 56 (19267584)
I0120 09:13:31.091415 33389 net.cpp:165] Memory required for data: 2773327872
I0120 09:13:31.091439 33389 layer_factory.hpp:77] Creating layer relu5_3
I0120 09:13:31.091449 33389 net.cpp:100] Creating Layer relu5_3
I0120 09:13:31.091459 33389 net.cpp:434] relu5_3 <- conv5_3
I0120 09:13:31.091469 33389 net.cpp:395] relu5_3 -> conv5_3 (in-place)
I0120 09:13:31.091725 33389 net.cpp:150] Setting up relu5_3
I0120 09:13:31.091740 33389 net.cpp:157] Top shape: 12 512 56 56 (19267584)
I0120 09:13:31.091744 33389 net.cpp:165] Memory required for data: 2850398208
I0120 09:13:31.091749 33389 layer_factory.hpp:77] Creating layer top_cov
I0120 09:13:31.091766 33389 net.cpp:100] Creating Layer top_cov
I0120 09:13:31.091774 33389 net.cpp:434] top_cov <- conv5_3
I0120 09:13:31.091787 33389 net.cpp:408] top_cov -> top_cov
I0120 09:13:31.129075 33389 net.cpp:150] Setting up top_cov
I0120 09:13:31.129146 33389 net.cpp:157] Top shape: 12 128 56 56 (4816896)
I0120 09:13:31.129156 33389 net.cpp:165] Memory required for data: 2869665792
I0120 09:13:31.129181 33389 layer_factory.hpp:77] Creating layer relu_top_cov
I0120 09:13:31.129201 33389 net.cpp:100] Creating Layer relu_top_cov
I0120 09:13:31.129211 33389 net.cpp:434] relu_top_cov <- top_cov
I0120 09:13:31.129223 33389 net.cpp:395] relu_top_cov -> top_cov (in-place)
I0120 09:13:31.129619 33389 net.cpp:150] Setting up relu_top_cov
I0120 09:13:31.129637 33389 net.cpp:157] Top shape: 12 128 56 56 (4816896)
I0120 09:13:31.129642 33389 net.cpp:165] Memory required for data: 2888933376
I0120 09:13:31.129645 33389 layer_factory.hpp:77] Creating layer top_cov_relu_top_cov_0_split
I0120 09:13:31.129654 33389 net.cpp:100] Creating Layer top_cov_relu_top_cov_0_split
I0120 09:13:31.129659 33389 net.cpp:434] top_cov_relu_top_cov_0_split <- top_cov
I0120 09:13:31.129667 33389 net.cpp:408] top_cov_relu_top_cov_0_split -> top_cov_relu_top_cov_0_split_0
I0120 09:13:31.129674 33389 net.cpp:408] top_cov_relu_top_cov_0_split -> top_cov_relu_top_cov_0_split_1
I0120 09:13:31.129765 33389 net.cpp:150] Setting up top_cov_relu_top_cov_0_split
I0120 09:13:31.129776 33389 net.cpp:157] Top shape: 12 128 56 56 (4816896)
I0120 09:13:31.129781 33389 net.cpp:157] Top shape: 12 128 56 56 (4816896)
I0120 09:13:31.129784 33389 net.cpp:165] Memory required for data: 2927468544
I0120 09:13:31.129789 33389 layer_factory.hpp:77] Creating layer cov_deconv_5_1
I0120 09:13:31.129820 33389 net.cpp:100] Creating Layer cov_deconv_5_1
I0120 09:13:31.129842 33389 net.cpp:434] cov_deconv_5_1 <- top_cov_relu_top_cov_0_split_0
I0120 09:13:31.129853 33389 net.cpp:408] cov_deconv_5_1 -> cov_deconv_5_1
I0120 09:13:31.132912 33389 net.cpp:150] Setting up cov_deconv_5_1
I0120 09:13:31.132936 33389 net.cpp:157] Top shape: 12 16 56 56 (602112)
I0120 09:13:31.132941 33389 net.cpp:165] Memory required for data: 2929876992
I0120 09:13:31.132957 33389 layer_factory.hpp:77] Creating layer relu_cov_deconv_5_1
I0120 09:13:31.132967 33389 net.cpp:100] Creating Layer relu_cov_deconv_5_1
I0120 09:13:31.132972 33389 net.cpp:434] relu_cov_deconv_5_1 <- cov_deconv_5_1
I0120 09:13:31.132982 33389 net.cpp:395] relu_cov_deconv_5_1 -> cov_deconv_5_1 (in-place)
I0120 09:13:31.133251 33389 net.cpp:150] Setting up relu_cov_deconv_5_1
I0120 09:13:31.133267 33389 net.cpp:157] Top shape: 12 16 56 56 (602112)
I0120 09:13:31.133271 33389 net.cpp:165] Memory required for data: 2932285440
I0120 09:13:31.133276 33389 layer_factory.hpp:77] Creating layer tri_CovDec_5_2
I0120 09:13:31.133293 33389 net.cpp:100] Creating Layer tri_CovDec_5_2
I0120 09:13:31.133299 33389 net.cpp:434] tri_CovDec_5_2 <- cov_deconv_5_1
I0120 09:13:31.133308 33389 net.cpp:408] tri_CovDec_5_2 -> tri_CovDec_5_2
I0120 09:13:31.136189 33389 net.cpp:150] Setting up tri_CovDec_5_2
I0120 09:13:31.136225 33389 net.cpp:157] Top shape: 12 2 56 56 (75264)
I0120 09:13:31.136234 33389 net.cpp:165] Memory required for data: 2932586496
I0120 09:13:31.136248 33389 layer_factory.hpp:77] Creating layer loss_tri_CovDec_5
I0120 09:13:31.136302 33389 net.cpp:100] Creating Layer loss_tri_CovDec_5
I0120 09:13:31.136314 33389 net.cpp:434] loss_tri_CovDec_5 <- tri_CovDec_5_2
I0120 09:13:31.136324 33389 net.cpp:434] loss_tri_CovDec_5 <- mask_56_mask_56_0_split_0
I0120 09:13:31.136337 33389 net.cpp:408] loss_tri_CovDec_5 -> loss_tri_CovDec_5
I0120 09:13:31.136378 33389 layer_factory.hpp:77] Creating layer loss_tri_CovDec_5
I0120 09:13:31.138984 33389 net.cpp:150] Setting up loss_tri_CovDec_5
I0120 09:13:31.139015 33389 net.cpp:157] Top shape: (1)
I0120 09:13:31.139024 33389 net.cpp:160]     with loss weight 1
I0120 09:13:31.139065 33389 net.cpp:165] Memory required for data: 2932586500
I0120 09:13:31.139072 33389 layer_factory.hpp:77] Creating layer km_1_conv_5
I0120 09:13:31.139097 33389 net.cpp:100] Creating Layer km_1_conv_5
I0120 09:13:31.139107 33389 net.cpp:434] km_1_conv_5 <- top_cov_relu_top_cov_0_split_1
I0120 09:13:31.139122 33389 net.cpp:408] km_1_conv_5 -> km_1_conv_5
I0120 09:13:31.184118 33389 net.cpp:150] Setting up km_1_conv_5
I0120 09:13:31.184149 33389 net.cpp:157] Top shape: 12 512 56 56 (19267584)
I0120 09:13:31.184156 33389 net.cpp:165] Memory required for data: 3009656836
I0120 09:13:31.184185 33389 layer_factory.hpp:77] Creating layer relu_km_1_deconv_5
I0120 09:13:31.184196 33389 net.cpp:100] Creating Layer relu_km_1_deconv_5
I0120 09:13:31.184204 33389 net.cpp:434] relu_km_1_deconv_5 <- km_1_conv_5
I0120 09:13:31.184216 33389 net.cpp:395] relu_km_1_deconv_5 -> km_1_conv_5 (in-place)
I0120 09:13:31.185763 33389 net.cpp:150] Setting up relu_km_1_deconv_5
I0120 09:13:31.185788 33389 net.cpp:157] Top shape: 12 512 56 56 (19267584)
I0120 09:13:31.185796 33389 net.cpp:165] Memory required for data: 3086727172
I0120 09:13:31.185801 33389 layer_factory.hpp:77] Creating layer km_2_conv_4
I0120 09:13:31.185822 33389 net.cpp:100] Creating Layer km_2_conv_4
I0120 09:13:31.185830 33389 net.cpp:434] km_2_conv_4 <- km_1_conv_5
I0120 09:13:31.185842 33389 net.cpp:408] km_2_conv_4 -> km_2_conv_4
I0120 09:13:31.249312 33389 net.cpp:150] Setting up km_2_conv_4
I0120 09:13:31.249341 33389 net.cpp:157] Top shape: 12 256 56 56 (9633792)
I0120 09:13:31.249346 33389 net.cpp:165] Memory required for data: 3125262340
I0120 09:13:31.249354 33389 layer_factory.hpp:77] Creating layer bn_km_2_conv_4
I0120 09:13:31.249440 33389 net.cpp:100] Creating Layer bn_km_2_conv_4
I0120 09:13:31.249480 33389 net.cpp:434] bn_km_2_conv_4 <- km_2_conv_4
I0120 09:13:31.249496 33389 net.cpp:395] bn_km_2_conv_4 -> km_2_conv_4 (in-place)
I0120 09:13:31.249867 33389 net.cpp:150] Setting up bn_km_2_conv_4
I0120 09:13:31.249883 33389 net.cpp:157] Top shape: 12 256 56 56 (9633792)
I0120 09:13:31.249888 33389 net.cpp:165] Memory required for data: 3163797508
I0120 09:13:31.249902 33389 layer_factory.hpp:77] Creating layer relu_km_2_conv_4
I0120 09:13:31.249924 33389 net.cpp:100] Creating Layer relu_km_2_conv_4
I0120 09:13:31.249933 33389 net.cpp:434] relu_km_2_conv_4 <- km_2_conv_4
I0120 09:13:31.249940 33389 net.cpp:395] relu_km_2_conv_4 -> km_2_conv_4 (in-place)
I0120 09:13:31.250236 33389 net.cpp:150] Setting up relu_km_2_conv_4
I0120 09:13:31.250252 33389 net.cpp:157] Top shape: 12 256 56 56 (9633792)
I0120 09:13:31.250255 33389 net.cpp:165] Memory required for data: 3202332676
I0120 09:13:31.250285 33389 layer_factory.hpp:77] Creating layer ks_1_deconv_4
I0120 09:13:31.250301 33389 net.cpp:100] Creating Layer ks_1_deconv_4
I0120 09:13:31.250310 33389 net.cpp:434] ks_1_deconv_4 <- conv4_3_relu4_3_0_split_1
I0120 09:13:31.250322 33389 net.cpp:408] ks_1_deconv_4 -> ks_1_deconv_4
I0120 09:13:31.325671 33389 net.cpp:150] Setting up ks_1_deconv_4
I0120 09:13:31.325697 33389 net.cpp:157] Top shape: 12 256 56 56 (9633792)
I0120 09:13:31.325705 33389 net.cpp:165] Memory required for data: 3240867844
I0120 09:13:31.325716 33389 layer_factory.hpp:77] Creating layer bn_ks_1_deconv_4
I0120 09:13:31.325732 33389 net.cpp:100] Creating Layer bn_ks_1_deconv_4
I0120 09:13:31.325739 33389 net.cpp:434] bn_ks_1_deconv_4 <- ks_1_deconv_4
I0120 09:13:31.325757 33389 net.cpp:395] bn_ks_1_deconv_4 -> ks_1_deconv_4 (in-place)
I0120 09:13:31.326072 33389 net.cpp:150] Setting up bn_ks_1_deconv_4
I0120 09:13:31.326088 33389 net.cpp:157] Top shape: 12 256 56 56 (9633792)
I0120 09:13:31.326093 33389 net.cpp:165] Memory required for data: 3279403012
I0120 09:13:31.326104 33389 layer_factory.hpp:77] Creating layer relu_ks_1_deconv_4
I0120 09:13:31.326122 33389 net.cpp:100] Creating Layer relu_ks_1_deconv_4
I0120 09:13:31.326128 33389 net.cpp:434] relu_ks_1_deconv_4 <- ks_1_deconv_4
I0120 09:13:31.326135 33389 net.cpp:395] relu_ks_1_deconv_4 -> ks_1_deconv_4 (in-place)
I0120 09:13:31.326428 33389 net.cpp:150] Setting up relu_ks_1_deconv_4
I0120 09:13:31.326445 33389 net.cpp:157] Top shape: 12 256 56 56 (9633792)
I0120 09:13:31.326450 33389 net.cpp:165] Memory required for data: 3317938180
I0120 09:13:31.326462 33389 layer_factory.hpp:77] Creating layer concat4
I0120 09:13:31.326479 33389 net.cpp:100] Creating Layer concat4
I0120 09:13:31.326484 33389 net.cpp:434] concat4 <- ks_1_deconv_4
I0120 09:13:31.326493 33389 net.cpp:434] concat4 <- km_2_conv_4
I0120 09:13:31.326503 33389 net.cpp:408] concat4 -> concat4
I0120 09:13:31.326551 33389 net.cpp:150] Setting up concat4
I0120 09:13:31.326565 33389 net.cpp:157] Top shape: 12 512 56 56 (19267584)
I0120 09:13:31.326570 33389 net.cpp:165] Memory required for data: 3395008516
I0120 09:13:31.326573 33389 layer_factory.hpp:77] Creating layer cov_deconv_4
I0120 09:13:31.326601 33389 net.cpp:100] Creating Layer cov_deconv_4
I0120 09:13:31.326617 33389 net.cpp:434] cov_deconv_4 <- concat4
I0120 09:13:31.326627 33389 net.cpp:408] cov_deconv_4 -> cov_deconv_4
I0120 09:13:31.387763 33389 net.cpp:150] Setting up cov_deconv_4
I0120 09:13:31.387797 33389 net.cpp:157] Top shape: 12 256 56 56 (9633792)
I0120 09:13:31.387805 33389 net.cpp:165] Memory required for data: 3433543684
I0120 09:13:31.387820 33389 layer_factory.hpp:77] Creating layer relu_cov_deconv_4
I0120 09:13:31.387835 33389 net.cpp:100] Creating Layer relu_cov_deconv_4
I0120 09:13:31.387845 33389 net.cpp:434] relu_cov_deconv_4 <- cov_deconv_4
I0120 09:13:31.387854 33389 net.cpp:395] relu_cov_deconv_4 -> cov_deconv_4 (in-place)
I0120 09:13:31.388252 33389 net.cpp:150] Setting up relu_cov_deconv_4
I0120 09:13:31.388273 33389 net.cpp:157] Top shape: 12 256 56 56 (9633792)
I0120 09:13:31.388279 33389 net.cpp:165] Memory required for data: 3472078852
I0120 09:13:31.388285 33389 layer_factory.hpp:77] Creating layer cov_deconv_4_relu_cov_deconv_4_0_split
I0120 09:13:31.388299 33389 net.cpp:100] Creating Layer cov_deconv_4_relu_cov_deconv_4_0_split
I0120 09:13:31.388308 33389 net.cpp:434] cov_deconv_4_relu_cov_deconv_4_0_split <- cov_deconv_4
I0120 09:13:31.388317 33389 net.cpp:408] cov_deconv_4_relu_cov_deconv_4_0_split -> cov_deconv_4_relu_cov_deconv_4_0_split_0
I0120 09:13:31.388331 33389 net.cpp:408] cov_deconv_4_relu_cov_deconv_4_0_split -> cov_deconv_4_relu_cov_deconv_4_0_split_1
I0120 09:13:31.388430 33389 net.cpp:150] Setting up cov_deconv_4_relu_cov_deconv_4_0_split
I0120 09:13:31.388444 33389 net.cpp:157] Top shape: 12 256 56 56 (9633792)
I0120 09:13:31.388453 33389 net.cpp:157] Top shape: 12 256 56 56 (9633792)
I0120 09:13:31.388458 33389 net.cpp:165] Memory required for data: 3549149188
I0120 09:13:31.388474 33389 layer_factory.hpp:77] Creating layer cov_deconv_4_1
I0120 09:13:31.388523 33389 net.cpp:100] Creating Layer cov_deconv_4_1
I0120 09:13:31.388536 33389 net.cpp:434] cov_deconv_4_1 <- cov_deconv_4_relu_cov_deconv_4_0_split_0
I0120 09:13:31.388551 33389 net.cpp:408] cov_deconv_4_1 -> cov_deconv_4_1
I0120 09:13:31.394333 33389 net.cpp:150] Setting up cov_deconv_4_1
I0120 09:13:31.394371 33389 net.cpp:157] Top shape: 12 16 56 56 (602112)
I0120 09:13:31.394378 33389 net.cpp:165] Memory required for data: 3551557636
I0120 09:13:31.394392 33389 layer_factory.hpp:77] Creating layer relu_cov_deconv_4_1
I0120 09:13:31.394414 33389 net.cpp:100] Creating Layer relu_cov_deconv_4_1
I0120 09:13:31.394423 33389 net.cpp:434] relu_cov_deconv_4_1 <- cov_deconv_4_1
I0120 09:13:31.394435 33389 net.cpp:395] relu_cov_deconv_4_1 -> cov_deconv_4_1 (in-place)
I0120 09:13:31.394800 33389 net.cpp:150] Setting up relu_cov_deconv_4_1
I0120 09:13:31.394821 33389 net.cpp:157] Top shape: 12 16 56 56 (602112)
I0120 09:13:31.394829 33389 net.cpp:165] Memory required for data: 3553966084
I0120 09:13:31.394834 33389 layer_factory.hpp:77] Creating layer tri_CovDec_4_2
I0120 09:13:31.394855 33389 net.cpp:100] Creating Layer tri_CovDec_4_2
I0120 09:13:31.394862 33389 net.cpp:434] tri_CovDec_4_2 <- cov_deconv_4_1
I0120 09:13:31.394881 33389 net.cpp:408] tri_CovDec_4_2 -> tri_CovDec_4_2
I0120 09:13:31.398210 33389 net.cpp:150] Setting up tri_CovDec_4_2
I0120 09:13:31.398241 33389 net.cpp:157] Top shape: 12 2 56 56 (75264)
I0120 09:13:31.398249 33389 net.cpp:165] Memory required for data: 3554267140
I0120 09:13:31.398262 33389 layer_factory.hpp:77] Creating layer loss_tri_CovDec_4
I0120 09:13:31.398299 33389 net.cpp:100] Creating Layer loss_tri_CovDec_4
I0120 09:13:31.398317 33389 net.cpp:434] loss_tri_CovDec_4 <- tri_CovDec_4_2
I0120 09:13:31.398327 33389 net.cpp:434] loss_tri_CovDec_4 <- mask_56_mask_56_0_split_1
I0120 09:13:31.398339 33389 net.cpp:408] loss_tri_CovDec_4 -> loss_tri_CovDec_4
I0120 09:13:31.398355 33389 layer_factory.hpp:77] Creating layer loss_tri_CovDec_4
I0120 09:13:31.399019 33389 net.cpp:150] Setting up loss_tri_CovDec_4
I0120 09:13:31.399039 33389 net.cpp:157] Top shape: (1)
I0120 09:13:31.399045 33389 net.cpp:160]     with loss weight 1
I0120 09:13:31.399060 33389 net.cpp:165] Memory required for data: 3554267144
I0120 09:13:31.399080 33389 layer_factory.hpp:77] Creating layer km_2_conv_3
I0120 09:13:31.399114 33389 net.cpp:100] Creating Layer km_2_conv_3
I0120 09:13:31.399125 33389 net.cpp:434] km_2_conv_3 <- cov_deconv_4_relu_cov_deconv_4_0_split_1
I0120 09:13:31.399137 33389 net.cpp:408] km_2_conv_3 -> km_2_conv_3
I0120 09:13:31.422886 33389 net.cpp:150] Setting up km_2_conv_3
I0120 09:13:31.422921 33389 net.cpp:157] Top shape: 12 128 56 56 (4816896)
I0120 09:13:31.422930 33389 net.cpp:165] Memory required for data: 3573534728
I0120 09:13:31.422945 33389 layer_factory.hpp:77] Creating layer bn_km_2_conv_3
I0120 09:13:31.422963 33389 net.cpp:100] Creating Layer bn_km_2_conv_3
I0120 09:13:31.422971 33389 net.cpp:434] bn_km_2_conv_3 <- km_2_conv_3
I0120 09:13:31.422982 33389 net.cpp:395] bn_km_2_conv_3 -> km_2_conv_3 (in-place)
I0120 09:13:31.423405 33389 net.cpp:150] Setting up bn_km_2_conv_3
I0120 09:13:31.423439 33389 net.cpp:157] Top shape: 12 128 56 56 (4816896)
I0120 09:13:31.423446 33389 net.cpp:165] Memory required for data: 3592802312
I0120 09:13:31.423462 33389 layer_factory.hpp:77] Creating layer relu_km_2_conv_3
I0120 09:13:31.423492 33389 net.cpp:100] Creating Layer relu_km_2_conv_3
I0120 09:13:31.423499 33389 net.cpp:434] relu_km_2_conv_3 <- km_2_conv_3
I0120 09:13:31.423508 33389 net.cpp:395] relu_km_2_conv_3 -> km_2_conv_3 (in-place)
I0120 09:13:31.425297 33389 net.cpp:150] Setting up relu_km_2_conv_3
I0120 09:13:31.425323 33389 net.cpp:157] Top shape: 12 128 56 56 (4816896)
I0120 09:13:31.425328 33389 net.cpp:165] Memory required for data: 3612069896
I0120 09:13:31.425345 33389 layer_factory.hpp:77] Creating layer ks_1_deconv_3
I0120 09:13:31.425379 33389 net.cpp:100] Creating Layer ks_1_deconv_3
I0120 09:13:31.425387 33389 net.cpp:434] ks_1_deconv_3 <- conv3_3_relu3_3_0_split_1
I0120 09:13:31.425418 33389 net.cpp:408] ks_1_deconv_3 -> ks_1_deconv_3
I0120 09:13:31.448243 33389 net.cpp:150] Setting up ks_1_deconv_3
I0120 09:13:31.448271 33389 net.cpp:157] Top shape: 12 128 56 56 (4816896)
I0120 09:13:31.448276 33389 net.cpp:165] Memory required for data: 3631337480
I0120 09:13:31.448292 33389 layer_factory.hpp:77] Creating layer bn_ks_1_deconv_3
I0120 09:13:31.448312 33389 net.cpp:100] Creating Layer bn_ks_1_deconv_3
I0120 09:13:31.448321 33389 net.cpp:434] bn_ks_1_deconv_3 <- ks_1_deconv_3
I0120 09:13:31.448329 33389 net.cpp:395] bn_ks_1_deconv_3 -> ks_1_deconv_3 (in-place)
I0120 09:13:31.448678 33389 net.cpp:150] Setting up bn_ks_1_deconv_3
I0120 09:13:31.448691 33389 net.cpp:157] Top shape: 12 128 56 56 (4816896)
I0120 09:13:31.448696 33389 net.cpp:165] Memory required for data: 3650605064
I0120 09:13:31.448709 33389 layer_factory.hpp:77] Creating layer relu_ks_1_deconv_3
I0120 09:13:31.448719 33389 net.cpp:100] Creating Layer relu_ks_1_deconv_3
I0120 09:13:31.448724 33389 net.cpp:434] relu_ks_1_deconv_3 <- ks_1_deconv_3
I0120 09:13:31.448730 33389 net.cpp:395] relu_ks_1_deconv_3 -> ks_1_deconv_3 (in-place)
I0120 09:13:31.449029 33389 net.cpp:150] Setting up relu_ks_1_deconv_3
I0120 09:13:31.449046 33389 net.cpp:157] Top shape: 12 128 56 56 (4816896)
I0120 09:13:31.449051 33389 net.cpp:165] Memory required for data: 3669872648
I0120 09:13:31.449056 33389 layer_factory.hpp:77] Creating layer concat3
I0120 09:13:31.449080 33389 net.cpp:100] Creating Layer concat3
I0120 09:13:31.449086 33389 net.cpp:434] concat3 <- ks_1_deconv_3
I0120 09:13:31.449093 33389 net.cpp:434] concat3 <- km_2_conv_3
I0120 09:13:31.449101 33389 net.cpp:408] concat3 -> concat3
I0120 09:13:31.449152 33389 net.cpp:150] Setting up concat3
I0120 09:13:31.449164 33389 net.cpp:157] Top shape: 12 256 56 56 (9633792)
I0120 09:13:31.449168 33389 net.cpp:165] Memory required for data: 3708407816
I0120 09:13:31.449173 33389 layer_factory.hpp:77] Creating layer cov_deconv_3
I0120 09:13:31.449193 33389 net.cpp:100] Creating Layer cov_deconv_3
I0120 09:13:31.449198 33389 net.cpp:434] cov_deconv_3 <- concat3
I0120 09:13:31.449209 33389 net.cpp:408] cov_deconv_3 -> cov_deconv_3
I0120 09:13:31.468710 33389 net.cpp:150] Setting up cov_deconv_3
I0120 09:13:31.468736 33389 net.cpp:157] Top shape: 12 128 56 56 (4816896)
I0120 09:13:31.468744 33389 net.cpp:165] Memory required for data: 3727675400
I0120 09:13:31.468753 33389 layer_factory.hpp:77] Creating layer relu_cov_deconv_3
I0120 09:13:31.468771 33389 net.cpp:100] Creating Layer relu_cov_deconv_3
I0120 09:13:31.468778 33389 net.cpp:434] relu_cov_deconv_3 <- cov_deconv_3
I0120 09:13:31.468788 33389 net.cpp:395] relu_cov_deconv_3 -> cov_deconv_3 (in-place)
I0120 09:13:31.469081 33389 net.cpp:150] Setting up relu_cov_deconv_3
I0120 09:13:31.469097 33389 net.cpp:157] Top shape: 12 128 56 56 (4816896)
I0120 09:13:31.469102 33389 net.cpp:165] Memory required for data: 3746942984
I0120 09:13:31.469106 33389 layer_factory.hpp:77] Creating layer cov_deconv_3_relu_cov_deconv_3_0_split
I0120 09:13:31.469115 33389 net.cpp:100] Creating Layer cov_deconv_3_relu_cov_deconv_3_0_split
I0120 09:13:31.469120 33389 net.cpp:434] cov_deconv_3_relu_cov_deconv_3_0_split <- cov_deconv_3
I0120 09:13:31.469130 33389 net.cpp:408] cov_deconv_3_relu_cov_deconv_3_0_split -> cov_deconv_3_relu_cov_deconv_3_0_split_0
I0120 09:13:31.469141 33389 net.cpp:408] cov_deconv_3_relu_cov_deconv_3_0_split -> cov_deconv_3_relu_cov_deconv_3_0_split_1
I0120 09:13:31.469220 33389 net.cpp:150] Setting up cov_deconv_3_relu_cov_deconv_3_0_split
I0120 09:13:31.469234 33389 net.cpp:157] Top shape: 12 128 56 56 (4816896)
I0120 09:13:31.469240 33389 net.cpp:157] Top shape: 12 128 56 56 (4816896)
I0120 09:13:31.469244 33389 net.cpp:165] Memory required for data: 3785478152
I0120 09:13:31.469256 33389 layer_factory.hpp:77] Creating layer cov_deconv_3_1
I0120 09:13:31.469270 33389 net.cpp:100] Creating Layer cov_deconv_3_1
I0120 09:13:31.469276 33389 net.cpp:434] cov_deconv_3_1 <- cov_deconv_3_relu_cov_deconv_3_0_split_0
I0120 09:13:31.469317 33389 net.cpp:408] cov_deconv_3_1 -> cov_deconv_3_1
I0120 09:13:31.472862 33389 net.cpp:150] Setting up cov_deconv_3_1
I0120 09:13:31.472889 33389 net.cpp:157] Top shape: 12 16 56 56 (602112)
I0120 09:13:31.472895 33389 net.cpp:165] Memory required for data: 3787886600
I0120 09:13:31.472905 33389 layer_factory.hpp:77] Creating layer relu_cov_deconv_3_1
I0120 09:13:31.472914 33389 net.cpp:100] Creating Layer relu_cov_deconv_3_1
I0120 09:13:31.472920 33389 net.cpp:434] relu_cov_deconv_3_1 <- cov_deconv_3_1
I0120 09:13:31.472930 33389 net.cpp:395] relu_cov_deconv_3_1 -> cov_deconv_3_1 (in-place)
I0120 09:13:31.473188 33389 net.cpp:150] Setting up relu_cov_deconv_3_1
I0120 09:13:31.473204 33389 net.cpp:157] Top shape: 12 16 56 56 (602112)
I0120 09:13:31.473208 33389 net.cpp:165] Memory required for data: 3790295048
I0120 09:13:31.473212 33389 layer_factory.hpp:77] Creating layer tri_CovDec_3_2
I0120 09:13:31.473237 33389 net.cpp:100] Creating Layer tri_CovDec_3_2
I0120 09:13:31.473244 33389 net.cpp:434] tri_CovDec_3_2 <- cov_deconv_3_1
I0120 09:13:31.473255 33389 net.cpp:408] tri_CovDec_3_2 -> tri_CovDec_3_2
I0120 09:13:31.475847 33389 net.cpp:150] Setting up tri_CovDec_3_2
I0120 09:13:31.475874 33389 net.cpp:157] Top shape: 12 2 56 56 (75264)
I0120 09:13:31.475880 33389 net.cpp:165] Memory required for data: 3790596104
I0120 09:13:31.475908 33389 layer_factory.hpp:77] Creating layer loss_tri_CovDec_3
I0120 09:13:31.475917 33389 net.cpp:100] Creating Layer loss_tri_CovDec_3
I0120 09:13:31.475922 33389 net.cpp:434] loss_tri_CovDec_3 <- tri_CovDec_3_2
I0120 09:13:31.475929 33389 net.cpp:434] loss_tri_CovDec_3 <- mask_56_mask_56_0_split_2
I0120 09:13:31.475937 33389 net.cpp:408] loss_tri_CovDec_3 -> loss_tri_CovDec_3
I0120 09:13:31.475950 33389 layer_factory.hpp:77] Creating layer loss_tri_CovDec_3
I0120 09:13:31.476428 33389 net.cpp:150] Setting up loss_tri_CovDec_3
I0120 09:13:31.476445 33389 net.cpp:157] Top shape: (1)
I0120 09:13:31.476450 33389 net.cpp:160]     with loss weight 1
I0120 09:13:31.476459 33389 net.cpp:165] Memory required for data: 3790596108
I0120 09:13:31.476472 33389 layer_factory.hpp:77] Creating layer km_1_deconv_2
I0120 09:13:31.476485 33389 net.cpp:100] Creating Layer km_1_deconv_2
I0120 09:13:31.476491 33389 net.cpp:434] km_1_deconv_2 <- cov_deconv_3_relu_cov_deconv_3_0_split_1
I0120 09:13:31.476502 33389 net.cpp:408] km_1_deconv_2 -> km_1_deconv_2
I0120 09:13:31.476925 33389 net.cpp:150] Setting up km_1_deconv_2
I0120 09:13:31.476939 33389 net.cpp:157] Top shape: 12 128 112 112 (19267584)
I0120 09:13:31.476943 33389 net.cpp:165] Memory required for data: 3867666444
I0120 09:13:31.476950 33389 layer_factory.hpp:77] Creating layer km_2_conv_2
I0120 09:13:31.476970 33389 net.cpp:100] Creating Layer km_2_conv_2
I0120 09:13:31.476976 33389 net.cpp:434] km_2_conv_2 <- km_1_deconv_2
I0120 09:13:31.476984 33389 net.cpp:408] km_2_conv_2 -> km_2_conv_2
I0120 09:13:31.485044 33389 net.cpp:150] Setting up km_2_conv_2
I0120 09:13:31.485067 33389 net.cpp:157] Top shape: 12 64 112 112 (9633792)
I0120 09:13:31.485074 33389 net.cpp:165] Memory required for data: 3906201612
I0120 09:13:31.485086 33389 layer_factory.hpp:77] Creating layer bn_km_2_conv_2
I0120 09:13:31.485096 33389 net.cpp:100] Creating Layer bn_km_2_conv_2
I0120 09:13:31.485101 33389 net.cpp:434] bn_km_2_conv_2 <- km_2_conv_2
I0120 09:13:31.485110 33389 net.cpp:395] bn_km_2_conv_2 -> km_2_conv_2 (in-place)
I0120 09:13:31.485450 33389 net.cpp:150] Setting up bn_km_2_conv_2
I0120 09:13:31.485465 33389 net.cpp:157] Top shape: 12 64 112 112 (9633792)
I0120 09:13:31.485469 33389 net.cpp:165] Memory required for data: 3944736780
I0120 09:13:31.485479 33389 layer_factory.hpp:77] Creating layer relu_km_2_conv_2
I0120 09:13:31.485504 33389 net.cpp:100] Creating Layer relu_km_2_conv_2
I0120 09:13:31.485510 33389 net.cpp:434] relu_km_2_conv_2 <- km_2_conv_2
I0120 09:13:31.485517 33389 net.cpp:395] relu_km_2_conv_2 -> km_2_conv_2 (in-place)
I0120 09:13:31.485800 33389 net.cpp:150] Setting up relu_km_2_conv_2
I0120 09:13:31.485831 33389 net.cpp:157] Top shape: 12 64 112 112 (9633792)
I0120 09:13:31.485836 33389 net.cpp:165] Memory required for data: 3983271948
I0120 09:13:31.485841 33389 layer_factory.hpp:77] Creating layer ks_1_deconv_2
I0120 09:13:31.485857 33389 net.cpp:100] Creating Layer ks_1_deconv_2
I0120 09:13:31.485863 33389 net.cpp:434] ks_1_deconv_2 <- conv2_2_relu2_2_0_split_1
I0120 09:13:31.485874 33389 net.cpp:408] ks_1_deconv_2 -> ks_1_deconv_2
I0120 09:13:31.492185 33389 net.cpp:150] Setting up ks_1_deconv_2
I0120 09:13:31.492208 33389 net.cpp:157] Top shape: 12 64 112 112 (9633792)
I0120 09:13:31.492214 33389 net.cpp:165] Memory required for data: 4021807116
I0120 09:13:31.492223 33389 layer_factory.hpp:77] Creating layer bn_ks_1_deconv_2
I0120 09:13:31.492235 33389 net.cpp:100] Creating Layer bn_ks_1_deconv_2
I0120 09:13:31.492241 33389 net.cpp:434] bn_ks_1_deconv_2 <- ks_1_deconv_2
I0120 09:13:31.492251 33389 net.cpp:395] bn_ks_1_deconv_2 -> ks_1_deconv_2 (in-place)
I0120 09:13:31.492584 33389 net.cpp:150] Setting up bn_ks_1_deconv_2
I0120 09:13:31.492597 33389 net.cpp:157] Top shape: 12 64 112 112 (9633792)
I0120 09:13:31.492602 33389 net.cpp:165] Memory required for data: 4060342284
I0120 09:13:31.492612 33389 layer_factory.hpp:77] Creating layer relu_ks_1_deconv_2
I0120 09:13:31.492630 33389 net.cpp:100] Creating Layer relu_ks_1_deconv_2
I0120 09:13:31.492635 33389 net.cpp:434] relu_ks_1_deconv_2 <- ks_1_deconv_2
I0120 09:13:31.492641 33389 net.cpp:395] relu_ks_1_deconv_2 -> ks_1_deconv_2 (in-place)
I0120 09:13:31.493820 33389 net.cpp:150] Setting up relu_ks_1_deconv_2
I0120 09:13:31.493844 33389 net.cpp:157] Top shape: 12 64 112 112 (9633792)
I0120 09:13:31.493849 33389 net.cpp:165] Memory required for data: 4098877452
I0120 09:13:31.493862 33389 layer_factory.hpp:77] Creating layer concat2
I0120 09:13:31.493870 33389 net.cpp:100] Creating Layer concat2
I0120 09:13:31.493876 33389 net.cpp:434] concat2 <- ks_1_deconv_2
I0120 09:13:31.493883 33389 net.cpp:434] concat2 <- km_2_conv_2
I0120 09:13:31.493890 33389 net.cpp:408] concat2 -> concat2
I0120 09:13:31.493940 33389 net.cpp:150] Setting up concat2
I0120 09:13:31.493949 33389 net.cpp:157] Top shape: 12 128 112 112 (19267584)
I0120 09:13:31.493953 33389 net.cpp:165] Memory required for data: 4175947788
I0120 09:13:31.493957 33389 layer_factory.hpp:77] Creating layer cov_deconv_2
I0120 09:13:31.493976 33389 net.cpp:100] Creating Layer cov_deconv_2
I0120 09:13:31.493983 33389 net.cpp:434] cov_deconv_2 <- concat2
I0120 09:13:31.493993 33389 net.cpp:408] cov_deconv_2 -> cov_deconv_2
I0120 09:13:31.500102 33389 net.cpp:150] Setting up cov_deconv_2
I0120 09:13:31.500124 33389 net.cpp:157] Top shape: 12 64 112 112 (9633792)
I0120 09:13:31.500129 33389 net.cpp:165] Memory required for data: 4214482956
I0120 09:13:31.500138 33389 layer_factory.hpp:77] Creating layer relu_cov_deconv_2
I0120 09:13:31.500149 33389 net.cpp:100] Creating Layer relu_cov_deconv_2
I0120 09:13:31.500154 33389 net.cpp:434] relu_cov_deconv_2 <- cov_deconv_2
I0120 09:13:31.500160 33389 net.cpp:395] relu_cov_deconv_2 -> cov_deconv_2 (in-place)
I0120 09:13:31.500429 33389 net.cpp:150] Setting up relu_cov_deconv_2
I0120 09:13:31.500443 33389 net.cpp:157] Top shape: 12 64 112 112 (9633792)
I0120 09:13:31.500448 33389 net.cpp:165] Memory required for data: 4253018124
I0120 09:13:31.500460 33389 layer_factory.hpp:77] Creating layer cov_deconv_2_relu_cov_deconv_2_0_split
I0120 09:13:31.500471 33389 net.cpp:100] Creating Layer cov_deconv_2_relu_cov_deconv_2_0_split
I0120 09:13:31.500476 33389 net.cpp:434] cov_deconv_2_relu_cov_deconv_2_0_split <- cov_deconv_2
I0120 09:13:31.500483 33389 net.cpp:408] cov_deconv_2_relu_cov_deconv_2_0_split -> cov_deconv_2_relu_cov_deconv_2_0_split_0
I0120 09:13:31.500491 33389 net.cpp:408] cov_deconv_2_relu_cov_deconv_2_0_split -> cov_deconv_2_relu_cov_deconv_2_0_split_1
I0120 09:13:31.500578 33389 net.cpp:150] Setting up cov_deconv_2_relu_cov_deconv_2_0_split
I0120 09:13:31.500591 33389 net.cpp:157] Top shape: 12 64 112 112 (9633792)
I0120 09:13:31.500597 33389 net.cpp:157] Top shape: 12 64 112 112 (9633792)
I0120 09:13:31.500615 33389 net.cpp:165] Memory required for data: 4330088460
I0120 09:13:31.500619 33389 layer_factory.hpp:77] Creating layer cov_deconv_2_1
I0120 09:13:31.500634 33389 net.cpp:100] Creating Layer cov_deconv_2_1
I0120 09:13:31.500639 33389 net.cpp:434] cov_deconv_2_1 <- cov_deconv_2_relu_cov_deconv_2_0_split_0
I0120 09:13:31.500649 33389 net.cpp:408] cov_deconv_2_1 -> cov_deconv_2_1
I0120 09:13:31.507606 33389 net.cpp:150] Setting up cov_deconv_2_1
I0120 09:13:31.507642 33389 net.cpp:157] Top shape: 12 8 112 112 (1204224)
I0120 09:13:31.507648 33389 net.cpp:165] Memory required for data: 4334905356
I0120 09:13:31.507660 33389 layer_factory.hpp:77] Creating layer relu_cov_deconv_2_1
I0120 09:13:31.507674 33389 net.cpp:100] Creating Layer relu_cov_deconv_2_1
I0120 09:13:31.507683 33389 net.cpp:434] relu_cov_deconv_2_1 <- cov_deconv_2_1
I0120 09:13:31.507692 33389 net.cpp:395] relu_cov_deconv_2_1 -> cov_deconv_2_1 (in-place)
I0120 09:13:31.508080 33389 net.cpp:150] Setting up relu_cov_deconv_2_1
I0120 09:13:31.508101 33389 net.cpp:157] Top shape: 12 8 112 112 (1204224)
I0120 09:13:31.508108 33389 net.cpp:165] Memory required for data: 4339722252
I0120 09:13:31.508114 33389 layer_factory.hpp:77] Creating layer tri_CovDec_2_2
I0120 09:13:31.508136 33389 net.cpp:100] Creating Layer tri_CovDec_2_2
I0120 09:13:31.508144 33389 net.cpp:434] tri_CovDec_2_2 <- cov_deconv_2_1
I0120 09:13:31.508159 33389 net.cpp:408] tri_CovDec_2_2 -> tri_CovDec_2_2
I0120 09:13:31.511404 33389 net.cpp:150] Setting up tri_CovDec_2_2
I0120 09:13:31.511448 33389 net.cpp:157] Top shape: 12 2 112 112 (301056)
I0120 09:13:31.511461 33389 net.cpp:165] Memory required for data: 4340926476
I0120 09:13:31.511476 33389 layer_factory.hpp:77] Creating layer loss_tri_CovDec_2
I0120 09:13:31.511493 33389 net.cpp:100] Creating Layer loss_tri_CovDec_2
I0120 09:13:31.511502 33389 net.cpp:434] loss_tri_CovDec_2 <- tri_CovDec_2_2
I0120 09:13:31.511512 33389 net.cpp:434] loss_tri_CovDec_2 <- mask_112
I0120 09:13:31.511533 33389 net.cpp:408] loss_tri_CovDec_2 -> loss_tri_CovDec_2
I0120 09:13:31.511553 33389 layer_factory.hpp:77] Creating layer loss_tri_CovDec_2
I0120 09:13:31.514215 33389 net.cpp:150] Setting up loss_tri_CovDec_2
I0120 09:13:31.514246 33389 net.cpp:157] Top shape: (1)
I0120 09:13:31.514255 33389 net.cpp:160]     with loss weight 1
I0120 09:13:31.514269 33389 net.cpp:165] Memory required for data: 4340926480
I0120 09:13:31.514277 33389 layer_factory.hpp:77] Creating layer km_1_deconv_1
I0120 09:13:31.514297 33389 net.cpp:100] Creating Layer km_1_deconv_1
I0120 09:13:31.514310 33389 net.cpp:434] km_1_deconv_1 <- cov_deconv_2_relu_cov_deconv_2_0_split_1
I0120 09:13:31.514328 33389 net.cpp:408] km_1_deconv_1 -> km_1_deconv_1
I0120 09:13:31.514900 33389 net.cpp:150] Setting up km_1_deconv_1
I0120 09:13:31.514919 33389 net.cpp:157] Top shape: 12 64 224 224 (38535168)
I0120 09:13:31.514925 33389 net.cpp:165] Memory required for data: 4495067152
I0120 09:13:31.514935 33389 layer_factory.hpp:77] Creating layer km_1_conv_1
I0120 09:13:31.514957 33389 net.cpp:100] Creating Layer km_1_conv_1
I0120 09:13:31.514966 33389 net.cpp:434] km_1_conv_1 <- km_1_deconv_1
I0120 09:13:31.514978 33389 net.cpp:408] km_1_conv_1 -> km_1_conv_1
I0120 09:13:31.519713 33389 net.cpp:150] Setting up km_1_conv_1
I0120 09:13:31.519747 33389 net.cpp:157] Top shape: 12 32 224 224 (19267584)
I0120 09:13:31.519755 33389 net.cpp:165] Memory required for data: 4572137488
I0120 09:13:31.519773 33389 layer_factory.hpp:77] Creating layer bn_km_1_conv_1
I0120 09:13:31.519791 33389 net.cpp:100] Creating Layer bn_km_1_conv_1
I0120 09:13:31.519801 33389 net.cpp:434] bn_km_1_conv_1 <- km_1_conv_1
I0120 09:13:31.519819 33389 net.cpp:395] bn_km_1_conv_1 -> km_1_conv_1 (in-place)
I0120 09:13:31.520382 33389 net.cpp:150] Setting up bn_km_1_conv_1
I0120 09:13:31.520400 33389 net.cpp:157] Top shape: 12 32 224 224 (19267584)
I0120 09:13:31.520406 33389 net.cpp:165] Memory required for data: 4649207824
I0120 09:13:31.520421 33389 layer_factory.hpp:77] Creating layer relu_km_1_conv_1
I0120 09:13:31.520457 33389 net.cpp:100] Creating Layer relu_km_1_conv_1
I0120 09:13:31.520465 33389 net.cpp:434] relu_km_1_conv_1 <- km_1_conv_1
I0120 09:13:31.520481 33389 net.cpp:395] relu_km_1_conv_1 -> km_1_conv_1 (in-place)
I0120 09:13:31.520850 33389 net.cpp:150] Setting up relu_km_1_conv_1
I0120 09:13:31.520869 33389 net.cpp:157] Top shape: 12 32 224 224 (19267584)
I0120 09:13:31.520875 33389 net.cpp:165] Memory required for data: 4726278160
I0120 09:13:31.520881 33389 layer_factory.hpp:77] Creating layer ks_1_deconv_1
I0120 09:13:31.520902 33389 net.cpp:100] Creating Layer ks_1_deconv_1
I0120 09:13:31.520911 33389 net.cpp:434] ks_1_deconv_1 <- conv1_2_relu1_2_0_split_1
I0120 09:13:31.520926 33389 net.cpp:408] ks_1_deconv_1 -> ks_1_deconv_1
I0120 09:13:31.526844 33389 net.cpp:150] Setting up ks_1_deconv_1
I0120 09:13:31.526878 33389 net.cpp:157] Top shape: 12 32 224 224 (19267584)
I0120 09:13:31.526887 33389 net.cpp:165] Memory required for data: 4803348496
I0120 09:13:31.526901 33389 layer_factory.hpp:77] Creating layer bn_ks_1_deconv_1
I0120 09:13:31.526918 33389 net.cpp:100] Creating Layer bn_ks_1_deconv_1
I0120 09:13:31.526926 33389 net.cpp:434] bn_ks_1_deconv_1 <- ks_1_deconv_1
I0120 09:13:31.526937 33389 net.cpp:395] bn_ks_1_deconv_1 -> ks_1_deconv_1 (in-place)
I0120 09:13:31.527544 33389 net.cpp:150] Setting up bn_ks_1_deconv_1
I0120 09:13:31.527565 33389 net.cpp:157] Top shape: 12 32 224 224 (19267584)
I0120 09:13:31.527575 33389 net.cpp:165] Memory required for data: 4880418832
I0120 09:13:31.527590 33389 layer_factory.hpp:77] Creating layer relu_ks_1_deconv_1
I0120 09:13:31.527614 33389 net.cpp:100] Creating Layer relu_ks_1_deconv_1
I0120 09:13:31.527628 33389 net.cpp:434] relu_ks_1_deconv_1 <- ks_1_deconv_1
I0120 09:13:31.527640 33389 net.cpp:395] relu_ks_1_deconv_1 -> ks_1_deconv_1 (in-place)
I0120 09:13:31.528018 33389 net.cpp:150] Setting up relu_ks_1_deconv_1
I0120 09:13:31.528038 33389 net.cpp:157] Top shape: 12 32 224 224 (19267584)
I0120 09:13:31.528044 33389 net.cpp:165] Memory required for data: 4957489168
I0120 09:13:31.528050 33389 layer_factory.hpp:77] Creating layer concat1
I0120 09:13:31.528065 33389 net.cpp:100] Creating Layer concat1
I0120 09:13:31.528072 33389 net.cpp:434] concat1 <- ks_1_deconv_1
I0120 09:13:31.528081 33389 net.cpp:434] concat1 <- km_1_conv_1
I0120 09:13:31.528091 33389 net.cpp:408] concat1 -> concat1
I0120 09:13:31.528157 33389 net.cpp:150] Setting up concat1
I0120 09:13:31.528172 33389 net.cpp:157] Top shape: 12 64 224 224 (38535168)
I0120 09:13:31.528177 33389 net.cpp:165] Memory required for data: 5111629840
I0120 09:13:31.528183 33389 layer_factory.hpp:77] Creating layer segfuse
I0120 09:13:31.528213 33389 net.cpp:100] Creating Layer segfuse
I0120 09:13:31.528220 33389 net.cpp:434] segfuse <- concat1
I0120 09:13:31.528235 33389 net.cpp:408] segfuse -> segfuse
I0120 09:13:31.531621 33389 net.cpp:150] Setting up segfuse
I0120 09:13:31.531652 33389 net.cpp:157] Top shape: 12 8 224 224 (4816896)
I0120 09:13:31.531661 33389 net.cpp:165] Memory required for data: 5130897424
I0120 09:13:31.531673 33389 layer_factory.hpp:77] Creating layer relu_segfuse
I0120 09:13:31.531688 33389 net.cpp:100] Creating Layer relu_segfuse
I0120 09:13:31.531697 33389 net.cpp:434] relu_segfuse <- segfuse
I0120 09:13:31.531713 33389 net.cpp:395] relu_segfuse -> segfuse (in-place)
I0120 09:13:31.533370 33389 net.cpp:150] Setting up relu_segfuse
I0120 09:13:31.533398 33389 net.cpp:157] Top shape: 12 8 224 224 (4816896)
I0120 09:13:31.533406 33389 net.cpp:165] Memory required for data: 5150165008
I0120 09:13:31.533413 33389 layer_factory.hpp:77] Creating layer tri_CovDec_1_2
I0120 09:13:31.533434 33389 net.cpp:100] Creating Layer tri_CovDec_1_2
I0120 09:13:31.533442 33389 net.cpp:434] tri_CovDec_1_2 <- segfuse
I0120 09:13:31.533457 33389 net.cpp:408] tri_CovDec_1_2 -> tri_CovDec_1_2
I0120 09:13:31.539496 33389 net.cpp:150] Setting up tri_CovDec_1_2
I0120 09:13:31.539532 33389 net.cpp:157] Top shape: 12 2 224 224 (1204224)
I0120 09:13:31.539539 33389 net.cpp:165] Memory required for data: 5154981904
I0120 09:13:31.539575 33389 layer_factory.hpp:77] Creating layer loss_tri_CovDec_1
I0120 09:13:31.539600 33389 net.cpp:100] Creating Layer loss_tri_CovDec_1
I0120 09:13:31.539610 33389 net.cpp:434] loss_tri_CovDec_1 <- tri_CovDec_1_2
I0120 09:13:31.539619 33389 net.cpp:434] loss_tri_CovDec_1 <- mask_mask_0_split_2
…
